models/EBPR_ml-100k_batchsize_500_opt_adam_lr_0.001_latent_10_l2reg_0_Epoch49_NDCG@10_0.3384_HR@10_0.5885_MEP@10_0.9035_WMEP@10_0.3497_Avg_Pop@10_0.5100_EFD@10_1.0507_Avg_Pair_Sim@10_0.2977.model (torch, 106151 bytes, 2 tensors)

embed_user.weight f4 [943, 10]
0	0xbebd7925	-0.37006488
1	0x3e9ab8d6	0.30219144
2	0x3eabe327	0.3357174
3	0x3e98d979	0.29853418
4	0xbf91631a	-1.1358368
5	0xbe341d0e	-0.17589208
6	0xbe093e9e	-0.13402793
7	0xbe58796b	-0.21140067
8	0xbf56d067	-0.83911747
9	0xbf2fce8d	-0.68674546
10	0xbe0f4418	-0.1399082
11	0x3f4b2fe9	0.7936998
12	0x3e885741	0.2662907
13	0x3e58fc96	0.21190104
14	0xbe690569	-0.2275597
15	0x3dbd9340	0.09256601
16	0xbffcb189	-1.974168
17	0x3e204ea8	0.15655005
18	0xbf3996e2	-0.72495854
19	0xbe085c7f	-0.13316534
20	0xbf231051	-0.6369677
21	0x3f696f9d	0.91185933
22	0x3f775a8e	0.9662255
23	0x3f01192b	0.5042903
24	0x3efcf2f6	0.49404114
25	0xbf8673e5	-1.0504118
26	0xbf861f82	-1.0478365
27	0xbf63ad4d	-0.8893631
28	0x3e53bd4d	0.20677681
29	0xbe2230d3	-0.15838937
30	0xbf3254bb	-0.6966054
31	0x3eb0d2ed	0.34535924
32	0x3f6f90b0	0.9358015
33	0xbf09ac25	-0.53778297
34	0xbef720db	-0.48267254
35	0xbf8f1ccd	-1.1180664
36	0xbf8da1d8	-1.1065016
37	0xbf8631fd	-1.0484005
38	0xbf31bc2d	-0.6942776
39	0xbe9014e7	-0.28140947
40	0x3d6dde6a	0.05807344
41	0x3f7e064b	0.9922835
42	0x3b6c4e45	0.0036057394
43	0x3f9b9187	1.2153786
44	0xbf603d49	-0.87593514
45	0x3f2ba8a0	0.67054176
46	0xbf890177	-1.0703572
47	0x3f0efe0c	0.55856395
48	0xbf74f5f5	-0.956878
49	0xbe92821c	-0.2861489
50	0xbf73c1d9	-0.95217663
51	0x3ecf5ff7	0.40502903
52	0x3fb22764	1.3918271
53	0x3fb84db2	1.4398711
54	0xbfa0ae03	-1.2553104
55	0xbfa7e00c	-1.3115249
56	0xbdc4263c	-0.09577605
57	0xbf95528e	-1.1665819
58	0xbf0170d2	-0.50562775
59	0xbf634481	-0.88776404
60	0xbf0b02cd	-0.5430115
61	0x3f3807f4	0.71887136
62	0x3e930af0	0.28719282
63	0x3ed52e04	0.4163667
64	0xbf97bf43	-1.1855243
65	0xbf102d60	-0.56319237
66	0xbf00a928	-0.5025811
67	0xbf1753a3	-0.59111995
68	0xbf9c3a2d	-1.2205254
69	0xbf918ed5	-1.1371714
70	0xbf5cc9a7	-0.862452
71	0x3f5137e7	0.81725925
72	0x3f3b3dc3	0.73141116
73	0x3fb72a2b	1.4309744
74	0xbf7e9b68	-0.9945588
75	0xbf0d9973	-0.5531227
76	0xbeec4295	-0.46144548
77	0xbf155531	-0.58333117
78	0xbf5c6276	-0.8608774
79	0xbf899b7a	-1.0750573
80	0xbf8315ca	-1.0241024
81	0x3e9e5572	0.30924565
82	0x3ee7c254	0.45265448
83	0x3f8cbb56	1.099467
84	0xbfb9b4c5	-1.4508291
85	0xbf11debe	-0.569805
86	0x3f0b5e15	0.5444043
87	0xbf5b60ba	-0.8569447
88	0xbf9bfe8f	-1.218706
89	0xbfd3f8c8	-1.6560297
90	0xbf1e6525	-0.61873084
91	0x3e4a57bd	0.19760032
92	0x3ed60587	0.41801092
93	0x3fc9e0fe	1.5771787
94	0xc00e7321	-2.225777
95	0xbf230cb8	-0.6369128
96	0x3f4d40c8	0.80176973
97	0xbf38fd98	-0.72261953
98	0xbf320c02	-0.6954957
99	0xbfd4e92f	-1.6633662
100	0xbf5cfbb3	-0.8632156
101	0x3f2f8b04	0.68571496
102	0x3f4c4e2a	0.7980677
103	0x3e667d53	0.22508745
104	0xbf892c21	-1.0716592
105	0xbf825db5	-1.0184847
106	0xbf0b61be	-0.5444602
107	0xbf78191f	-0.9691333
108	0xbf9abb9c	-1.2088504
109	0xbf3f2dab	-0.7467906
110	0xbee81556	-0.45328778
111	0x3ecdfcdf	0.40231988
112	0x3f4e28e5	0.8053115
113	0x3d67a2d7	0.05655178
114	0xbf3c8212	-0.7363597
115	0xbf51c0a9	-0.819346
116	0xbf832313	-1.0245079
117	0xbf3cabf0	-0.73699856
118	0xbf0a1371	-0.53935915
119	0xbd5eef38	-0.054427356
120	0xbf202b99	-0.62566525
121	0x3f4228e1	0.75843626
122	0x3fb8a64b	1.4425749
123	0x3f38a367	0.7212433
124	0x3da63c43	0.08116963
125	0xbfaebccf	-1.365137
126	0xbfe3ccd0	-1.7796879
127	0xbf89f95c	-1.0779223
128	0xbd948137	-0.07251208
129	0x3e48639c	0.19569248
130	0xbfb0c3bd	-1.3809735
131	0x3f063f16	0.5244001
132	0x3f9bc1df	1.216854
133	0x3f693836	0.91101396
134	0xbf16fac6	-0.589764
135	0xbfaaa245	-1.3330771
136	0xbe88bb00	-0.2670517
137	0xbfaa1efa	-1.3290703
138	0xbeee3457	-0.46524307
139	0xbf8e2bbe	-1.1107099
140	0xbf05626f	-0.5210332
141	0x3e3c1cf3	0.18370418
142	0x3f0749ee	0.5284718
143	0x3ec73ad6	0.38912076
144	0xbf02eefa	-0.511459
145	0xbd82d880	-0.0638895
146	0xbf2bab7b	-0.67058533
147	0xbde8db08	-0.11369902
148	0xbf27d7b3	-0.65563506
149	0xbeeb3a95	-0.45943132
150	0xbf2e810e	-0.6816567
151	0x3fad68ce	1.3547609
152	0x3f7571cf	0.95876783
153	0xbe495c18	-0.19664037
154	0x3cf83f4c	0.03030362
155	0xbf75a7b5	-0.95959026
156	0xc003428b	-2.0509365
157	0xbf8994bb	-1.0748514
158	0xbf2f306b	-0.68433255
159	0xbefa4d7e	-0.48887247
160	0xbf6765b8	-0.90389585
161	0xbe8a3d8f	-0.2700009
162	0x3ea813b5	0.32827535
163	0x3e856ade	0.26058096
164	0xbf158ead	-0.5842083
165	0xbf4bcbf8	-0.79608107
166	0x3f43f788	0.7654958
167	0xbf66f319	-0.9021469
168	0xbeae5141	-0.34046367
169	0xbf75bb56	-0.95988977
170	0xbfbd8a5e	-1.4807851
171	0x3e81c6d3	0.25347003
172	0x3fc036ed	1.5016762
173	0x3f246dd3	0.6423008
174	0xbe6845e9	-0.22682919
175	0xc0096292	-2.1466413
176	0xbd166e13	-0.03672607
177	0xbffccfac	-1.9750876
178	0xbe9b3b2b	-0.3031858
179	0xbf7d4fe4	-0.9895003
180	0xbea9f9a8	-0.33198285
181	0x3f4f9e66	0.8110107
182	0x3f348b83	0.7052538
183	0xbf3f15a7	-0.74642414
184	0x3f0c0d51	0.5470782
185	0xbf9bc612	-1.2169821
186	0xc00ffd4a	-2.2498345
187	0xbf732d0a	-0.949906
188	0xbeddfae3	-0.43355474
189	0xbc36b861	-0.011152358
190	0xbebf2f39	-0.37340716
191	0xbee40139	-0.44532183
192	0x3f1e48ff	0.61830133
193	0x3fc650be	1.549339
194	0xbfcac4b8	-1.5841284
195	0xbf9f19dd	-1.2429768
196	0x3fae7993	1.3630852
197	0xbf85dc85	-1.0457922
198	0xbc41aee9	-0.011821487
199	0xbf8b96c5	-1.0905386
200	0xbe50caba	-0.20389834
201	0x3f7362bd	0.9507254
202	0x3f1d3768	0.6141267
203	0x3ef82ab7	0.4847009
204	0xbfacc26e	-1.3496835
205	0xbd7ec3f0	-0.06219858
206	0xbfd39496	-1.652972
207	0xbddb2d70	-0.10702026
208	0xbf66fed1	-0.9023257
209	0xbe7b3eda	-0.24535695
210	0xbe637516	-0.22212633
211	0xbe983f0d	-0.29735604
212	0x3e529bf1	0.205673
213	0xbe1f8241	-0.15577032
214	0x3e2207ff	0.15823363
215	0xbf30bb80	-0.690361
216	0x3f25de5e	0.6479243
217	0xbef6b4b9	-0.48184755
218	0x3e776543	0.24159722
219	0xbe0b39dc	-0.1359629
220	0xbf3e019c	-0.74221206
221	0x3dff574b	0.12467822
222	0x3f08f575	0.5349954
223	0x3ed84aac	0.4224447
224	0xbfdf8e11	-1.746523
225	0xbecdd321	-0.4020014
226	0x3f44ce56	0.76877344
227	0xbf2c6a27	-0.67349476
228	0xbf73312f	-0.94996923
229	0xbf66535f	-0.89970964
230	0xbf7d82bf	-0.9902763
231	0x3ecb910c	0.397591
232	0x3f45f799	0.7733093
233	0x3f86f1cd	1.0542542
234	0xbf8f0d34	-1.1175904
235	0xbfe53844	-1.7907796
236	0x3f12b839	0.5731235
237	0xbfe81646	-1.8131797
238	0xbecd77f8	-0.4013059
239	0xbfcd5bd3	-1.6043648
240	0xbfb49113	-1.4106773
241	0x3ea7075d	0.32622805
242	0x3fcdc8ec	1.6076941
243	0x3f32d885	0.6986163
244	0x3e00d202	0.12580112
245	0xc0092bda	-2.1433015
246	0xbedb4286	-0.4282419
247	0xbfe8b29c	-1.8179507
248	0x3c873d1e	0.016508635
249	0xbed00c9c	-0.4063462
250	0xbf0557b6	-0.5208696
251	0x3eb0a4c6	0.34500712
252	0x3f8a8f0b	1.0824903
253	0x3e55fbc7	0.20896827
254	0x3ec38b53	0.38192233
255	0xbf7a99c1	-0.9789086

embed_item.weight f4 [1682, 10]
0	0x3e540325	0.20704325
1	0x3e3f8aea	0.18705335
2	0xbeca1edc	-0.3947667
3	0x3f0e64f4	0.5562279
4	0xbf972258	-1.1807356
5	0x3f618314	0.88090634
6	0x3d54d1d6	0.051957928
7	0x3f411cf0	0.7543478
8	0xbf4d89db	-0.80288476
9	0xbecd99ab	-0.40156302
10	0xbe8e3411	-0.277741
11	0x3f36380d	0.71179277
12	0xbd72649e	-0.059177987
13	0x3f9c14eb	1.2193884
14	0xbf6a4372	-0.91509163
15	0x3f861f56	1.0478313
16	0xbf2637bd	-0.649288
17	0x3f3020d0	0.6880007
18	0xbf884417	-1.0645779
19	0xbf4da3cc	-0.8032806
20	0x3e7e0ad5	0.2480882
21	0xbec126d2	-0.3772493
22	0xbc4e9c4f	-0.012610509
23	0xbf0725f6	-0.527923
24	0x3fb1c4ca	1.388818
25	0xbdeabf4e	-0.1146227
26	0x3e033ebc	0.128169
27	0x3cbda43c	0.023149602
28	0x3f7a683f	0.97815317
29	0x3f3cadf8	0.73702955
30	0xbee7d71e	-0.4528131
31	0x3d6f0701	0.05835629
32	0x3eb98692	0.36235482
33	0xbbaa68b7	-0.0052004713
34	0x3e2fcc86	0.17167863
35	0xbf034fed	-0.5129383
36	0xbe9facfc	-0.31186664
37	0xbf05efc6	-0.5231899
38	0xbea01b44	-0.31270802
39	0xbe9c5665	-0.30534664
40	0xbd9568bd	-0.07295368
41	0x3f0615ce	0.5237702
42	0xbe7f4c3b	-0.24931423
43	0x3f574c1d	0.84100515
44	0xbed29b13	-0.41133937
45	0x3fa25ec8	1.2685175
46	0xbf20bc8e	-0.6278771
47	0x3f5b1916	0.85585153
48	0xbf306565	-0.68904716
49	0xbeed8a62	-0.4639464
50	0xbf4433d9	-0.76641613
51	0x3e8353c8	0.25649858
52	0x3ed5086e	0.41607994
53	0x3f5f6c58	0.87274694
54	0xbed55fbe	-0.41674608
55	0xbf4429f2	-0.76626503
56	0x3f276cb5	0.6540025
57	0xbf5fed36	-0.8747133
58	0xbe642dcb	-0.22283094
59	0xbf83e7ca	-1.0305111
60	0xbf5f0a39	-0.87124974
61	0x3efec784	0.49761593
62	0x3f1b1b3e	0.60588443
63	0x3f247b53	0.6425068
64	0x3da85172	0.082186595
65	0xbf843f0e	-1.0331743
66	0xbec7ddbc	-0.39036357
67	0xbf81b41b	-1.0133089
68	0xbe92a6ea	-0.2864297
69	0xbf340c14	-0.7033093
70	0xbeb195ce	-0.34684604
71	0xbde17c06	-0.11009984
72	0x3f32701f	0.69702333
73	0x3eb4fdb1	0.353498
74	0x3e6c80c7	0.23096
75	0xbf53bbea	-0.8270861
76	0xbddba1d6	-0.10724227
77	0xbf1251c0	-0.5715599
78	0x3ec228ed	0.3792185
79	0x3e8b1270	0.27162504
80	0xbf496b5b	-0.78679436
81	0x3d02116f	0.031754907
82	0x3f45c43d	0.7725256
83	0xbd8ce4de	-0.068795905
84	0x3e3614af	0.17781328
85	0xbf97543d	-1.1822582
86	0xbe9c6b3f	-0.30550572
87	0xbf85f3eb	-1.0465063
88	0xbd594169	-0.053040896
89	0xbeb3da0c	-0.35127294
90	0xbf0bcffe	-0.54614246
91	0xbe23a9c1	-0.15982725
92	0x3e9b8d6e	0.3038134
93	0x3ea00212	0.3125158
94	0xbf583a04	-0.84463525
95	0xbedebc9e	-0.43503278
96	0x3f4d83f4	0.8027947
97	0xbf0c5653	-0.5481922
98	0xbf0c175d	-0.5472315
99	0xbf229831	-0.63513476
100	0xbe848411	-0.2588201
101	0x3f570aa4	0.8400061
102	0x3f2f9a5b	0.685949
103	0x3ebdd3e0	0.3707571
104	0xbf85e2c3	-1.0459827
105	0xbe31c294	-0.17359382
106	0xbfa3ead0	-1.2806034
107	0xbe2878e3	-0.16452365
108	0xbf3bc979	-0.733543
109	0xbe4fc2ce	-0.20289156
110	0x3ddff3c1	0.10935164
111	0x3eff91a5	0.49915805
112	0x3e9bbedd	0.30419055
113	0xbe3f7ad3	-0.18699197
114	0xbf452d50	-0.77022266
115	0x3e4b2d97	0.1984161
116	0xbf72b9d4	-0.948148
117	0x3e49c762	0.19704965
118	0xbf0a36d1	-0.53989893
119	0x3d859690	0.06522858
120	0xbee96a85	-0.4558908
121	0x3f5ed7d2	0.87048066
122	0x3f43a38f	0.76421446
123	0x3f18b489	0.59650475
124	0xbf40aaf9	-0.75260884
125	0xbf158952	-0.5841266
126	0xbfac9580	-1.3483124
127	0xbef80e9a	-0.4844864
128	0xbf3353b1	-0.7004958
129	0xbeccb7d0	-0.39983988
130	0xbe8e9eb7	-0.27855465
131	0xbbdb7e01	-0.0066983704
132	0x3ef0c63a	0.47026235
133	0xbe9c4421	-0.30520728
134	0x3e99a3a4	0.3000766
135	0xbf2b2063	-0.66846293
136	0xbebcf12a	-0.36902744
137	0xbf025516	-0.5091108
138	0x3e2713ea	0.1631619
139	0x3e374794	0.17898399
140	0xbeeec403	-0.4663392
141	0x3eebcf3b	0.46056542
142	0x3eb952ac	0.36195886
143	0x3e1cbce6	0.15306434
144	0x3f848aa1	1.0354806
145	0xbf2f7356	-0.68535364
146	0xbf685951	-0.90761286
147	0xbf1c2078	-0.60987043
148	0x3de5894f	0.1120783
149	0xbe1bb887	-0.1520711
150	0xbe455dca	-0.19274059
151	0xbe95313f	-0.29139134
152	0x3eb7b1de	0.3587789
153	0xbed9f4da	-0.4256962
154	0x3de910fa	0.11380191
155	0xbec4beac	-0.3842672
156	0xbddbe643	-0.10737278
157	0xbeb1ada1	-0.3470278
158	0xbcc23e99	-0.02371149
159	0x3d1a98a9	0.037743244
160	0xbeb53c30	-0.35397482
161	0xbe5dfc8b	-0.21678369
162	0x3db0dc75	0.08635799
163	0xbda08fff	-0.07839965
164	0xbee21a6b	-0.4416078
165	0xbe915e9a	-0.28392488
166	0x3f03256f	0.51228994
167	0xbe927f5d	-0.28612795
168	0xbeb9e639	-0.36308458
169	0xbee85419	-0.4537666
170	0xbddde579	-0.10834784
171	0x3eee8332	0.4658447
172	0x3f0ebcdb	0.5575692
173	0x3a80126d	0.0009771116
174	0xbf965783	-1.1745456
175	0xbeae302b	-0.34021124
176	0xbf8747b8	-1.0568762
177	0xbe1d07df	-0.15335034
178	0xbf23f98f	-0.6405267
179	0xbc9d8853	-0.019230044
180	0xbdd08d67	-0.1018322
181	0x3cecd4b0	0.028910011
182	0xbd0201b2	-0.031739898
183	0xbf0f7554	-0.56038404
184	0x3f11a941	0.56898886
185	0xbe62f8a9	-0.22165169
186	0xbec81a27	-0.39082453
187	0xbe689361	-0.2271247
188	0xbd3144b4	-0.04327841
189	0xba20acdf	-0.00061292754
190	0x3eca6ec3	0.3953763
191	0xbf593695	-0.8484891
192	0xbec893ef	-0.39175364
193	0xbefea120	-0.49732304
194	0x3f488d4a	0.7834059
195	0x3dcdd62a	0.10050614
196	0x3f861780	1.0475922
197	0x3e2235f0	0.15840888
198	0x3f874491	1.05678
199	0x3f0e8c5b	0.55682915
200	0xbee63b00	-0.44966888
201	0xb903376d	-0.00012513781
202	0x3f1df6ac	0.61704516
203	0x3e00b12a	0.12567583
204	0x3e844729	0.2583554
205	0xbf36447a	-0.71198237
206	0xbe67f1cc	-0.22650832
207	0xbf1521ef	-0.58254904
208	0x3e1a4d32	0.1506851
209	0xbd317113	-0.043320727
210	0xbc98c943	-0.018650657
211	0xbeab4f1d	-0.33458796
212	0x3e16fc02	0.14744571
213	0x3f231206	0.63699377
214	0xbf067816	-0.52526987
215	0xbe72e758	-0.23721063
216	0x3fa90090	1.3203297
217	0xbe55a289	-0.20862783
218	0x3eb6fdc8	0.35740495
219	0xbe559a50	-0.20859647
220	0xbf46e8a5	-0.7769874
221	0x3f2cddf0	0.6752615
222	0x3f2d2623	0.67636317
223	0x3f0fa804	0.56115746
224	0xbd015f97	-0.031585302
225	0xbf784cc4	-0.96992135
226	0xbf2a14c3	-0.6643793
227	0xbf725203	-0.9465639
228	0xbee4275d	-0.44561282
229	0xbf2f1e2a	-0.684054
230	0xbe688601	-0.22707368
231	0x3f5b9dd9	0.8578773
232	0x3f2a8722	0.66612446
233	0x3e4628bb	0.19351475
234	0xbf5d3466	-0.8640808
235	0xbf01f907	-0.5077061
236	0xbfd3d69a	-1.6549866
237	0xbeb29305	-0.34877792
238	0xbf2eda4f	-0.6830186
239	0xbd686fda	-0.056747295
240	0xbee9b307	-0.456444
241	0x3f67e8cd	0.905896
242	0x3f6f3a07	0.9344792
243	0x3f17712d	0.5915707
244	0xbf99d6c1	-1.2018663
245	0xbf2856dd	-0.6575754
246	0xbfbe4ed3	-1.4867805
247	0xbf077a68	-0.5292115
248	0xbf680abd	-0.90641385
249	0xbecc022a	-0.398454
250	0xbe343d79	-0.17601575
251	0x3f60dafb	0.8783414
252	0x3f1c3d18	0.6103072
253	0x3e20c91f	0.15701722
254	0xbf2fc6ba	-0.6866261
255	0xbecb81bc	-0.39747417
