models/EBPR_ml-100k_batchsize_100_opt_adam_lr_0.001_latent_20_l2reg_0_Epoch49_NDCG@10_0.4022_HR@10_0.6776_MEP@10_0.9211_WMEP@10_0.3576_Avg_Pop@10_0.4723_EFD@10_1.1993_Avg_Pair_Sim@10_0.2701.model (torch, 211111 bytes, 2 tensors)

embed_user.weight f4 [943, 20]
0.5209794 0.14530143 0.35904032 -1.334145 0.40659535 0.66170913 -0.25504452 0.7199276
0.1382752 0.66807514 0.9843038 -0.03173529 -1.0977851 -0.21245405 -1.9525086 0.25144008
-0.08999512 -0.16669153 -0.43173036 -0.32089514 -0.18312441 0.11595329 0.16124064 0.40513796
-1.2496153 -0.11161913 0.76617396 -0.3557267 1.4435678 -1.2469618 0.7723124 -0.5262141
-0.73262143 0.09712317 0.7694029 -0.7128541 -1.5990684 0.029164216 0.40111014 -0.110421576
1.1599206 0.6051879 0.46842748 -0.574178 0.12366871 -0.5441371 0.91039485 0.73937285
0.16213638 0.5463994 -0.8177914 -1.267068 0.93132854 0.033782415 -0.68971306 -0.60928243
-1.0180011 0.649455 -1.6492938 0.9334963 -0.7034251 -0.0933161 -0.2947434 -2.0125918
-1.0402337 -0.24760205 0.07450673 0.26025754 0.16725306 -0.08875041 0.96014065 -0.011336559
-1.2399676 -0.75743866 -0.5106769 0.1426863 -0.64236486 0.9425601 -1.6558014 0.6683119
1.5685645 -1.177823 1.0278215 0.8973379 0.1411439 -0.53483415 0.31237215 0.8414692
1.4594052 -1.5562818 0.42845228 0.25072476 -0.9120088 0.5716429 -0.104911864 0.14406367
-1.2121135 -0.80257773 0.16891292 -0.13570295 1.3687384 -1.0086229 0.6574599 -0.06694877
-0.045181744 0.43008062 1.6831822 0.031155255 -0.6552672 -1.3571763 0.25253552 -0.33388838
-0.47006997 -2.15299 -1.1350548 -1.3854417 -0.09423582 0.9245581 -0.51517266 0.4110399
-0.36348957 -1.0384775 0.85211605 -0.45661756 -1.2294691 0.94496113 -0.34198257 0.59129095
0.6443061 0.13114278 1.50963 -0.73421794 -0.43572295 -0.12958518 -0.3148389 -2.0286894
0.04543491 0.7242556 -0.057355694 0.023352223 0.7697567 -0.8160557 1.120526 0.13336629
-0.97710866 0.19680257 0.9333006 1.013097 0.19560675 -0.9841293 0.3403187 -0.2528779
-0.68337864 -0.591177 -0.24463204 -0.34376016 -0.54401076 0.52719367 -0.5439654 0.6055761
0.0014863892 -0.4050538 1.8014452 -0.92161846 -0.34164697 1.9074906 -0.25660592 2.2553415
0.17274685 -0.5124849 0.3580023 -0.25166172 -0.697033 -0.5474532 -0.9898502 -0.047317307
0.53708386 0.25798073 -1.0983593 0.3160102 1.4693298 -2.1434445 1.9295149 0.06596201
0.2466794 0.23640305 -0.23366633 0.9772009 -0.33278564 -0.30532384 1.240912 0.06604225
-0.80126214 -1.4891342 -1.8603517 -1.5160094 0.7980909 0.39515838 -0.48758227 -0.40293717
-0.41084278 -0.8438701 0.09263418 -1.1291353 -0.48607314 1.3890277 0.2759845 0.47950378
0.7187846 -0.18179575 0.3255652 -0.64851063 -1.2497814 -0.4861589 -0.880522 -0.41424352
0.027738435 0.79204017 -1.3919531 0.5132969 0.4330769 -0.63181543 -1.2684097 -1.8128395
1.038725 1.3440962 0.24181996 1.2783958 0.26253527 0.4495369 0.27302834 -0.42827883
-0.66902804 -0.26003715 -1.3860661 0.7298205 -1.4395695 0.06084901 -0.9882695 0.4912778
0.84757906 -0.28834867 -0.30910638 -0.36183053 -0.43769136 0.32094398 3.1321976 -0.17576918
0.35692787 -1.1182072 0.11764799 -0.41302353 0.346349 -0.6133334 0.4312111 -0.9294477
00000000: e85e 053f e6c9 143e 22d4 b73e 43c5 aabf
00000010: 442d d03e c565 293f 3295 82be 2d4d 383f
00000020: 0498 0d3e f906 2b3f 55fb 7b3f ddfc 01bd
00000030: 3984 8cbf 8e8d 59be cdeb f9bf c1bc 803e
00000040: 5d4f b8bd 2fb1 2abe c30b ddbe 5e4c a4be
00000050: f784 3bbe eb78 ed3d 441c 253e 3e6e cf3e
00000060: 65f3 9fbf 9298 e4bd fa23 443f cf21 b6be
00000070: d4c6 b83f 729c 9fbf 44b6 453f f8b5 06bf
00000080: 148d 3bbf 83e8 c63d 97f7 443f 9b7d 36bf
00000090: 46ae ccbf cbe9 ee3c 4f5e cd3e b524 e2bd
000000a0: 4778 943f 98ed 1a3f bad5 ef3e 54fd 12bf
000000b0: 0546 fd3d 924c 0bbf a30f 693f 8a47 3d3f
000000c0: 1407 263e d5e0 0b3f c75a 51bf 492f a2bf
000000d0: 8c6b 6e3f 6e5f 0a3d 0991 30bf eff9 1bbf
000000e0: dc4d 82bf af42 263f 0f1c d3bf 9df9 6e3f
000000f0: ab13 34bf 831c bfbd 9be8 96be 4ece 00c0
00000100: 6126 85bf 648b 7dbe fc96 983d 7a40 853e
00000110: 6344 2b3e c6c2 b5bd c7cb 753f fabc 39bc
00000120: 42b7 9ebf 80e7 41bf b9bb 02bf 5c1c 123e
00000130: 0672 24bf 9e4b 713f 4df1 d3bf 7d16 2b3f
00000140: b9c6 c83f e7c2 96bf a88f 833f f0b7 653f
00000150: 0788 103e e4ea 08bf 3eef 9f3e 876a 573f
00000160: cacd ba3f 3e34 c7bf 195e db3e ff5e 803e
00000170: 6979 69bf 3057 123f 08dc d6bd 6d85 133e
00000180: 8926 9bbf bc75 4dbf 82f7 2c3e b7f5 0abe
00000190: d232 af3f 8e1a 81bf 4b4f 283f 701c 89bd
000001a0: 7e10 39bd 8733 dc3e 8472 d73f 4e39 ff3c
000001b0: 97bf 27bf f4b7 adbf 564c 813e 6bf3 aabe
000001c0: 03ad f0be 97ca 09c0 7a49 91bf 2756 b1bf
000001d0: b6fe c0bd d7af 6c3f 5be2 03bf d273 d23e
000001e0: 4e1b babe d5ec 84bf 4724 5a3f c7c9 e9be
000001f0: 3e5f 9dbf f9e8 713f 5718 afbe d85e 173f
00000200: 3ff1 243f 4b4a 063e 8e3b c13f b5f5 3bbf
00000210: 1417 dfbe fab1 04be 9032 a1be 0cd6 01c0
00000220: f519 3a3d d168 393f ceed 6abd 294d bf3c
00000230: c60e 453f 07e9 50bf 656d 8f3f 2c91 083e
00000240: cb23 7abf 9d86 493e caec 6e3f 2aad 813f
00000250: 234d 483e e6ef 7bbf 413e ae3e 3679 81be
00000260: e7f1 2ebf 6057 17bf d280 7abe 5501 b0be
00000270: 4a44 0bbf 2af6 063f 5141 0bbf 0907 1b3f
00000280: f2d2 c23a 3663 cfbe c295 e63f 30ef 6bbf
00000290: 5aec aebe a728 f43f da61 83be 8457 1040
000002a0: 8de4 303e 3632 03bf 144c b73e ced9 80be
000002b0: c170 32bf e525 0cbf d366 7dbf cbcf 41bd
000002c0: 547e 093f 0d16 843e 0a97 8cbf 17cc a13e
000002d0: 0013 bc3f 322e 09c0 58fa f63f 1717 873d
000002e0: 8699 7c3e a413 723e 3a46 6fbe d729 7a3f
000002f0: e162 aabe 6853 9cbe 34d6 9e3f 2941 873d
00000300: 841f 4dbf f39b bebf 0120 eebf 990c c2bf
00000310: af4f 4c3f 3352 ca3e 62a4 f9be c84d cebe
00000320: fc59 d2be df07 58bf fdb6 bd3d 8187 90bf
00000330: 94de f8be a9cb b13f d74d 8d3e 8581 f53e
00000340: 4402 383f aa28 3abe 7bb0 a63e cb04 26bf
00000350: d6f8 9fbf d2e9 f8be e469 61bf ba17 d4be
00000360: b73b e33c 25c3 4a3f 852b b2bf 6d67 033f
00000370: 41bc dd3e a8be 21bf 405b a2bf 200b e8bf
00000380: f1f4 843f 580b ac3f a79f 773e 79a2 a33f
00000390: 066b 863e b329 e63e 5fca 8b3e 5d47 dbbe
000003a0: 6c45 2bbf 9723 85be 9d6a b1bf 84d5 3a3f
000003b0: d043 b8bf d03c 793d 3bff 7cbf c488 fb3e
000003c0: f1fa 583f 70a2 93be 3143 9ebe da41 b9be
000003d0: 1519 e0be c552 a43e ed75 4840 d6fc 33be
000003e0: 40bf b63e 6a21 8fbf 6ef1 f03d d277 d3be
000003f0: a854 b13e 6b03 1dbf b4c7 dc3e 49f0 6dbf

embed_item.weight f4 [1682, 20]
0.86842734 -0.37771267 0.7402425 -0.5095854 0.93774337 0.6055188 -0.6960556 0.38579285
0.9394848 -0.2621316 0.7591212 0.32361642 -0.3333514 0.5403309 -0.41297558 -0.08724388
0.15870327 -1.0545886 0.51620334 -0.83397853 0.5930785 -0.67310727 1.3626251 -0.116810635
-0.2925393 0.17771752 -0.2653816 0.98582476 1.4345461 -0.07823797 0.78926444 -0.52769506
-0.53700507 0.5893053 -0.29953754 0.5157523 -0.25909996 -0.9848049 0.2846505 -0.2227068
-0.10676604 0.92778707 -0.92480505 0.08766056 0.5155492 -0.70538807 0.6261417 -1.3593549
-0.69089323 0.6865055 -1.0165792 0.47216013 0.8192977 0.4738292 0.32638493 1.3594577
-0.32389024 0.121048726 0.34373155 0.41788146 -0.3833036 0.60583246 -0.05834866 -0.40541273
-0.7745687 0.57496566 0.44980225 -0.10754504 -0.0623302 -0.6321915 0.44232297 -0.2378706
-0.7566553 -0.5713208 0.22387269 0.56969947 -0.29905474 0.34177318 0.39553824 0.6322905
0.5072568 -0.50864965 0.74484307 0.15981618 -0.36291084 -0.29626438 -0.68668056 0.8293909
1.0809971 -0.099281184 0.5480402 -0.61297596 0.011498848 0.45106095 0.047081742 0.9181287
-0.4906788 -0.9293882 0.33154568 -0.45489812 0.98216903 -0.3256423 0.77501327 -0.2223376
-0.23614602 0.5073954 0.008051303 0.5884827 -0.80216205 -0.41640916 0.2617859 -1.0045807
0.27773026 -0.056691 -0.27568996 -1.0125053 0.87790537 0.41892144 -0.6636724 0.27308384
0.32706884 -0.13597159 0.5921537 -0.3164029 -0.56151235 0.84786224 0.9717247 0.46646643
-0.10700205 -0.73650473 0.1674981 -0.8063652 0.00091062614 -0.206719 0.118145585 -0.6699677
-0.3672366 0.95512456 -0.47148186 0.6935924 0.3039308 -0.1920177 -0.25067288 0.090562
0.054573435 0.28500125 0.9145045 -0.2519239 -1.210377 -0.5154473 -0.56348747 0.5869158
0.016759254 -0.7057482 -0.053128086 0.04814225 -0.7221613 0.43701312 -0.5480517 0.37294975
0.38475674 0.91231066 0.0054856515 -0.8926126 -0.32416153 0.6142355 0.6289752 -0.11342465
-0.9840633 0.20607755 0.38262105 -0.68211323 -0.31894222 -0.6857564 -0.6080205 0.53913105
-0.4847154 0.81434864 -0.09964767 0.9940257 -0.08367511 -0.3861915 0.58925 -0.7143017
-0.18050699 0.8161367 0.41844997 0.27889144 -0.36857185 -0.44020274 0.23036166 0.2851143
-0.8189811 -0.34365016 -0.3807128 0.39727983 0.8014736 0.29807204 -0.21493472 0.05030945
0.3992025 -0.65560186 -0.2610208 0.37149096 0.05317786 0.48005077 0.31929538 0.7107717
0.9675016 -0.50728565 0.60460585 -0.48892516 -0.58219534 -0.632987 -0.7335304 -0.45046377
-1.0231655 -0.21255851 -1.0942966 0.043511383 -0.28594732 -0.35232794 -0.66042 0.3206572
-0.22181247 -0.22821887 -0.031668525 0.41365054 0.77013665 0.019220568 0.60272634 -0.25756568
-0.7016752 -0.45051706 -0.66957724 -0.09578937 -0.7056023 -0.2662377 -0.49099743 -0.05912972
0.4450697 -0.9549091 0.25547564 -0.27399886 -0.0916635 0.583125 0.7313613 0.51991946
1.0175753 -0.91990227 0.25383896 -0.6167781 -0.07166159 -0.25207338 -0.55980057 -1.1136583
00000000: 4151 5e3f 8e63 c1be 8880 3d3f 3074 02bf
00000010: f30f 703f 4803 1b3f b330 32bf a486 c53e
00000020: 1382 703f 1d36 86be c455 423f 0db1 a53e
00000030: 09ad aabe 2053 0a3f 8971 d3be ebac b2bd
00000040: 1c83 223e c2fc 86bf e725 043f 9e7f 55bf
00000050: fed3 173f c250 2cbf 806a ae3f 6a3a efbd
00000060: b6c7 95be 95fb 353e 19e0 87be 035f 7c3f
00000070: 359f b73f 3b3b a0bd 3c0d 4a3f 0617 07bf
00000080: 2a79 09bf b6dc 163f fc5c 99be 5808 043f
00000090: c0a8 84be 2d1c 7cbf b6bd 913e 400d 64be
000000a0: 27a8 dabd 7483 6d3f 06c0 6cbf 6187 b33d
000000b0: 08fb 033f 5094 34bf d34a 203f 57ff adbf
000000c0: 61de 30bf d3be 2f3f 441f 82bf f9be f13e
000000d0: 7ebd 513f be99 f23e ed1b a73e b602 ae3f
000000e0: f1d4 a5be 65e8 f73d 95fd af3e 8ff4 d53e
000000f0: 5f40 c4be d617 1b3f 01ff 6ebd 4292 cfbe
00000100: 224a 46bf f330 133f 7b4c e63e 9340 dcbd
00000110: f44d 7fbd 4dd7 21bf 2878 e23e 5a94 73be
00000120: 29b4 41bf 1442 12bf e23e 653e d3d7 113f
00000130: b41d 99be e5fc ae3e fd83 ca3e cadd 213f
00000140: 95db 013f dd36 02bf 09ae 3e3f daa6 233e
00000150: 73cf b9be f7af 97be 4cca 2fbf f652 543f
00000160: 1d5e 8a3f ef53 cbbd 5d4c 0c3f feeb 1cbf
00000170: aa65 3c3c 76f1 e63e c9d8 403d 7c0a 6b3f
00000180: 403a fbbe 63ec 6dbf 5bc0 a93e 68e8 e8be
00000190: 6e6f 7b3f 96ba a6be 4567 463f 78ac 63be
000001a0: 43d0 71be aae4 013f 9de9 033c cda6 163f
000001b0: 7e5a 4dbf 9533 d5be cd08 863e 1a96 80bf
000001c0: a932 8e3e d234 68bd 3c27 8dbe c699 81bf
000001d0: 68be 603f df7c d63e 6fe6 29bf a5d1 8b3e
000001e0: 9175 a73e 233c 0bbe 6397 173f 90ff a1be
000001f0: 46bf 0fbf 800d 593f f3c2 783f b0d4 ee3e
00000200: e423 dbbd 938b 3cbf 9f84 2b3e f36d 4ebf
00000210: 16b7 6e3a 25ae 53be 50f6 f13d 0183 2bbf
00000220: 7006 bcbe 0b83 743f 1266 f1be 468f 313f
00000230: d19c 9b3e 4aa0 44be 3258 80be 9278 b93d
00000240: 6588 5f3d afeb 913e f81c 6a3f 2bfc 80be
00000250: a2ed 9abf 5bf4 03bf b740 10bf 1d40 163f
00000260: b44a 893c eaab 34bf d69c 59bd cf30 453d
00000270: 90df 38bf 2fc0 df3e 1e4d 0cbf 45f3 be3e
00000280: d6fe c43e 318d 693f fbc0 b33b 4282 64bf
00000290: 80f8 a5be 8a3e 1d3f 8504 213f 2f4b e8bd
000002a0: 93eb 7bbf fe05 533e e8e6 c33e f99e 2ebf
000002b0: 654c a3be bb8d 2fbf 3ba7 1bbf 7e04 0a3f
000002c0: 9e2c f8be 2779 503f 1414 ccbd 7878 7e3f
000002d0: db5d abbd e4ba c5be 17d9 163f 7adc 36bf
000002e0: d3d6 38be 56ee 503f 133f d63e dcca 8e3e
000002f0: 73b5 bcbe 4162 e1be ede3 6b3e 80fa 913e
00000300: bfa8 51bf eaf2 afbe caec c2be 4368 cb3e
00000310: 602d 4d3f e69c 983e d917 5cbe 4811 4e3d
00000320: 4564 cc3e 86d5 27bf 85a4 85be 1034 be3e
00000330: 07d1 593d 37c9 f53e af7a a33e 22f5 353f
00000340: 2fae 773f 79dd 01bf 73c7 1a3f 6654 fabe
00000350: c10a 15bf 700b 22bf a6c8 3bbf 30a3 e6be
00000360: 16f7 82bf f0a8 59be e911 8cbf fe38 323d
00000370: b067 92be 5464 b4be 4911 29bf 2e2d a43e
00000380: cf22 63be 35b2 69be dbb6 01bd 01ca d33e
00000390: ad27 453f 7474 9d3c 464c 1a3f a6df 83be
000003a0: fca0 33bf 2caa e6be 6a69 2bbf 382d c4bd
000003b0: 5aa2 34bf 4f50 88be 0464 fbbe 0132 72bd
000003c0: 2de0 e33e ec74 74bf b4cd 823e 9449 8cbe
000003d0: 13ba bbbd ae47 153f 7f3a 3b3f 7119 053f
000003e0: e83f 823f b77e 6bbf 2ef7 813e 2be5 1dbf
000003f0: 50c3 92bd c30f 81be 174f 0fbf 5b8c 8ebf
