models/EBPR_ml-100k_batchsize_50_opt_adam_lr_0.001_latent_20_l2reg_1e-05_Epoch46_NDCG@10_0.4042_HR@10_0.6734_MEP@10_0.9231_WMEP@10_0.3548_Avg_Pop@10_0.4729_EFD@10_1.1968_Avg_Pair_Sim@10_0.2673.model (torch, 211111 bytes, 2 tensors)

embed_user.weight f4 [943, 20]
0	0xbf30e8fc	-0.69105506
1	0x3da420e3	0.08014085
2	0x3ead045e	0.33792394
3	0xbdd8779d	-0.105696894
4	0xbf2eb5d9	-0.6824623
5	0x3e90a170	0.28248167
6	0xbe30bf37	-0.17260443
7	0xbe856bac	-0.2605871
8	0x3fd309ce	1.6487367
9	0x3f0bdcd3	0.54633826
10	0xbf5b8c66	-0.85761106
11	0xbef95721	-0.48699287
12	0xbeff66e1	-0.49883178
13	0xbf8e0bc9	-1.1097347
14	0x3d8b4626	0.06800489
15	0xbf7000ea	-0.93751395
16	0x402e7b41	2.7262728
17	0xbe4e7734	-0.2016266
18	0xbeb47574	-0.3524586
19	0x3d83ad6b	0.06429561
20	0x3e9b80a3	0.3037158
21	0x3ebff4ec	0.37491548
22	0xbf73dc7a	-0.95258296
23	0xbeafc344	-0.34328663
24	0x3f111519	0.5667282
25	0xbd6fa1ff	-0.0585041
26	0x3f4dae96	0.8034452
27	0x3f775359	0.96611553
28	0x3f724859	0.94641644
29	0xbe5f224b	-0.21790425
30	0xbf79bfa9	-0.97558075
31	0x3fc7e38e	1.5616319
32	0x3f2d7887	0.67762035
33	0x3f665444	0.8997233
34	0x3fe4044e	1.7813814
35	0xbe9bc776	-0.30425614
36	0xbf04609e	-0.51709926
37	0xbf13b24b	-0.5769393
38	0x3ed3f13c	0.41394985
39	0x3f3eba14	0.7450268
40	0x3f803004	1.0014653
41	0x3f44235d	0.7661646
42	0x3fad79d8	1.3552809
43	0xbf2913d2	-0.6604587
44	0x3f566332	0.8374511
45	0x3fc3acae	1.5287073
46	0x3f0bf729	0.5467401
47	0xbf138466	-0.576239
48	0x3db7efbd	0.08981273
49	0x3e4db673	0.2008913
50	0x3e82bb0c	0.2553333
51	0x3f81196b	1.0085882
52	0x3fa0d0df	1.2563742
53	0xc02398eb	-2.5562084
54	0xbea935d5	-0.33048883
55	0xbf38c6a8	-0.72178125
56	0xbce4a605	-0.027911196
57	0xbefb672e	-0.49102157
58	0x3f69df9a	0.91356814
59	0x3f83750b	1.0270094
60	0xbcc2af14	-0.023765124
61	0x3f2ab815	0.66687137
62	0x3fee3ca8	1.8612261
63	0xbfa16137	-1.2607793
64	0xbfacb6bc	-1.3493266
65	0x3ed86a49	0.4226859
66	0x3f847ac2	1.0349963
67	0x3f0af101	0.5427399
68	0x3fba4bb7	1.4554356
69	0x3e7e57c6	0.2483817
70	0xbfa086a9	-1.2541095
71	0x3f337028	0.7009301
72	0xbfabaebf	-1.3412703
73	0x3e012c79	0.12614621
74	0xbf24f9b1	-0.644435
75	0x3e842e6e	0.25816673
76	0x3f89468d	1.0724655
77	0x3f729dcb	0.9477202
78	0x3f7dfe46	0.99216115
79	0x3f858b86	1.0433204
80	0xbf75b6bd	-0.9598196
81	0x3e3b72d0	0.18305516
82	0xbf0c40a7	-0.5478615
83	0xbfb65220	-1.4243813
84	0x3fb65373	1.4244217
85	0xbf87cbd4	-1.0609078
86	0x3f28efe5	0.6599105
87	0x3e601613	0.2188342
88	0x3f879c18	1.0594511
89	0xbfccab59	-1.5989791
90	0x3f6b122d	0.9182461
91	0x3fc5e4d9	1.5460464
92	0x3f955b6c	1.1668525
93	0xbeb81170	-0.35950804
94	0x3fd6d483	1.6783603
95	0xbf93cc04	-1.1546636
96	0x3e085cd6	0.13316664
97	0x3f08488c	0.532357
98	0xbdaa5bd2	-0.083182946
99	0x3f14de3a	0.5815159
100	0xbfbde13d	-1.4834362
101	0xc01ff112	-2.4990888
102	0x3f859c74	1.0438371
103	0x3ec06fc6	0.37585276
104	0x3f297dad	0.6620739
105	0xbd860d42	-0.065454975
106	0x3ffb65d5	1.9640452
107	0xbe2f0046	-0.17089948
108	0xbecbb639	-0.39787462
109	0xbf9b405f	-1.212902
110	0xbeed6a27	-0.4637005
111	0x3f436afc	0.7633512
112	0xbf3b3814	-0.73132443
113	0xbfa8609e	-1.3154485
114	0xbdd5488f	-0.1041423
115	0xbe04ee85	-0.12981613
116	0x3f1b9cb4	0.60785985
117	0xbfc307a0	-1.5236702
118	0x3e9a2fee	0.30114692
119	0x3f05a25b	0.5220086
120	0xbf67b5d5	-0.9051183
121	0x3caf3d58	0.021391556
122	0xbed852bf	-0.4225063
123	0xbeb39473	-0.35074195
124	0x3e317c5a	0.17332593
125	0x3ecea08f	0.4035687
126	0xbf3ffe0f	-0.7499704
127	0x3fb15b44	1.3855977
128	0x3f334744	0.7003062
129	0xbfce57ea	-1.6120579
130	0xbf9d89f7	-1.2307729
131	0x3e10cd36	0.14140782
132	0xbf27831d	-0.6543444
133	0xbeb417b9	-0.3517435
134	0x3f0a68e8	0.54066324
135	0x3c94debb	0.018172612
136	0xb8d7316b	-0.00010261204
137	0xbf5f6c2c	-0.8727443
138	0x3fe7d4fd	1.8111874
139	0x3f7184c0	0.94343185
140	0xbf609a67	-0.877356
141	0xbf38f9d1	-0.7225619
142	0x3d3b0715	0.04566105
143	0xbf1b4086	-0.6064533
144	0x3fa822f0	1.3135662
145	0x3e5d1887	0.21591388
146	0x3f9762dd	1.1827046
147	0x3f41f94e	0.75771034
148	0xbc57cb63	-0.01317105
149	0xbf9769a7	-1.1829118
150	0xbe916efa	-0.2840498
151	0x3f64f0e7	0.8943009
152	0x3dfa4c0f	0.12221538
153	0xbf519e67	-0.8188233
154	0xbd58e1b5	-0.052949626
155	0x3f0a909e	0.5412692
156	0x3f6c7828	0.92370844
157	0xbd7eef8a	-0.06224016
158	0x3e81023b	0.25197014
159	0x3f24057e	0.6407088
160	0xbfb65bce	-1.4246767
161	0xbf0b3793	-0.54381675
162	0x3f443a47	0.76651424
163	0xbf25923e	-0.6467627
164	0x3f8653ce	1.0494325
165	0x3f3aef4d	0.73021394
166	0xbd889c5d	-0.06670449
167	0x3fa88165	1.3164488
168	0x3f0fdf19	0.56199795
169	0xbf675fda	-0.9038063
170	0xbf1439de	-0.579008
171	0xbf778de9	-0.9670091
172	0x3eb1da14	0.34736693
173	0xbf303a02	-0.6883851
174	0xbec0b0f0	-0.37634993
175	0xbf1d4f90	-0.6144953
176	0x3ffd50e1	1.9790307
177	0xbe8e589a	-0.27801973
178	0x3f42a3d6	0.76031244
179	0xbf036272	-0.5132209
180	0xc01b74ef	-2.429012
181	0xbf9689ba	-1.1760781
182	0x3e870bbd	0.26376143
183	0x3e55b121	0.2086835
184	0x3ebac750	0.36480188
185	0xbee38269	-0.44435433
186	0x3e1d2ce6	0.15349159
187	0x3e8bc7ab	0.27300772
188	0xbd239810	-0.03993994
189	0xc021c341	-2.5275424
190	0xbed3691a	-0.41291124
191	0x3e3e1c6c	0.1856553
192	0xbf308958	-0.6895957
193	0xbfeb2bc0	-1.8372726
194	0xbe96047f	-0.29300305
195	0xbe2affb0	-0.166991
196	0x3ff4bc9f	1.9120063
197	0xbfbea1d3	-1.4893135
198	0x3e9c2a68	0.30501103
199	0xbe0cf213	-0.13764219
200	0xbf2b0b3f	-0.66814035
201	0x3efab596	0.48966664
202	0x3fce127c	1.6099391
203	0xbf82018f	-1.0156726
204	0xbe64b877	-0.22335993
205	0x3f3f9e5d	0.7485102
206	0x3ecc9484	0.39957058
207	0x3f1b1467	0.60578007
208	0x3f9bd5b4	1.2174592
209	0xbf761615	-0.96127445
210	0xbfb7eb9d	-1.4368778
211	0x3e481953	0.1954091
212	0xbf856e5e	-1.0424306
213	0x3f5be3a1	0.8589421
214	0x3eba9570	0.36442137
215	0xbf854ef7	-1.0414723
216	0x3debf530	0.11521375
217	0xbf6127af	-0.8795118
218	0x3f95f1b5	1.1714388
219	0xbd94a277	-0.0725755
220	0xbdc18e5f	-0.09450983
221	0xbf5ed187	-0.87038463
222	0x3f69f10b	0.9138343
223	0xbdbe79c4	-0.09300569
224	0xbf2cdc4a	-0.67523634
225	0x3feebe3b	1.8651804
226	0x3e931579	0.2872732
227	0x3f37d067	0.7180237
228	0x3fd9be0b	1.7011122
229	0x3f3550c2	0.7082635
230	0xbf1f9941	-0.6234322
231	0x3fa78d8c	1.3090072
232	0xbf782a01	-0.9693909
233	0xbfd403f5	-1.6563708
234	0xbde8f1c1	-0.11374236
235	0xbfd9c30e	-1.7012651
236	0x3f648d1b	0.8927781
237	0x3ff3b763	1.904034
238	0x3e4bcefc	0.19903177
239	0xbfd25024	-1.6430707
240	0x3f11a1d9	0.56887585
241	0xbfc73cc5	-1.556542
242	0x3fb250e3	1.3930935
243	0xbedea927	-0.43488428
244	0x3fa3d2e2	1.2798731
245	0x3f9b69e9	1.2141696
246	0x40117fc9	2.2734244
247	0xbeaeecf7	-0.34165165
248	0x3e866664	0.26249993
249	0xbefdfb11	-0.4960561
250	0xbe0993fe	-0.13435361
251	0x3fb21b48	1.3914576
252	0xbea09a54	-0.31367743
253	0x3e00d1f5	0.12580092
254	0x3f7b23e4	0.9810164
255	0xbe906cee	-0.28208107

embed_item.weight f4 [1682, 20]
0	0xbf768e40	-0.96310806
1	0x3e811211	0.25209096
2	0xbf84f7b5	-1.0388094
3	0x3e904279	0.28175715
4	0xbe6792b3	-0.22614555
5	0xbe19337d	-0.14961047
6	0xbf807e80	-1.0038605
7	0xbe861da9	-0.26194504
8	0x3f43e095	0.7651456
9	0xbf3e210b	-0.7426917
10	0x3f2366d2	0.63828766
11	0xbe346c12	-0.1761935
12	0x3ef3b059	0.4759548
13	0x3e5ec0f8	0.21753299
14	0x3f83e717	1.0304898
15	0xbf4f561a	-0.80990756
16	0x3f97d95f	1.1863211
17	0xbeec4ef0	-0.46153975
18	0xbec21429	-0.37906006
19	0xbf061819	-0.5238052
20	0xbfa1fae8	-1.2654696
21	0x3ecd9fe9	0.40161064
22	0xbf49f357	-0.7888693
23	0xbf266338	-0.64995146
24	0x3f70a261	0.9399777
25	0xbef43b9c	-0.47701728
26	0xbf36f120	-0.7146168
27	0x3f2aab69	0.666678
28	0x3f14cd05	0.58125335
29	0xbefe34cb	-0.49649653
30	0x3e664c78	0.22490108
31	0x3e14511e	0.14484069
32	0x3eb09602	0.34489447
33	0xbe519ce8	-0.20470011
34	0x3f76a64f	0.96347517
35	0xbf70b2ee	-0.94023025
36	0x3fad64ea	1.3546422
37	0x3d81eb3d	0.06343696
38	0xbebd5eba	-0.36986333
39	0x3f112988	0.56703997
40	0x3fff12f7	1.9927663
41	0xbeb1f5ef	-0.34757945
42	0x3eb76bae	0.3582434
43	0x3f398a47	0.7247662
44	0xbec5e55c	-0.3865155
45	0x3eaec5bc	0.34135234
46	0xbd4807e3	-0.048835646
47	0xbf7d58d5	-0.9896367
48	0xbfd32d7d	-1.6498257
49	0x3f94416b	1.1582464
50	0x3f183e50	0.5947008
51	0x3e2567da	0.16152897
52	0x3f7d0f55	0.9885152
53	0x3deb174e	0.114790544
54	0xba975ec3	-0.0011548627
55	0x3f05010b	0.51954716
56	0xbf07b806	-0.5301517
57	0x3f9c6dc3	1.2220997
58	0xbf7f3bd2	-0.99700654
59	0x3eafe49d	0.34354106
60	0x3e4f4750	0.20242047
61	0x3c9dce6f	0.019263474
62	0x3e0a0dda	0.13481846
63	0xbea1ca76	-0.31599778
64	0x3e8c4273	0.27394447
65	0x3f68bb60	0.9091091
66	0x3f561333	0.83623046
67	0x3f63cf0d	0.8898781
68	0x3e4fa4ad	0.20277663
69	0x3f12c0a2	0.57325184
70	0xbf166ba0	-0.5875797
71	0x3e8ea630	0.27861166
72	0xbea8a779	-0.32940271
73	0x3f95f0d7	1.1714123
74	0xbdcb4169	-0.09924585
75	0xbe19d4a5	-0.15022524
76	0x3e7015c6	0.23445806
77	0xbec70178	-0.38868308
78	0xbf0c8f09	-0.54905754
79	0x3f041aa3	0.51603144
80	0xbef52f26	-0.47887534
81	0x3f1ef011	0.6208506
82	0xbe81f62f	-0.25383136
83	0xbf723120	-0.9460621
84	0x3f3022a3	0.6880285
85	0xbfafb924	-1.3728375
86	0xbf47f369	-0.7810579
87	0x3f3a86ae	0.72861755
88	0x3f272c43	0.65301913
89	0xbe9c2b1e	-0.30501646
90	0x3e08f66d	0.13375254
91	0x3e2dc2d7	0.16968857
92	0x3f36b7fe	0.713745
93	0xbf092502	-0.53572094
94	0x3ed5d49a	0.41763765
95	0xbf3fcc09	-0.7492071
96	0x3f093995	0.5360349
97	0x3f381a90	0.7191553
98	0xbf19d89a	-0.6009613
99	0x3eb3fa29	0.35151795
100	0xbe176229	-0.14783539
101	0xbf249f94	-0.64305997
102	0x3eca9b38	0.39571548
103	0xbec6d8f3	-0.38837394
104	0x3f5cf39f	0.86309236
105	0x3f5035b9	0.81331974
106	0xbd62afe7	-0.055343535
107	0x3f0806d6	0.5313543
108	0xbcfb7d5b	-0.030699423
109	0xbfa26d8c	-1.2689681
110	0x3d32ed39	0.043683264
111	0xbf269400	-0.6506958
112	0xbf19b8ac	-0.6004741
113	0xbf99ec1e	-1.2025182
114	0xbf9c1bd9	-1.2195998
115	0xbe3a28fd	-0.18179698
116	0x3ec501a3	0.3847781
117	0xbf8b0010	-1.0859394
118	0x3e2d0fa7	0.16900502
119	0x3e327647	0.17427932
120	0xbd0bc84e	-0.034126572
121	0xbefb95b9	-0.49137667
122	0x3f258b79	0.64665943
123	0xbf31b380	-0.6941452
124	0x3f9ab25a	1.2085679
125	0x3fc5b52e	1.5445917
126	0x3f1a11f0	0.6018362
127	0x3f2cc41f	0.6748676
128	0x3d445c0f	0.047939356
129	0xbf21bab5	-0.6317552
130	0xbebae90a	-0.3650592
131	0x3f0c45c3	0.5479395
132	0xbd02ebec	-0.031963274
133	0xbdf65d4a	-0.12029512
134	0xbe4202be	-0.18946359
135	0xbe5ea03e	-0.21740815
136	0x3e934900	0.28766632
137	0xbf5e8dbb	-0.86935014
138	0x3f3e5bff	0.74359125
139	0x3f05e1b6	0.5229753
140	0x3e0b6e10	0.13616204
141	0xbf83c29b	-1.0293764
142	0x3ed05b67	0.40694734
143	0xbe974e8e	-0.2955212
144	0x3dea3325	0.11435536
145	0x3e0e8ec1	0.13921644
146	0x3f8bbf01	1.0917665
147	0xbf25dfd6	-0.6479467
148	0xbf84535a	-1.0337937
149	0x3d4a7665	0.049429316
150	0xbec11426	-0.37710685
151	0x3f02ec68	0.5114198
152	0xbee162f9	-0.44020823
153	0x3dc60ee6	0.096708104
154	0xbe4d10cd	-0.2002594
155	0x3de21c6a	0.11040576
156	0x3e5b2211	0.21399714
157	0x3e2950f8	0.16534793
158	0x3eedf7c6	0.464781
159	0xbeecd356	-0.46254987
160	0x3f3bb5a9	0.73324066
161	0xbf64f9bd	-0.8944357
162	0x3f09705d	0.5368708
163	0xbf044809	-0.51672417
164	0x3cece6b3	0.0289186
165	0x3fb12614	1.3839746
166	0x3f4e8780	0.80675507
167	0x3eda5ac5	0.42647377
168	0x3e2cedfd	0.1688766
169	0x3f815a67	1.0105714
170	0xbf2d15dd	-0.67611486
171	0x3d9db92c	0.07701334
172	0xbf36e9b9	-0.7145038
173	0xbe838fea	-0.25695735
174	0xbf5565c7	-0.83358425
175	0xbedb72af	-0.42860934
176	0x3f4f1910	0.8089762
177	0xbf25dea5	-0.64792854
178	0xbf071923	-0.5277273
179	0x3f492fdb	0.78588647
180	0xbf883b57	-1.0643109
181	0xbe579b2c	-0.21055287
182	0x3eba57b6	0.36395043
183	0x3f1134c4	0.5672114
184	0xbdb52080	-0.088440895
185	0x3f767178	0.9626689
186	0x3eb00afd	0.34383383
187	0x3ef32fbf	0.47497365
188	0x3f1ed3ce	0.6204194
189	0xbedac557	-0.42728683
190	0xbf442bea	-0.7662951
191	0xbeeba030	-0.4602065
192	0x3e0c6173	0.13709049
193	0x3f812fa2	1.0092661
194	0xbf2ff460	-0.6873226
195	0xbf0707f7	-0.5274653
196	0x3f31f5f6	0.6951593
197	0xbe99a075	-0.30005231
198	0x3ea8e37d	0.3298606
199	0xbda8790f	-0.08226215
200	0xbe4f65bd	-0.20253654
201	0xbec09c94	-0.3761946
202	0x3f82877d	1.0197598
203	0xbf311a5b	-0.6918084
204	0x3f070fab	0.5275828
205	0xbf51b87c	-0.81922126
206	0x3ea99f06	0.33129138
207	0x3f0a359e	0.53988063
208	0x3f038119	0.5136886
209	0xbe993177	-0.2992055
210	0xbf00d5bd	-0.5032614
211	0x3f668325	0.9004386
212	0xbeb6b1c5	-0.35682502
213	0xbf83f374	-1.0308671
214	0x3f8f6c29	1.1204883
215	0xbf91db87	-1.139512
216	0x3eb059f1	0.3444362
217	0xbf41a14e	-0.75636756
218	0xbd872d7a	-0.06600471
219	0xbf22b8fd	-0.6356352
220	0xbee225f6	-0.44169587
221	0x3e7d7cf7	0.24754702
222	0x3f0b2957	0.54359955
223	0xbeeca28f	-0.46217772
224	0xbe2dc3c7	-0.16969214
225	0xbf9230b2	-1.1421111
226	0x3f079da0	0.5297489
227	0x3f58ac77	0.8463816
228	0x3e99f932	0.30072933
229	0x3ebc151d	0.36734858
230	0xbe4477d3	-0.19186334
231	0x3f1c7a63	0.6112425
232	0xbec259d4	-0.37959158
233	0xbf1e05c9	-0.6172758
234	0x3f3cc2f4	0.73734975
235	0xbf0b0d53	-0.54317206
236	0x3d8c10a1	0.06839109
237	0x3e542423	0.2071691
238	0xbd5dd7c4	-0.05416085
239	0xbe8c554a	-0.2740882
240	0xbea03318	-0.3128898
241	0xbe9724d5	-0.29520288
242	0x3f8d5d20	1.1044044
243	0xbf31348f	-0.69220823
244	0x3f26b671	0.65122133
245	0x3f370977	0.7149882
246	0x3f0a5e90	0.5405054
247	0xbde3c25f	-0.11121058
248	0x3f698c63	0.9122984
249	0xbf69c873	-0.91321486
250	0xbe6f75d3	-0.2338479
251	0x3f8e39d5	1.1111399
252	0xbefda310	-0.4953847
253	0xbf0b17f2	-0.5433341
254	0x3f874aa8	1.0569658
255	0xbf7332b9	-0.9499927
