models/EBPR_ml-100k_batchsize_50_opt_adam_lr_0.001_latent_20_l2reg_1e-05_Epoch45_NDCG@10_0.4015_HR@10_0.6808_MEP@10_0.9211_WMEP@10_0.3546_Avg_Pop@10_0.4748_EFD@10_1.1922_Avg_Pair_Sim@10_0.2700.model (torch, 211111 bytes, 2 tensors)

embed_user.weight f4 [943, 20]
000000 4f 05 0d bf 3a 1b 9a bf 08 47 e3 bd 45 dd b0 ba
       -0.55086225 -1.2039559 -0.110975325 -0.0013493678
000010 c1 b1 ba bd fb 4c 84 3e f3 08 0b 3f 94 ed 80 3e
       -0.09115935 0.2583998 0.5431053 0.25181258
000020 83 7f ca 3e 0e 62 30 bf 05 cc f4 3e fc 1a a2 bf
       0.3955041 -0.6889962 0.47811905 -1.2664485
000030 37 dd 08 3f 23 5a e5 bf ba 0a d4 be af 05 c5 be
       0.5346255 -1.7918133 -0.41414434 -0.384809
000040 9a 34 2f 3f 7c 6b 68 3f 00 cc a3 3f af f9 98 3f
       0.6843964 0.9078901 1.2796631 1.1951197
000050 a0 96 07 bf 5e 36 d1 bf a4 4c 4f bf b9 87 80 3e
       -0.5296421 -1.6344717 -0.8097632 0.25103548
000060 44 0d 16 3f 25 b1 0e bf 22 d0 27 be d7 e8 98 bf
       0.5861399 -0.5573905 -0.1638799 -1.1946057
000070 07 21 82 bf bb 54 be 3d d6 48 9f bf da ac 14 bf
       -1.0166329 0.09293505 -1.2444103 -0.5807625
000080 30 4a 1e 3e 02 71 85 3f 4e ee 86 3f 17 67 62 bf
       0.15457988 1.0425112 1.0541475 -0.8843855
000090 f5 cb 59 be 6f cd 10 3f d2 c7 cc bf cd 79 a6 3e
       -0.2126921 0.56563467 -1.599848 0.32514802
0000a0 ca f5 16 bd 3e 1d ab be 73 84 9e 3f d2 8b 2e bf
       -0.036855496 -0.33420748 1.238417 -0.681821
0000b0 19 41 96 bf 93 2d da 3f 32 eb 2a be 0b 6e 44 3f
       -1.1738616 1.7045158 -0.16691282 0.7673041
0000c0 db b1 d1 bf 09 94 7c be f0 41 b2 be 26 eb 6b bf
       -1.6382402 -0.24665846 -0.3481593 -0.92155683
0000d0 e4 69 de 3f c2 f8 cb bf e3 7d 8d 3d bf e7 16 3f
       1.7376065 -1.593529 0.069087766 0.58947366
0000e0 16 3d 47 3d c2 91 15 3f 4c 8f 8a bf 2a 3e 5b be
       0.04864224 0.58425534 -1.0824981 -0.21410432
0000f0 4c a8 07 bf aa e0 d5 bf 91 f2 92 3f f6 1c 68 3d
       -0.52991176 -1.6709187 1.1480275 0.056668244
000100 83 32 09 3f fe 72 e9 bf 0f 59 61 bf 73 10 d7 3e
       0.535927 -1.8238218 -0.8802652 0.42004737
000110 4c 39 2f 3f e6 a0 ab be 0d a1 63 bf 56 cc 08 bf
       0.68446803 -0.33521193 -0.8891762 -0.5343679
000120 99 c4 84 3e 13 69 a8 bf 13 fe d6 3d fd 2f 27 bf
       0.25931242 -1.3157066 0.104976796 -0.653076
000130 d6 c5 97 3e 2f 80 c2 3d 66 e7 f1 3d cf 79 01 40
       0.29643124 0.09497105 0.11811714 2.0230596
000140 81 f0 fd 3d 96 bc 93 bf b9 3e 38 bf 13 b2 76 3f
       0.12399388 -1.1541927 -0.7197071 0.9636547
000150 97 14 8d bf 8d 88 69 3f 5a b5 da be 84 12 38 bf
       -1.1021909 0.91223985 -0.42716485 -0.7190325
000160 8d bb 8d bf 3c c9 1c 3f 65 7a 20 bf 8b ac 8a bf
       -1.1072861 0.6124456 -0.6268676 -1.0833906
000170 b3 bc f7 bd 32 e9 32 3f 8b cf c3 3f cc 96 51 bf
       -0.120965384 0.6988708 1.5297712 -0.8187072
000180 84 9b c2 3f fb b1 c0 3f 29 3e 04 3e 90 3e f5 bd
       1.520371 1.5054315 0.12914337 -0.119748235
000190 45 5a e1 bf a5 6f 1b 3f 22 f1 2d 3e 3a 02 87 3f
       -1.7605673 0.6071723 0.16986516 1.0547554
0001a0 af f2 da bf 95 9b ac be dd 91 b5 3f f7 00 61 3f
       -1.7105311 -0.3371245 1.4185139 0.878921
0001b0 bc 98 e8 bf 4e 8d 85 bf 80 b7 50 be 16 aa 8f 3e
       -1.8171611 -1.0433748 -0.203825 0.28059453
0001c0 2a 0e 5f bc 9b 66 ef be f5 64 31 3f eb 32 f4 be
       -0.013614217 -0.4675797 0.69294673 -0.47695097
0001d0 a7 a6 b9 3f 0a 19 48 bf 2c b7 72 bf c4 e2 d2 3f
       1.4503983 -0.78163207 -0.9481075 1.6475453
0001e0 62 b8 1b 3d 4c db 98 bf ec 2d ae 3e 28 5a ea 3f
       0.038017638 -1.1941924 0.3401941 1.8308764
0001f0 e7 f1 45 3e f7 da d8 bf 3c 5c 97 3f ff 0c 9c 3e
       0.1933056 -1.6941823 1.1825023 0.30478665
000200 00 15 09 be d6 9a f7 3d 9b 25 6c be 25 12 c2 bf
       -0.13386917 0.120900795 -0.2306122 -1.5161787
000210 7a af 7e 3e 74 f1 e8 be d3 0c a9 be d5 8b 91 bf
       0.24871626 -0.45496714 -0.33017597 -1.1370798
000220 91 ed 31 3f b7 3f 9e 3d 15 96 ee bf e3 90 ba be
       0.6950312 0.077269964 -1.8639551 -0.36438665
000230 41 28 12 bf 5e bf 14 3f cd d0 8d 3e 2d f0 99 3f
       -0.5709267 0.58104503 0.27698365 1.2026421
000240 7f f7 29 bf 91 d4 b1 be da 78 41 3f 50 ca 41 3e
       -0.66393274 -0.34732488 0.7557503 0.18924832
000250 8d f1 62 bf 5c b1 68 3d 25 92 4d bf 86 fe 0e bf
       -0.8864983 0.056809768 -0.80301124 -0.5585712
000260 9a 3c 35 3f 66 6c 94 be 79 c0 de 3f 1f 04 49 bf
       0.70795596 -0.2898895 1.7402488 -0.78521913
000270 63 8a 5d 3f 1a f0 54 3f 21 4f 10 bf 0b 0b cc 3e
       0.86539286 0.83178866 -0.5637074 0.39852175
000280 c5 f6 ad bd f4 52 24 bf 59 dd 0d 3f ea 94 87 3f
       -0.08494333 -0.64189076 0.55415875 1.059232
000290 d2 88 e0 3e 29 6f f3 be ba 9d df 3f 24 c3 80 3f
       0.43854386 -0.47545746 1.7470009 1.0059552
0002a0 30 9d bf 3e 43 b0 36 be d1 b3 40 bd 43 9f 6a bf
       0.37424612 -0.17840676 -0.047046486 -0.91649264
0002b0 78 46 cf 3f 74 ae d7 be 22 e0 43 3f d0 ee 6c 3c
       1.619338 -0.42125285 0.76513875 0.014461234
0002c0 6a 6e b1 3f 88 0e 04 3f 12 b8 17 3f 0d 2d 16 3f
       1.3861821 0.5158467 0.59265244 0.5866249
0002d0 59 e0 9a bf ac 24 83 3e bd a0 f8 3e 78 35 0a 40
       -1.2099715 0.25613916 0.48560134 2.1595135
0002e0 40 27 2a bf 17 ea 01 be 52 4c 0a 40 bd c2 70 3f
       -0.6646614 -0.12686954 2.1609082 0.9404715
0002f0 85 69 71 bf 74 13 a9 be 36 ce 41 3e 89 50 1e bf
       -0.94301635 -0.33022654 0.1892632 -0.61841637
000300 f4 66 2b 3e be 88 8a bf bf 57 e0 3e dd a8 8b bf
       0.16738492 -1.082298 0.43816945 -1.0910908
000310 25 bf 28 40 48 57 81 bf f5 8b 0f 3f e7 3f 97 3e
       2.6366665 -1.0104761 0.5607293 0.2954094
000320 7d 7e e5 be 8d c8 09 c0 10 b0 e1 3f 94 17 98 3f
       -0.44823065 -2.1528656 1.7631855 1.1882195
000330 44 92 46 3e 95 b2 df bf f5 b0 92 3e c9 f9 81 3e
       0.19391733 -1.7476374 0.28650633 0.25385883
000340 8e 76 14 3f 72 3d ae bf 58 32 37 be 7c f8 39 bf
       0.579934 -1.3612502 -0.17890298 -0.7264478
000350 06 f8 35 3f 82 a4 85 3e 12 fd 6a 3e d0 4a 5c be
       0.7108158 0.26102072 0.22948101 -0.21512914
000360 55 81 44 3f e1 8d 01 3f b5 7a 5d 3b 0f b9 30 3f
       0.76759845 0.50607115 0.0033795063 0.69032377
000370 4f 3c fe 3c 4e e3 20 c0 fc 47 80 3f bd 56 32 bf
       0.031034617 -2.5138736 1.0021968 -0.696636
000380 49 41 2a bf d7 ef 99 bf 2b c4 9b bf 91 3b e0 3f
       -0.6650587 -1.2026318 -1.2169241 1.7518178
000390 8e ce b3 be 7e 9d 36 bf 56 f0 90 3f c9 99 ae be
       -0.35118526 -0.71334064 1.1323345 -0.34101704
0003a0 7e 81 49 3f fd c0 73 3e c6 17 94 be 19 9e e5 bf
       0.78713214 0.23804088 -0.28924388 -1.7938873
0003b0 ab 54 ea 3e 36 17 3f 3f 76 6b 90 3f 76 43 ac 3f
       0.45767722 0.7464479 1.1282794 1.3458087
0003c0 ca d8 9f be 8c 7b 8a bf 8d 21 81 3f 46 27 7a 3d
       -0.31220084 -1.0818954 1.0088364 0.06107261
0003d0 96 9f c9 bf e5 44 17 3d 10 48 cb bd 9a b2 37 3f
       -1.5751827 0.036930937 -0.09925854 0.717569
0003e0 a5 6c b5 bf 0b d0 9e bf d0 26 e1 be ee a9 b0 be
       -1.4173781 -1.240724 -0.43974924 -0.34504646
0003f0 59 d8 b2 3e 58 87 a1 3f 80 9d 93 3f a0 3e 5e bd
       0.34930685 1.2619429 1.153244 -0.054258943

embed_item.weight f4 [1682, 20]
000000 58 cf bd 3e d3 49 93 bf 89 6c 89 bf 6b 8a 5c 3f
       0.37072253 -1.1506904 -1.0736247 0.8614871
000010 44 a3 c2 bd 9f b1 14 3f 94 a2 24 3f af 30 4d be
       -0.09503797 0.5808353 0.64310575 -0.20038103
000020 dd 1e 91 be 1c f6 2c 3f cf e6 16 3f 0a 50 54 bf
       -0.2834386 0.67563033 0.58945936 -0.8293463
000030 6d 67 b5 be 56 42 86 be c1 07 01 be f7 8d 60 3e
       -0.3543047 -0.26222485 -0.12600614 0.21929155
000040 d6 4b 59 3f 04 11 12 3f d6 b2 6e 3f ff 7e 21 be
       0.8488134 0.57057214 0.9324163 -0.15771101
000050 bc d1 d5 be 49 b0 7a bf 44 73 3c bf 40 d9 8d 3f
       -0.41761577 -0.9792524 -0.7361338 1.1081924
000060 40 d2 ae 3d 6e 6f ea 3d a7 ca 28 3e 83 2d fc be
       0.08536196 0.11447035 0.16483556 -0.49253473
000070 3a e9 9d be f9 4a 3a 3f c7 b9 3d bf 02 7f 63 bf
       -0.30842 0.7277065 -0.741116 -0.88865674
000080 c3 fb a3 3e 5e 35 5d be 0e 63 1b 3f e0 a5 e5 be
       0.32028016 -0.21602389 0.6069802 -0.44853115
000090 cd 0d 6e 3f ef b6 a2 3f 2b d3 82 3f df f5 6d bf
       0.9298981 1.2712077 1.0220693 -0.92953295
0000a0 60 b4 89 be 9d 3b 51 3f e8 ad fa be c6 06 06 c0
       -0.26895428 0.8173159 -0.48960805 -2.0941634
0000b0 41 3c 06 bf a8 a8 77 3f 29 4b 98 bf 88 46 c4 bd
       -0.5243569 0.96741724 -1.1897937 -0.09583765
0000c0 b6 22 3d bd c6 43 af 3c 77 49 64 3e 5f b2 ea 3f
       -0.04617568 0.021394622 0.2229365 1.8335685
0000d0 98 db 47 3e f1 6f 16 3e 8f b9 44 bf b7 1a 97 3f
       0.19517362 0.1469114 -0.7684564 1.1805028
0000e0 ec 9a f1 bf c8 b2 78 bd d2 01 73 3e fa 79 02 bd
       -1.8875403 -0.060717374 0.23731163 -0.031854607
0000f0 29 b8 80 bf 81 12 07 bf 7d 5f c6 bd 54 7e 67 be
       -1.0056201 -0.5276261 -0.09686182 -0.22606784
000100 eb 47 f7 3e a1 83 16 bf a3 43 88 3e d3 cf 84 3e
       0.48297057 -0.587946 0.26614103 0.25939807
000110 c4 39 c0 3e 50 97 d8 be 56 66 15 bf c4 f1 77 be
       0.37544072 -0.42302942 -0.5835928 -0.2421332
000120 e0 30 73 be 6c 5d e1 bd 84 6f f9 3e 95 ae 27 3b
       -0.23749113 -0.11004147 0.48717892 0.0025586237
000130 fa 93 68 bf 2c a5 4b 3f 83 46 82 be d6 1b 33 3f
       -0.90850794 0.7954891 -0.2544442 0.6996435
000140 9c 23 90 be 96 dc 7d bf d9 0e 29 bf 60 f9 c9 3e
       -0.28152168 -0.9916471 -0.6603828 0.3944807
000150 82 9e 26 3e 4a 68 4b 3e 19 c8 cf be 4d 03 af be
       0.16271403 0.19864002 -0.4058235 -0.34182206
000160 b5 89 eb be 03 2d b4 3f 68 54 b0 be 92 a8 f3 be
       -0.460035 1.4076236 -0.34439397 -0.47589546
000170 72 42 68 3d 3b 92 d1 bd ff 70 16 3f 5d a9 08 bf
       0.056703992 -0.102329694 0.5876617 -0.5338343
000180 b2 d3 f2 3e 40 eb 1d 3f 03 11 86 3f cb 53 aa bf
       0.47427136 0.6168709 1.0473942 -1.3306822
000190 59 4a c7 be 9c fe c5 3e 0d 73 81 3f 78 9d 3e 3f
       -0.3892391 0.38670814 1.0113236 0.7445903
0001a0 78 05 50 bf ba e6 3d be 20 86 98 3f a9 2f a8 3f
       -0.81258345 -0.18545046 1.1915932 1.3139545
0001b0 ac 28 ad be d6 ba 18 bd 76 8e 90 be ed 6c b3 be
       -0.33820093 -0.037287556 -0.2823369 -0.3504404
0001c0 27 c1 18 3f d2 4f 44 bf f6 ee 96 3e d1 ea 8d 3e
       0.5966973 -0.76684296 0.29479188 0.27718213
0001d0 58 96 37 3f e9 c9 c9 be 42 38 ca be 00 8f 25 bf
       0.7171378 -0.39411858 -0.39496046 -0.64671326
0001e0 ef 11 00 bf 51 4a 39 be ac 90 3a 3f 1f e7 fe 3d
       -0.50027364 -0.18094756 0.72877 0.124464266
0001f0 43 89 a7 be d3 73 0c bf b6 e9 07 3f fb d6 96 3f
       -0.3272191 -0.54864234 0.5309099 1.1784357
000200 51 d9 17 bf f9 d6 8b be 00 7a fa be c1 c5 01 bf
       -0.59315974 -0.2731245 -0.48921204 -0.50692374
000210 8f 78 65 3f 8f 17 da bc 5b 6c 14 3f 52 be ab 3d
       0.8963708 -0.026622562 0.5797784 0.0838591
000220 20 17 dc 3c 23 1e 06 3f 68 32 a6 bf 7c 87 67 3e
       0.026866496 0.52389735 -1.2984133 0.22610277
000230 25 a7 ae bb bc 7d 32 3f cf 00 a3 3e fd ce e2 be
       -0.005329984 0.69723105 0.31836554 -0.44298545
000240 b1 f7 b3 be 71 0d cd be e6 af 04 be 81 7f 0f 3f
       -0.3514991 -0.40049317 -0.12957725 0.5605393
000250 dc a1 91 bf 41 45 1d bf fe e7 39 3e bb 09 8f 3f
       -1.137752 -0.614338 0.18154904 1.1174845
000260 59 a2 0f be 14 54 18 3f a1 74 25 3f 47 9e 7f 3e
       -0.14026774 0.59503293 0.64631087 0.24962722
000270 1d 01 9f 3b 90 e3 23 3f 77 1b 70 be 67 89 b0 3f
       0.0048524276 0.6401911 -0.23447977 1.3791932
000280 92 df b3 bf 19 29 91 be 3e 1b da 3e 29 84 3f bf
       -1.4052603 -0.28351668 0.4259891 -0.74811035
000290 ba cd db be 27 7d de be 0b c1 3d 3e 7d 7a 82 3f
       -0.42930394 -0.4345486 0.18530671 1.019363
0002a0 a8 51 97 3e 6f 89 4b bf 2c ab 1c bf ae 40 21 3e
       0.29554486 -0.7950658 -0.6119869 0.1574733
0002b0 4e 4f 48 3f 6e 7c 73 bf 0d d3 8e 3e dd b6 53 3f
       0.7824601 -0.9511174 0.27895394 0.827009
0002c0 e8 79 10 bf a8 2e 07 3f 98 89 1c be 2e 80 8d 3f
       -0.56436014 0.52805567 -0.15286863 1.1054742
0002d0 7f 9a d2 be 58 5b 9e be c7 ed f1 3d d6 ff 3c 3f
       -0.41133496 -0.30929065 0.118129306 0.73827875
0002e0 7f 37 6d 3e c3 01 0a bf 1a 48 41 3f b6 d9 66 3f
       0.23165701 -0.5390894 0.75500643 0.9017595
0002f0 8b 72 9e 3f b9 3e b2 bd 29 0b ea 3e 5d 1e 3a be
       1.2378706 -0.0870337 0.4571164 -0.18175645
000300 03 ff 83 3e f7 86 e9 bd 38 cf 50 3d 8a be 3f 3f
       0.25780496 -0.114026956 0.05097887 0.74900115
000310 a4 5a 26 3f a5 ae 29 3f 4d 37 ce be 7d ca 90 3f
       0.64982057 0.6628211 -0.40276566 1.1311795
000320 65 5c 0f be 69 19 89 bf da 7f 43 3f 91 c5 80 3e
       -0.1400009 -1.071088 0.7636696 0.2515073
000330 91 b8 92 bf 40 8b 82 be b0 d4 d0 3d 22 8c 86 bf
       -1.1462575 -0.25496864 0.10196817 -1.0511515
000340 6e ab d8 be d1 8d 86 bf 7d 64 9b 3d 4a 8a 1d bf
       -0.4231829 -1.0512029 0.07587526 -0.6153914
000350 9f 79 84 3f 08 27 f3 be 17 db 53 3f 31 d8 2d bf
       1.0349616 -0.47490716 0.8275618 -0.67908007
000360 73 36 90 3f bb a0 f1 bd 64 db a4 3d f7 64 51 3e
       1.1266617 -0.11798235 0.08049658 0.20448671
000370 02 64 53 bd 2e 90 13 bf 24 68 f9 3d 64 4f e9 bc
       -0.051609047 -0.57641876 0.121780664 -0.02848024
000380 76 78 2a bf 2e 69 9c be ae a3 b6 be 0b fc 86 bf
       -0.6659006 -0.30548996 -0.35671753 -1.0545667
000390 b5 59 73 3c bc c9 2c bf 42 39 7b be 3c e7 b5 be
       0.014852931 -0.6749532 -0.24533561 -0.3552798
0003a0 97 f8 2d 3e ab bc f0 be 73 1e 26 3f 2d 4a 8a bf
       0.16989361 -0.47018942 0.6489021 -1.0803887
0003b0 07 5d c5 3e 6d 66 a5 be 53 e9 3c 3f 7a 7b d2 3d
       0.38547537 -0.32304707 0.73793525 0.102774575
0003c0 dc ca 24 3d dd e7 74 bf f9 d0 87 3f ce 53 21 3f
       0.040232524 -0.95666295 1.0610648 0.630185
0003d0 76 7a 61 bf 54 8d 00 bf ea f2 99 3e e9 4d 82 be
       -0.88077486 -0.5021565 0.3006814 -0.25450066
0003e0 5e f9 7c bf c0 fb 33 bf d5 8d 83 3e 36 20 5f bf
       -0.98818004 -0.70306015 0.25694147 -0.87158525
0003f0 45 80 81 3f 3d f9 a2 bd ea 58 c9 3e ff c5 e6 be
       1.011727 -0.07957695 0.3932565 -0.45072934
