models/EBPR_ml-100k_batchsize_500_opt_adam_lr_0.001_latent_20_l2reg_0.001_Epoch48_NDCG@10_0.3709_HR@10_0.6405_MEP@10_0.9205_WMEP@10_0.3583_Avg_Pop@10_0.4934_EFD@10_1.1147_Avg_Pair_Sim@10_0.2861.model (torch, 211111 bytes, 2 tensors)

embed_user.weight f4 [943, 20]
00000000: aa67 de3e e29f cd3e df9a a23d 1ecd 7c3e
00000010: 022e 833e 80cc 1f3f 0f25 3b3f 439e 103e
00000020: e794 5a3e dee6 a73d 05e5 83be 969c f4be
00000030: cb2c 133f a071 26be 282d 9e3e 8172 ea3e
00000040: 16f1 2e3f 4353 18be 9ff7 57bf f371 093e
00000050: fb8a 813f b69e d93e 7a4b 38be 8911 59bf
00000060: ae03 e63c 067c b23e 76a0 f33e b1b4 4d3e
00000070: 89aa bebf dc7b 11bf a482 b5be 7ceb 073f
00000080: 5e57 5a3f ad2e 063e de6b 28be d907 bebe
00000090: 3a4f 61be 8d57 173f b047 bebd 3ff9 613d
000000a0: 4598 df3e 8c5a 3b3f eb82 433f 6148 5dbf
000000b0: a86a 0c3f 084c 77be aa43 113d ac44 203f
000000c0: 3dd2 5bbf 9575 59bf 2902 ca3e add5 74be
000000d0: 10b1 d0bd b711 4fbf 8ede c5bd 7418 1e3e
000000e0: b0ad 47be ce48 5d3f 79fb d2bd 7e67 053f
000000f0: 4143 393f 1419 613f dafc 1d3f f279 843e
00000100: dfe1 073f 00fb 603f ac2f 2a3f e04c fa3d
00000110: 7e32 3dbf 445b f23e 5018 b03e a0df 18bf
00000120: e23e 0f3f 9172 afbf d193 80be e801 943e
00000130: 1401 cf3e 1e92 353e 1c92 fcbe ebae 3b3f
00000140: 4e70 3a3f 5d36 033f 134e 23bf ce3b 56bf
00000150: 1ef0 51be addb 89bd 81b2 873f b30d b23e
00000160: f8c6 22bf 03ac 00bf de84 78bf dd99 c53e
00000170: 684d 4a3f ce39 2c3f a3ff 0d3f 55f5 243d
00000180: acf7 c03b 3932 9a3d f9d9 eabe ef34 f6bd
00000190: ddd5 263d b1dd 3a3f e40e 433f 7ccd dfbd
000001a0: 0740 323f a0fb 7a3e 7a45 913e 5b83 c13f
000001b0: 8db8 c8be 186d f1bd a35e 8abf 0af9 92bf
000001c0: 9b41 663e 085f 1dbf 7aa0 7f3f 1b54 443f
000001d0: 6177 c93f 4e7a 103f fbf1 23be 1440 a63f
000001e0: 00db 343f 2509 87be 0ec5 313f eea7 60be
000001f0: a41e da3e 1a7a 613f 9b3f 213f e4ec 98be
00000200: 48d6 dbbe 3754 0fbf 688c 44bf 3157 33bf
00000210: 4271 6e3f 6041 febe 4653 dc3d 7e3b e83e
00000220: 7174 753f 0992 b73e 3639 11bf 5400 903e
00000230: eca0 cc3e b4e0 153f 8bc0 c73e 39ce 63bf
00000240: dd12 0a3f 5861 f03e b657 133f 1689 553f
00000250: 1824 d2be f671 57bf e012 7cbf 7166 02bf
00000260: b065 c83e 6056 7cbe 9635 843f 3e71 443f
00000270: 2d54 1b3f be58 cb3e 470e 24bf 59d2 f23e
00000280: 1b48 3d3d e8b5 9e3e 29a5 113f 82ee 20be
00000290: eee5 2c3f 5421 863f d3c3 5d3f 2b42 293e
000002a0: 0e06 193f 6a34 82bf 81a1 30bf f5a4 64bf
000002b0: 3acf 163f 9011 e6be cd55 853f 0cf6 a03f
000002c0: 717f 523f f090 aabd 1532 9fbf ed40 813c
000002d0: 58d2 aebd 80c3 f93d 591f 103f 4346 b23d
000002e0: d1f5 143f 7c1e b43e bfc7 543f 24e8 0f3f
000002f0: 1fcc 053f c857 57be 4d0d efbf 843a b0bf
00000300: 284b dc3e f3f6 223d 3bbd a63f baac a93f
00000310: afe4 1940 71a8 22be a6f1 15bf 7c59 073f
00000320: 1b2f 1e3f ddb8 f23e 57bb 2b3f fc4e 43bd
00000330: 972c 243f 60d8 783f a11b 5e3f ff86 c6bc
00000340: b1bc bcbe aca9 e9be 1d20 ffbe 15a3 5abf
00000350: b576 7c3f 970f 80bf 7026 5b3e ca94 ba3e
00000360: bfb9 4d3f fbdf b23e e85b 25bf 0889 393f
00000370: 38b4 3a3f dd65 763f 9466 f23e 6f0d 85be
00000380: 6df7 523e d352 cc3e 2f19 113f b4dc 8d3e
00000390: 4327 1bbf 9955 0d3f 9dab 393e c08b b2be
000003a0: 06f2 183f 50e5 8abf dc4f 403e ba94 c33e
000003b0: 1cbb ea3e 6837 33be 1907 40bf 5ab1 393f
000003c0: d9ed 023f a408 a83f dc89 213f 2ea9 31bf
000003d0: 943b aa3e 8391 4bbe dc9a cbbd c35f b03f
000003e0: ae3f c3bf a633 44bf 0c50 d5bd 9d00 30be
000003f0: 0dd4 bf3e e1ad 4abf ada0 763e b92b 11be
0.43438464 0.40161043 0.079396956 0.24687621 0.2562104 0.6242142 0.7310342 0.14122872
0.21345864 0.08198331 -0.25760666 -0.47775716 0.57490224 -0.16254282 0.30893826 0.45790485
0.6833662 -0.14875512 -0.84362215 0.13422374 1.0120538 0.425039 -0.17997542 -0.8479238
0.028077926 0.34860247 0.4758336 0.2008846 -1.4895793 -0.5682962 -0.35451233 0.53093696
0.8528956 0.13103743 -0.16447398 -0.37115362 -0.22002879 0.59117967 -0.09291017 0.05516934
0.4367086 0.7318504 0.7637164 -0.86438566 0.54850245 -0.24150097 0.03546492 0.62604785
-0.85867673 -0.8494504 0.39454773 -0.23909636 -0.10190022 -0.80886406 -0.096615896 0.15439016
-0.1949985 0.86439216 -0.10301871 0.5211104 0.72368246 0.8792889 0.61713946 0.25874287
0.53079027 0.87882996 0.6647899 0.12221694 -0.7390517 0.47335255 0.3439355 -0.59716225
0.55955327 -1.3706838 -0.25112775 0.28907704 0.4043051 0.1773152 -0.49330223 0.7331378
0.72827613 0.51254827 -0.63791007 -0.83685005 -0.20501754 -0.06731353 1.060135 0.34776077
-0.6358485 -0.5026247 -0.9707774 0.3859395 0.7902436 0.672757 0.55468196 0.04027303
0.0058889 0.075291105 -0.45869425 -0.12021815 0.0407313 0.72994524 0.76194596 -0.10927865
0.6962895 0.2451005 0.2837332 1.5118212 -0.392033 -0.11788386 -1.0810131 -1.1482251
0.22485964 -0.6147313 0.9985424 0.76690835 1.5739557 0.5643662 -0.16010277 1.2988305
0.7064667 -0.26374164 0.69441307 -0.2193906 0.42601502 0.8807694 0.6298768 -0.29868233
-0.4293692 -0.55987877 -0.7677674 -0.7005492 0.9314157 -0.49659252 0.10758071 0.4535789
0.958808 0.35853603 -0.5672792 0.2812525 0.39966524 0.58545995 0.39014086 -0.88986546
0.53935033 0.46949267 0.5755571 0.834123 -0.41043162 -0.84158266 -0.984663 -0.50937563
0.3914008 -0.24642324 1.0328853 0.76735294 0.6067532 0.39716142 -0.64084285 0.47426108
0.046211343 0.30998158 0.5689264 -0.15715984 0.67538345 1.0478921 0.8662693 0.16529147
0.59774864 -1.0172246 -0.68996435 -0.89314204 0.5890995 -0.44935274 1.0416809 1.2575088
0.8222571 -0.08328426 -1.2437159 0.01577803 -0.08536214 0.12195492 0.5629783 0.087048076
0.58187586 0.35179508 0.8311729 0.56213593 0.5226459 -0.2102958 -1.8675934 -1.3767858
0.4302609 0.03978629 1.3026499 1.3255837 2.4045827 -0.15884568 -0.5857185 0.5287092
0.6179063 0.47406664 0.6708273 -0.047682747 0.6413054 0.9720516 0.8676091 -0.024234293
-0.3686271 -0.45637262 -0.49829188 -0.85405093 0.9861863 -1.0004758 0.21401381 0.36441642
0.8036155 0.3493651 -0.6459336 0.7247472 0.7293124 0.9624918 0.47343886 -0.25986812
0.20602198 0.3990694 0.5667905 0.27707446 -0.60606784 0.55208737 0.18131872 -0.34872246
0.597443 -1.0851231 0.18780464 0.38199407 0.45845878 -0.17501605 -0.7501083 0.7253624
0.51144177 1.3127637 0.6310098 -0.6939877 0.3324858 -0.19879727 -0.099416465 1.3779224
-1.5253808 -0.7664131 -0.10415658 -0.17187734 0.3746647 -0.7917157 0.2408473 -0.14176835

embed_item.weight f4 [1682, 20]
00000000: 8f44 c63e c358 2c3d f0b1 39bf 3077 793d
00000010: 04d3 35be 2d56 2c3e f363 5f3f 9d6b e1be
00000020: 401f d73e 32f1 80be 7d6a 2cbf f082 a73d
00000030: 4946 4b3f 9cb9 5f3f 5f54 ad3e 5b48 423e
00000040: 1bf4 fe3e 8a8b d3be 8772 37bf 1a67 83be
00000050: 8b11 193f fab8 4e3e 402f 3ebf 7c16 76bf
00000060: ca4d 653d 8097 cc3e 8c75 773f 3f2e d93d
00000070: 918c a1bd 979d 32bf b3ea 33bf cfb2 aa3e
00000080: fe71 473f 7a17 783f 2e59 393f fe50 f73e
00000090: c663 ca3d 6c82 22be 137d 50bf ebef e0be
000000a0: 9c79 1fbf 41b0 363e 691d d1bb 5b91 303e
000000b0: def8 abbd 0790 10bf 2838 7abf 0d4e fb3d
000000c0: a4c7 aebd 2760 923e 6d7f 663f b0e0 c13e
000000d0: 6942 7bbf 8ea3 20be a266 91be d70c c9be
000000e0: 2a7e 8ebf eaa4 483d 6d1b 5b3f dcb2 80bd
000000f0: 8adf 9b3d 97a0 133f 28b6 5f3e d4c2 6cbe
00000100: 4de8 783e 226b 323f 65c4 b2bc 693a 983e
00000110: b73a a4be 1e53 edbd 9bbb d93d 859e cb3c
00000120: dc81 05be 232e 03bf 51af 803e 3063 623e
00000130: 3dcc b2bd 203c 873e 7141 8cbe 9561 bb3d
00000140: 488d f33e 0171 58be 3c4e 3fbf 5804 68bf
00000150: 1eaa 22be 482a 303e 2219 2d3f 869d 403e
00000160: 1f92 16bd 216e 05bf d6f8 f5be c0c2 013f
00000170: 90b8 0d3f 78c7 663f bd0a da3e bfe6 723e
00000180: ffe7 1bbd 2e0d 7ebe fe0f 39bf defd 35bf
00000190: c66c 38be abc0 3cbe 878d 4e3f 1456 c8be
000001a0: 247e 083f e96d 8d3e e7f0 76bb bef8 263e
000001b0: 6025 963e ef5b 38bf cd16 18bf eb99 75bf
000001c0: 387f 1abe 5ef4 94be 8e61 303f f078 2c3f
000001d0: cb5d 3b3f a321 5f3e 5aab b2be 61d2 a23e
000001e0: 744b 693e de02 a63e 7f92 603f 97c5 29bf
000001f0: f0be 053f 3d62 043f a527 6cbd 44cf f63e
00000200: c00d dbbe 132d 59bf 47f6 c0bd 927c f9be
00000210: 3484 093d b319 4cbf f132 b73e 59ea d13e
00000220: ae43 9c3e f965 203f c4cd a1be 4653 003f
00000230: 4041 6dbe 7989 f53e 5951 d13e 3c3e c6bc
00000240: c315 3f3e 747a 74be 8e3d 37bf 1065 363f
00000250: d970 c9be 9f41 4e3e b459 3d3e 2a81 9abe
00000260: 8dd9 e5be 6429 11bf 6442 513e 3c6b c83d
00000270: de00 843e 1057 ba3e eb98 7f3e 180f 1a3f
00000280: 1533 9e3b 082f 493f 0d02 3d3f a36c 6cbe
00000290: 6452 143f 1704 de3e 81bf 20be abfa 3e3f
000002a0: d32a 9cbe c942 83bd 19bf e33e c764 01bf
000002b0: d60e bdbe f75a 90bf e364 873e 35a3 d13e
000002c0: e716 d03d 91bd ec3e f4b3 40be b21a e33e
000002d0: da9e 9cbe 00a8 d53e b669 783e e320 a73e
000002e0: ae91 a33e c541 2f3f 0413 c43e 2c49 8a3e
000002f0: 80c4 173f bb31 c0bd d536 afbe 8b2d dfbe
00000300: 3944 d43d 6f90 c2be 2289 243f d424 053f
00000310: ee81 fb3e 24e2 6dbd 9ad8 d9be 1277 af3d
00000320: c602 773f acda a73e 84de 333d 9684 8fbe
00000330: 0dd0 0e3e 3133 fdbb f102 643f a4d5 223f
00000340: e68d 53bf 2fbc bdbd d3f0 08bf abca acbd
00000350: 2bbd 843f 3d5b 30be b5e6 52bc cc9b 963e
00000360: c905 013f f6a4 ca3e 1e1c 16bf 5d7a 123f
00000370: 30e6 3c3f 346f 823e 1b63 8cbe 4faa 0d3e
00000380: 1223 1abc f80e 813d 2990 3d3f 0e96 513e
00000390: b8e3 04bf 66ce 9e3e 7740 9dbe 6229 e23d
000003a0: e7e7 5b3f 6e62 3dbd fe75 a2be 1a73 5d3d
000003b0: d58b 8f3e dea9 9d3d b629 a2be 42ad 6a3e
000003c0: 8f45 5a3f b589 b63e 22ef cd3e fd1a 24bf
000003d0: f9eb a53e 6887 4f3e 62a3 1c3f c444 e33e
000003e0: 0628 74bf 5f0a 1fbf 90c0 0dbf 48f0 bfbe
000003f0: 899d 5c3f 05e8 dabe 5acc 6c3e b5c8 a53e
0.3872418 0.042076837 -0.72537136 0.06090468 -0.17756277 0.16829748 0.87261885 -0.44027415
0.4201603 -0.25184017 -0.6734999 0.08179271 0.7940412 0.8739259 0.33853433 0.18972914
0.49795613 -0.41317397 -0.7165913 -0.25664598 0.59792393 0.2018775 -0.7429085 -0.9612806
0.05598239 0.39959335 0.9666374 0.10604524 -0.07888139 -0.69771713 -0.7028 0.33339545
0.77908313 0.9691082 0.724017 0.4830398 0.098823115 -0.15870064 -0.8144085 -0.43933043
-0.62294936 0.17840673 -0.00638168 0.17242949 -0.08397077 -0.5646977 -0.9774194 0.122707464
-0.08534172 0.28588983 0.90038186 0.37866735 -0.9814821 -0.15687391 -0.28398615 -0.3926761
-1.1132252 0.0489854 0.85588723 -0.06284115 0.07610996 0.57666916 0.21846831 -0.23121196
0.24307366 0.6969472 -0.021822164 0.29732063 -0.32076046 -0.11588119 0.10631486 0.024855861
-0.13037819 -0.51242274 0.25133756 0.2210815 -0.087303616 0.2641306 -0.27393678 0.09149472
0.47568727 -0.21136858 -0.7472875 -0.9063163 -0.15885207 0.17203629 0.67616475 0.1881009
-0.036760446 -0.5212117 -0.4804141 0.5068779 0.55359745 0.90148115 0.42586318 0.23720835
-0.038063046 -0.24809715 -0.7229003 -0.71090496 -0.18010244 -0.18432872 0.80684704 -0.39128172
0.53317475 0.27622917 -0.003768021 0.16305825 0.2932539 -0.7201528 -0.5940979 -0.95937985
-0.15087593 -0.29092687 0.68898857 0.67372036 0.7318999 0.21790175 -0.34896356 0.3180113
0.2278269 0.32424062 0.87723535 -0.66317123 0.5224447 0.517124 -0.057654995 0.48205006
-0.42783928 -0.848344 -0.09421974 -0.48727852 0.033573344 -0.79726714 0.35781053 0.40999106
0.30520386 0.626556 -0.316023 0.50127065 -0.23169422 0.47956446 0.40882376 -0.024199598
0.18660645 -0.23874837 -0.715783 0.7124796 -0.39343908 0.2014222 0.1849125 -0.3017667
-0.4489254 -0.5670378 0.20435482 0.09786078 0.25781912 0.36394548 0.24960677 0.6017928
0.004827867 0.7858739 0.73831254 -0.23088317 0.5793822 0.43362495 -0.15698053 0.7460124
-0.30501422 -0.06409223 0.44481733 -0.505444 -0.3692538 -1.127776 0.26444158 0.4094483
0.10160618 0.46238378 -0.18818647 0.44356304 -0.30589944 0.41729736 0.24259076 0.32642278
0.31947082 0.6845973 0.38295758 0.2700895 0.5928421 -0.09384485 -0.3422152 -0.43589434
0.10364575 -0.3800082 0.6427175 0.5200932 0.49122566 -0.058076993 -0.42548066 0.08567633
0.96488607 0.3278402 0.04391338 -0.28030843 0.13946553 -0.0077270498 0.8906699 0.6360724
-0.82638395 -0.09264409 -0.5349247 -0.08437093 1.037023 -0.17222305 -0.012872388 0.2941574
0.5039945 0.3957898 -0.58636653 0.5721796 0.7378874 0.25475466 -0.2741936 0.13834499
-0.0094077755 0.06301683 0.74048096 0.20467398 -0.5190997 0.31016845 -0.30713245 0.110430494
0.8590073 -0.046236448 -0.31730646 0.054064848 0.2803637 0.07698415 -0.31672448 0.22917655
0.8526239 0.35651937 0.40221506 -0.6410368 0.32406595 0.20266497 0.611868 0.44388402
-0.9537357 -0.621252 -0.5537195 -0.37488008 0.8617788 -0.42755142 0.23124829 0.3237969
