models/EBPR_ml-100k_batchsize_50_opt_adam_lr_0.001_latent_20_l2reg_0.001_Epoch46_NDCG@10_0.3952_HR@10_0.6681_MEP@10_0.9316_WMEP@10_0.3612_Avg_Pop@10_0.4728_EFD@10_1.1976_Avg_Pair_Sim@10_0.2690.model (torch, 211111 bytes, 2 tensors)

embed_user.weight f4 [943, 20]
00000000: 4f3c 3b3f 2d4d e03e 6883 8bbf 32e8 813d
00000010: db45 8a3e 4572 28be cff0 2a3f e7c4 703e
00000020: 112f 9a3e 68e6 a7be 157c ee3e f439 803e
00000030: 0e55 d8bd cd85 573f 148e 0bc0 6afc d13e
00000040: 5297 1cbf 2bbb 173f c126 a83f 4715 ae3e
00000050: b262 1bbf bc55 05bf 27b6 173f fc4b cebf
00000060: 0b61 2a3f 5a3c 55be 516d 9d3f b156 87bf
00000070: 0e16 90bd af4e 823f 4616 27bf f8f6 b83d
00000080: 541c 1dbf 4dcd d33e 740d 60b9 669b a5be
00000090: da51 a63f cdc8 a73f 5360 0abf d890 80bf
000000a0: e0fc 7f3d b56e 0fc0 01e7 393d d474 853f
000000b0: 005d 8bbf cf73 f1be 5406 efbe eb29 323f
000000c0: 7c53 c03d f5e3 39bf 83e8 7b3f db5d d33d
000000d0: 3303 a7bf 4fa4 943f 5bed ddbf 7577 953d
000000e0: 37c1 353f f6a4 c33f 8db2 d53c 66ef 3f3f
000000f0: 6c24 c13e 4adf 48bd 9b6b ebbf 72a2 3bbf
00000100: c407 c43e 0673 90bf e2c4 223f 54d3 f53d
00000110: 9d70 633f 48d8 1dbd 8fcb 393e 225b 8b3f
00000120: 50dc b3bf 7f66 90bf bcf3 82bf fb7b 71bf
00000130: e6b8 ffbe 589b 893f 50ee a03f 6801 9fbf
00000140: 7a51 75bd 9535 2dbe 8085 cabe 5a17 53bf
00000150: 65ba cfbe 3c01 943e 9349 87be 27c1 4ebf
00000160: e448 aabe 223a 1b3e c5d3 48bf 35b0 1cbf
00000170: 2833 813e 2247 313f 946c f9be ada9 2f3f
00000180: b667 733f b39d 573f a802 1fbe 664e 5ebe
00000190: 8cbb 2840 640a 6ebf 79aa f6be 4101 69bd
000001a0: 4e28 2abe 00ca 1dbf c0b2 1f3f 1cdf 2cbf
000001b0: 512c aa3f c9e3 1b3f 250a 083f aa8b 103e
000001c0: 3833 9abe a849 8c3f 4e5f 2a3f 80b1 8a3f
000001d0: 3897 b83f e4a9 37be 49b4 8e3f 050c e73e
000001e0: 5442 0fbf eb88 30bf a16a 1f3e e5cf 3cbf
000001f0: bba7 7bbf 922c a4bd c0a7 b23f ea32 acbf
00000200: 934a 1b3f 4566 263f 3988 223f d038 c23f
00000210: 0551 bcbe 4bd4 88be 68f8 33bf dc95 a43e
00000220: 3b40 683e 68d9 e1be cb91 6e3f 30aa 31bf
00000230: ac92 393f c23b 4cbf 6ebf ffbe a756 a9bf
00000240: fb1f abbf aae3 3bbf 8c95 5a3e ca28 21bf
00000250: b646 413f 8dd8 003f 2320 9c3e ce7a 27bf
00000260: f75e 6cbe 48e6 d83e c40a 523c 6d98 873f
00000270: 6867 653f 03f1 d83d b032 f03e c057 31bf
00000280: a500 333f 13df ec3e 7728 10bf df78 bdbf
00000290: 7482 a6bf 0058 45bf 7d53 9c3d 2293 96bd
000002a0: 142a df3d 376a 11bd 161c 773f 7752 043f
000002b0: e7c6 06bf 62a1 e13e b94b cfbf f3de bb3f
000002c0: 0a5f 4e3d d7ec 00bf cc5b a63f 7236 79bf
000002d0: 21a7 c33f 6928 103d 6285 0ebf e4c9 92be
000002e0: 4b97 b7bf 91aa 2c3e 60c0 ac3f b49d 9abf
000002f0: c993 073f c1cf d13e 84e2 793f d63e 883d
00000300: 0222 2abd 1ac6 ba3e a19d 41bf 2aa9 f73f
00000310: fd6b 9f3f f539 87bf 463e 2340 1cb7 f23e
00000320: f1d6 173d dc30 19bf ecb4 a6bf e0e5 7cbf
00000330: b81e c13d 6a36 71bf e7cb 283f fbb8 97be
00000340: 1ba3 42be 209c 813f 5e68 3f3f 9e55 de3f
00000350: 9af0 b9bf cb2b c53e adb9 89bf 3820 93bd
00000360: 967d 2f3e 3db0 e4be 74aa c13e ad5e a3bf
00000370: c989 12be 4c54 633f fc1a b2bf baa8 923f
00000380: b172 2fbf 0a51 c9bf 29d8 ce3e 0d2c 0e3e
00000390: f441 efbe 119e c83f 417e 4d3f 3676 c43d
000003a0: 17a4 34bf aaf0 b43f 2623 47bf 5095 a1be
000003b0: 3953 50bf 59a8 923f 41cc ee3f 8662 09bf
000003c0: 3b25 0c3f 9fd8 1cc0 b275 dcbe 707a 3ebe
000003d0: 9707 e13d 5aa2 80bf 6454 f0bd c929 d4be
000003e0: 3066 4c3f f227 e43f 7bf9 e33e 1093 8b3e
000003f0: 0f7c b6bf 19a2 b73f 45df b53c c16d 17be
0.731389 0.4380888 -1.0899477 0.06343116 0.2700642 -0.1644984 0.66773695 0.23512612
0.30114034 -0.32792974 0.46579042 0.25044215 -0.10563098 0.8418854 -2.1805468 0.4101289
-0.61168396 0.5926997 1.3136827 0.34000608 -0.6069747 -0.52083945 0.5926232 -1.6116939
0.66554326 -0.20823804 1.2298986 -1.0573331 -0.070354566 1.0180262 -0.6526836 0.090314806
-0.6137135 0.4136757 -0.00021367316 -0.32345122 1.2993729 1.3108155 -0.5405323 -1.0044203
0.06249702 -2.241132 0.045386318 1.0426278 -1.0887756 -0.47158667 -0.46684515 0.6959521
0.093909234 -0.7261346 0.9840166 0.10320636 -1.3047851 1.1612643 -1.733806 0.07298175
0.7099795 1.5284717 0.026086116 0.7497467 0.377231 -0.04904107 -1.8392214 -0.73294747
0.38287175 -1.1285102 0.6358167 0.12003198 0.8884371 -0.03853634 0.18144058 1.0887187
-1.4051609 -1.1281279 -1.0230632 -0.94329804 -0.49945754 1.0750532 1.2572727 -1.2422304
-0.059892155 -0.16914971 -0.39554977 -0.82457507 -0.40571895 0.28907192 -0.2642332 -0.8076348
-0.33258736 0.15158895 -0.78448135 -0.6120637 0.25234342 0.69249165 -0.4871565 0.6861828
0.95080125 0.84225005 -0.15528357 -0.21709594 2.636447 -0.92984605 -0.48176935 -0.05688596
-0.16616938 -0.6163635 0.62382126 -0.6752794 1.3294774 0.6089445 0.5314048 0.14115778
-0.30117202 1.0959978 0.66551673 1.0835419 1.4421148 -0.17935902 1.1148769 0.45126358
-0.55960584 -0.6895892 0.1556802 -0.7375472 -0.9830281 -0.080163136 1.3957443 -1.3453038
0.60660666 0.649998 0.6348911 1.5173588 -0.36780563 -0.26724467 -0.7030091 0.32145584
0.22680752 -0.4411118 0.9319121 -0.6940031 0.7248943 -0.79778683 -0.49950737 -1.3229569
-1.3369135 -0.7339426 0.2134611 -0.62952864 0.7549852 0.5033043 0.30493268 -0.6542176
-0.23083101 0.4236319 0.01281995 1.0593392 0.8961091 0.10592844 0.46913671 -0.6927452
0.6992286 0.46263942 -0.56311744 -1.4802512 -1.3008561 -0.770874 0.076331116 -0.07352282
0.10896698 -0.035501685 0.9652723 0.5168833 -0.5264725 0.44068438 -1.6194984 1.4677414
0.050383605 -0.5036139 1.2996764 -0.973487 1.5285379 0.035194788 -0.55672276 -0.28669655
-1.4343046 0.16861941 1.3496208 -1.2079377 0.5295988 0.40978816 0.9761126 0.0665261
-0.04153634 0.36479264 -0.7563115 1.93485 1.245483 -1.0564562 2.5506759 0.47405326
0.03707022 -0.5984018 -1.3023963 -0.9878826 0.09429687 -0.94223654 0.6593613 -0.29633316
-0.19007532 1.012577 0.74768627 1.7369878 -1.4526551 0.38509974 -1.0759789 -0.071838796
0.17137751 -0.4466571 0.37825358 -1.2763268 -0.14310373 0.888005 -1.3914485 1.1457741
-0.6853438 -1.5727856 0.40399292 0.13883992 -0.46730006 1.5673238 0.80270773 0.095928594
-0.7056288 1.4135945 -0.7778801 -0.3155923 -0.8137699 1.1457626 1.8656083 -0.5366596
0.5474431 -2.4507215 -0.43058544 -0.18601394 0.10987776 -1.0049546 -0.11734846 -0.4143813
0.79843426 1.782469 0.44526276 0.27260637 -1.425661 1.4346343 0.02220119 -0.14787962

embed_item.weight f4 [1682, 20]
00000000: 251b 2ebe e606 dc3e fd71 c2be 21a8 18bf
00000010: 4b70 9f3e 1477 283f 16b0 b23e be02 37bf
00000020: 923c 9bbf 5dc2 10bf 3ef2 bebe 8bb3 9e3e
00000030: daf6 1b3f ce47 9d3f 0e0c 76bf 4b70 5f3f
00000040: 88d3 43be a2ab 4e3e dc37 7a3f d6f3 683f
00000050: 6d7a 3cbf d979 f63e aa3d 57be c22c 59bf
00000060: ab60 0fbf caa2 803f ff07 db3e f173 2bbf
00000070: 5cf8 4ebb a52a c8bd b282 2ebf 0e46 c3be
00000080: 1b26 013f 806a 383f 0dd2 a4bf 9f31 b63f
00000090: 5fb6 953e 01e7 6e3f 0231 5f3f d883 86bf
000000a0: 040c 50be 4682 44be 0d1f 1c3f 71bf c03f
000000b0: c21d 873f 41cf 1abe 6a43 babf 5376 573e
000000c0: fb78 8a3e 42cb c3be 4737 0fbf 43b0 79bf
000000d0: e80c 27be 57ce ed3e 0eaf 253f 8341 8dbf
000000e0: a8f7 96be a2da 9f3e 2cce 86bf d603 593e
000000f0: 6634 053e ba11 76be 3cdf f03e b2b9 84bf
00000100: 7f3e 973f 9128 4ebf 4920 003d ea3f 4ebe
00000110: 5891 273f 93ae 873b e15a a53e 7e1f c63d
00000120: 8b33 06bf ed75 7e3e 12d1 683e bb93 afbe
00000130: 1fdf a5be 91a9 d53e b4fa 793e 6109 83bf
00000140: 9bee 15bf 07ef 693f 47cb f03d 2d79 1bbf
00000150: bced 04bf debc b73f 97d0 f63e 33ad ecbd
00000160: 333e 07bf 35ad b03e c214 72be 18b2 13bf
00000170: 4002 683f d74a 053f 79ee fbbe edc6 4c3f
00000180: 16bc df3e 6822 633f 17f9 4b3d 649d abbf
00000190: 5054 4e3f 7847 e5be 3878 5e3e de05 3d3e
000001a0: 7e12 6ebf 624b aebe e35e 393e 3f20 923d
000001b0: e29a 9f3e 35a4 e3be a862 ad3f 1b16 853f
000001c0: ff0e 73be 8ab0 b9bd 0a95 82be 963e c33f
000001d0: c707 813f 22fa 0abf 69e6 9d3e 1ddf 43bc
000001e0: 9305 493e c41d 92bf e06d 3d3e d598 11bf
000001f0: 20af 5dbf 022a 53bf 2d95 443e 1a70 99be
00000200: 9e81 fc3e 49bd 9bbd 4a91 4b3f ba2f a83e
00000210: f860 9abf eaa8 2c3f c8d3 98be 8a5e 0f3f
00000220: 7115 183f 3e16 ef3e 098f 64be 74c9 42bf
00000230: cc08 233f a9d1 afbe 1907 23bf 7012 533e
00000240: 4d4a 26be 9570 55bf 4e13 0fbf 7363 d23c
00000250: 2eec 293f 2b8d 6a3f 676e c73d 2c32 0fbf
00000260: 9254 18bf 68e4 163f 4848 983f eef7 e93d
00000270: 6a70 6b3e fb60 2b3e f9ff 20be 8a20 e63e
00000280: f968 a13f 0d76 9dbe 07db 013e 0cbe f53e
00000290: 4d2f 083f b051 84bf 6df5 57be 10c0 3b3e
000002a0: c7f0 563f c4ce abbe 2779 4f3f 6dcd 453d
000002b0: 3caa a7bf d923 d23e c6d0 cfbe 4668 0f3d
000002c0: 9cf0 dfbe 30f2 3e3f e081 013f f1da 4fbf
000002d0: 84ca a53e 25c4 9dbc d490 d5be 7a7f 6ebf
000002e0: 2536 e23e ee9f 2cbf 16b6 8e39 f5a7 09bf
000002f0: 2af2 c23e 2442 88be c560 603f 78d7 33bd
00000300: 3d9b c2be 83ec 683f 0b7f e9be 4f66 903e
00000310: a088 17bf 73ca 74bf 2080 2f3f 3217 a6be
00000320: 0c3f b33f 11ce adbe 2010 3dbf 150d 30be
00000330: 5278 70bf d9f4 93bd 53d6 843f 52e8 b7be
00000340: b3b9 4cbf d658 9f3f f449 edbe a865 bb3e
00000350: 67ba 07bc 2054 353e aff7 7fbf d020 983e
00000360: 24ac 3e3f adfa a43f 59fd 843c 7e6b 91bd
00000370: 7ff7 7a3f 1678 783e c5fa 41bf 1964 7dbe
00000380: 4d55 25bf 2fda b23e 15cc 5d3f d588 bcbe
00000390: 3d2e 75be a83b 643f d95c 11bf d10e 24ba
000003a0: 2ba5 363e 9b92 63be 2830 14bf 7138 dbbe
000003b0: ebab 5fbe 3c97 273f 7485 363d e897 48bf
000003c0: a144 9e3e c8bc bdbf 9573 23bf dea4 e4bd
000003d0: d1cd 4dbf 0dd3 d2be 3e26 243f 6916 15bf
000003e0: 73de 72be 2ed5 5c3f 0ed8 91bd ea24 7a3f
000003f0: f78e 22bf 4746 4c3f fe50 61bf bb6d f13e
-0.17002542 0.42974013 -0.3797759 -0.59631544 0.3114036 0.658067 0.34899968 -0.7148856
-1.212786 -0.56546575 -0.3729419 0.30996355 0.6092354 1.2287538 -0.96112144 0.8728072
-0.19123662 0.2018266 0.97741485 0.90997064 -0.73624307 0.48139837 -0.21019617 -0.8483392
-0.5600688 1.0049679 0.42779538 -0.6697379 -0.003158114 -0.09773759 -0.68168175 -0.38139385
0.5044877 0.72037506 -1.2876602 1.4233893 0.292407 0.93321234 0.87184155 -1.0508986
-0.20317084 -0.1919032 0.6098488 1.5058423 1.0555956 -0.15118124 -1.4551823 0.21041231
0.27045426 -0.3824101 -0.5594372 -0.9753458 -0.16313517 0.46446487 0.6472024 -1.1035618
-0.29485822 0.3122149 -1.0531669 0.2119287 0.1300827 -0.240302 0.47045314 -1.036917
1.1815947 -0.8053065 0.03128079 -0.20141569 0.6545615 0.004140684 0.32295898 0.096739754
-0.524224 0.24849673 0.22736004 -0.34292397 -0.3239679 0.4173093 0.24412042 -1.0237237
-0.5856721 0.9138035 0.11757522 -0.60731775 -0.51925254 1.4354513 0.48206016 -0.11556473
-0.52829283 0.34507146 -0.23640731 -0.57693624 0.90628433 0.5206732 -0.49205378 0.79991037
0.43698186 0.88724375 0.049798097 -1.3407407 0.805974 -0.4478109 0.21725547 0.1845927
-0.92996967 -0.34041888 0.18102603 0.07135057 0.31172854 -0.44461218 1.3545732 1.0397371
-0.2373619 -0.09066875 -0.25504333 1.5253475 1.0080498 -0.5428792 0.30839851 -0.01195505
0.19631033 -1.1415334 0.18498945 -0.5687383 -0.86595345 -0.82485974 0.19197531 -0.2996834
0.4931764 -0.07604463 0.7951857 0.32848912 -1.2060843 0.6744524 -0.29849076 0.5600363
0.59407717 0.46696657 -0.22320189 -0.76088643 0.636853 -0.34339646 -0.63682705 0.20612502
-0.16239281 -0.8337491 -0.5588883 0.025682187 0.66376007 0.91621655 0.097378545 -0.5593593
-0.59504044 0.5894227 1.1897058 0.11424242 0.22992101 0.16736214 -0.15722646 0.449467
1.261016 -0.30754128 0.12681209 0.47996557 0.53197175 -1.0337429 -0.21089716 0.18334985
0.8396115 -0.33556187 0.8104424 0.048291612 -1.3098826 0.41042975 -0.4058897 0.035011552
-0.43738258 0.745883 0.505888 -0.81193453 0.3238107 -0.019258568 -0.41712058 -0.93163264
0.44181934 -0.67431533 0.00027220015 -0.5377191 0.38075382 -0.2661296 0.8764766 -0.04390666
-0.38009062 0.9098589 -0.4560474 0.28203055 -0.5919285 -0.95621413 0.6855488 -0.32439572
1.4003615 -0.3394628 -0.7385273 -0.1719249 -0.93933594 -0.07224435 1.0377907 -0.35919434
-0.79970855 1.2448986 -0.46345484 0.36600995 -0.008284188 0.17707872 -0.9998731 0.29712534
0.74481416 1.2889 0.016234087 -0.07100581 0.980339 0.24264559 -0.7577327 -0.24745215
-0.64583284 0.34932086 0.8663953 -0.36823145 -0.2394342 0.8915353 -0.567823 -0.00062583113
0.17836444 -0.22223894 -0.5788598 -0.428165 -0.21842925 0.6546514 0.044560865 -0.7835679
0.30911735 -1.4823236 -0.6384824 -0.111642584 -0.80392176 -0.41176644 0.6412085 -0.5823732
-0.2371767 0.86262786 -0.07121287 0.97712576 -0.634994 0.79794735 -0.8801421 0.4715403
