models/EBPR_ml-100k_batchsize_100_opt_adam_lr_0.001_latent_50_l2reg_0.0_Epoch49_NDCG@10_0.3838_HR@10_0.6628_MEP@10_0.9282_WMEP@10_0.3593_Avg_Pop@10_0.4658_EFD@10_1.2251_Avg_Pair_Sim@10_0.2607.model (torch, 526119 bytes, 2 tensors)

embed_user.weight f4 [943, 50]
0.5079435 -1.0183432 -0.42109743 -0.20126882 -0.9104875 0.09024745 0.08853275 0.58770704
-0.2537418 0.30704197 -0.093368374 -0.3292482 0.49888536 -0.4795648 0.6686909 -0.1983499
-1.1922816 0.03916605 0.047055136 -0.13690543 -0.7648486 1.2015666 0.08778789 0.65515256
-0.010635575 -0.61223525 -0.72658753 -0.11780521 -1.1865221 -0.13355714 -0.32144368 0.68731916
-0.45160347 -0.16712892 0.51577115 -0.91195446 0.22230452 -0.060386144 -0.6249036 -0.76474863
-1.2890955 0.5147264 0.52238476 0.14860456 -0.06688323 -0.26268685 -0.17700179 -0.73839164
-0.35157147 -0.2839346 -0.039340705 0.9703571 -0.38211972 -0.662654 0.7910904 -0.0038104434
-0.43337563 -0.10807773 0.13284785 0.09889605 0.76546377 0.086055376 -0.75838155 0.45825502
1.1345117 0.6431874 1.1754569 0.18746579 0.9184635 -0.6152032 -0.81659293 -0.6227921
0.029127207 -0.45318383 0.6069478 -0.41620004 0.35607576 0.06354673 0.13999553 -0.37406695
0.19071783 -0.16848977 0.11052999 -0.28699958 0.08599291 0.53683233 -1.8912275 -0.17708792
-0.073254116 -0.61324024 -0.56323195 -0.16165489 0.21751048 0.31630698 0.10378896 -1.2502111
0.04250797 -0.26500225 0.4966617 0.9972302 -0.27518722 0.8680411 0.03870229 0.543077
-0.56555307 -0.83062446 -0.021128446 1.0805715 -2.280389 0.3764628 0.18280114 -0.031928044
0.4827186 -0.08196189 1.2825505 -0.0059436997 -0.17017554 -0.22912228 -0.1684573 0.58345175
-0.7184993 0.28314388 -0.25840643 -0.18149514 1.170339 -0.5377068 0.047289636 -0.08720406
0.33460343 0.36494738 -0.22877362 0.51583236 0.7013529 1.3858261 0.55418164 -1.1557442
-0.17836577 -0.5773804 -0.6689576 -0.54496723 0.014895827 -0.7609165 0.3876265 -0.24817699
0.093641624 0.35621545 -0.29421642 -1.6074907 0.25439084 -0.63774717 0.29443765 -0.08380325
0.005636143 -1.3112907 -0.2835026 0.006787219 1.0089675 -0.32047558 0.4582316 0.17119102
0.7897809 -0.13483465 0.41655102 -0.2798227 0.37208 0.21876454 -0.41785136 -0.084923595
0.15504082 -0.4737552 -0.73634267 0.4347458 -0.17594181 1.3251216 0.28773865 0.06713488
-0.736009 0.26691967 -0.48112664 1.0719713 -0.6261857 -0.30216852 0.96835953 0.30112305
0.22718166 -0.50737786 0.6173812 0.58369386 1.8349932 -2.0936973 -0.79282826 0.7384666
0.0033848742 0.28536 0.09836237 -0.6052587 -0.59499156 -1.159048 -0.74890614 0.4136677
0.32495278 0.36189207 -0.5395383 0.3845184 -0.1356902 0.46958297 -0.22010337 1.4444293
-0.31682888 0.9115983 0.5352763 0.81644624 -0.6162415 1.2332461 0.7156761 0.16209191
0.4148098 -0.42691815 -0.07090477 0.3119316 -0.07490422 0.4080343 0.6057185 -0.841578
0.5593314 0.21962817 0.27039334 -0.83612674 -0.8942469 0.07578085 -0.6079202 -0.1748628
0.7329416 -0.23474663 0.5249553 0.33487922 -1.0663105 -0.54611796 0.14575203 0.20974287
-0.1570888 -0.7796849 -0.037467223 0.4542305 -0.85653687 -0.7592814 -0.38236228 0.086046554
1.1540549 0.27190584 -0.50245655 0.33548534 -0.24496989 -0.114317626 -0.6950038 0.66543794
00000000: 9608 023f 1259 82bf 159a d7be 6a19 4ebe
00000010: b515 69bf a8d3 b83d a950 b53d f873 163f
00000020: 72ea 81be 9b34 9d3e eb37 bfbd 3893 a8be
00000030: e76d ff3e 8489 f5be 542f 2b3f 3c1c 4bbe
00000040: af9c 98bf 946c 203d e3bc 403d f030 0cbe
00000050: 1ecd 43bf efcc 993f 23ca b33d 14b8 273f
00000060: d640 2ebc 73bb 1cbf a401 3abf dc43 f1bd
00000070: f5df 97bf 34c3 08be 4494 a4be 26f4 2f3f
00000080: 9238 e7be d823 2bbe 9409 043f d975 69bf
00000090: cca3 633e 7657 77bd aff9 1fbf 91c6 43bf
000000a0: 1501 a5bf 1cc5 033f 02bb 053f cb2b 183e
000000b0: 13fa 88bd e47e 86be f53f 35be 3c07 3dbf
000000c0: 2d01 b4be e05f 91be b823 21bd 5369 783f
000000d0: 32a5 c3be b1a3 29bf e784 4a3f a2b8 79bb
000000e0: 69e3 ddbe db57 ddbd 4409 083e 038a ca3d
000000f0: 6ff5 433f cd3d b03d 4b25 42bf 67a0 ea3e
00000100: ae37 913f eea7 243f 5f75 963f 08f7 3f3e
00000110: 6d20 6b3f f57d 1dbf 3c0c 51bf 4e6f 1fbf
00000120: 2e9c ee3c b607 e8be ee60 1b3f 2c18 d5be
00000130: 904f b63e ca24 823d fd5a 0f3e b485 bfbe
00000140: 894b 433e 9588 2cbe 8c5d e23d 9cf1 92be
00000150: 0d1d b03d d86d 093f be13 f2bf 8956 35be
00000160: 4106 96bd 50fd 1cbf f82f 10bf dc88 25be
00000170: 11bb 5e3e fdf2 a13e 4e8f d43d eb06 a0bf
00000180: d61c 2e3d 60ae 87be 714a fe3e 7a4a 7f3f
00000190: 57e5 8cbe f137 5e3f 4b86 1e3d 1807 0b3f
000001a0: 16c8 10bf cea3 54bf 9015 adbc 2b50 8a3f
000001b0: e5f1 11c0 bbbf c03e 3930 3b3e fbc6 02bd
000001c0: e426 f73e a3db a7bd 9d2a a43f 5ec3 c2bb
000001d0: 7f42 2ebe 089f 6abe 1280 2cbe 185d 153f
000001e0: 92ef 37bf 3cf8 903e d94d 84be ddd9 39be
000001f0: abcd 953f 27a7 09bf c7b2 413d 0b98 b2bd
00000200: 2451 ab3e 62da ba3e a243 6abe 970d 043f
00000210: dd8b 333f c062 b13f d9de 0d3f 6def 93bf
00000220: 84a5 36be 34cf 13bf ce40 2bbf f982 0bbf
00000230: a00d 743c 6ccb 42bf fb76 c63e 1c22 7ebe
00000240: 2ec7 bf3d df61 b63e 89a3 96be 41c2 cdbf
00000250: 843f 823e 6643 23bf 88c0 963e 0aa1 abbd
00000260: 65af b83b 60d8 a7bf 4127 91be 5267 de3b
00000270: d925 813f 6015 a4be 559d ea3e b34c 2f3e
00000280: 152f 4a3f 1812 0abe 2d46 d53e ec44 8fbe
00000290: 4581 be3e d003 603e 9df0 d5be 6cec adbd
000002a0: 05c3 1e3e 0b90 f2be f480 3cbf 0097 de3e
000002b0: 172a 34be 969d a93f 7b52 933e 037e 893d
000002c0: 166b 3cbf b2a9 883e 3b56 f6be 5b36 893f
000002d0: b54d 20bf d5b5 9abe 69e6 773f cd2c 9a3e
000002e0: 4fa2 683e 84e3 01bf b20c 1e3f f66c 153f
000002f0: 0fe1 ea3f 23ff 05c0 cbf6 4abf 260c 3d3f
00000300: c4d4 5d3b b51a 923e 3672 c93d 3cf2 1abf
00000310: 5e51 18bf af5b 94bf 50b8 3fbf 41cc d33e
00000320: 3660 a63e eb49 b93e 2f1f 0abf 99df c43e
00000330: 5ff2 0abe 2e6d f03e c762 61be 0fe3 b83f
00000340: 6537 a2be 825e 693f de07 093f 9f02 513f
00000350: 01c2 1dbf 02db 9d3f 8d36 373f 6cfb 253e
00000360: f361 d43e 0495 dabe 8536 91bd 80b5 9f3e
00000370: 6267 99bd dfe9 d03e 5e10 1b3f a871 57bf
00000380: 5830 0f3f 35e6 603e ff70 8a3e 670c 56bf
00000390: 5ded 64bf fe32 9b3d a9a0 1bbf 3c0f 33be
000003a0: 10a2 3b3f 6c61 70be 7863 063f 4a75 ab3e
000003b0: dd7c 88bf 63ce 0bbf 0540 153e d6c6 563e
000003c0: e3db 20be 6e99 47bf 3b77 19bd e690 e83e
000003d0: 0046 5bbf 4460 42bf fdc4 c3be 2d39 b03d
000003e0: 12b8 933f 3e37 8b3e fea0 00bf bcc4 ab3e
000003f0: 63d9 7abe 5c1f eabd c5eb 31bf 245a 2a3f

embed_item.weight f4 [1682, 50]
0.83082974 0.2089354 -0.59614915 0.73981065 -0.1413712 0.5392435 -0.6563165 0.42480612
-0.22492985 0.885906 0.23658809 -0.080211416 -0.06405879 0.39022258 0.099810176 0.03882622
-0.3336368 0.70588595 0.23008406 0.4858008 -0.5192139 0.50513536 0.8422569 -0.23173879
-0.5201756 -0.15225622 0.076689355 -0.5748227 -0.4762594 -0.61741567 -0.0765944 0.7378605
-0.54273665 -0.5986043 0.2799774 -0.10658105 0.44871992 -0.12113726 -0.44192654 -0.20347768
-0.38758054 0.14863546 0.27952364 0.65680563 -1.3969488 -0.500975 0.06818429 0.07078945
0.35796657 -0.1604104 0.5357149 0.20353265 -0.4004834 -0.35709304 -0.22592317 0.7142544
0.6690343 0.5801838 -0.10788597 -0.025714083 0.5530263 -0.12037277 -1.2414176 0.5135073
0.39090383 -0.09461931 0.3581849 0.61427504 0.11112354 -0.46419668 -0.13216835 1.1104991
1.0455034 -0.6572873 0.39792302 -0.50179595 -0.40365413 -0.30431995 -0.88709843 -0.4460322
0.07848911 -0.4020825 -0.06380701 -0.42968586 0.7902709 -0.13999948 -0.19499168 -0.3780835
-0.14715457 0.2137212 -0.1604432 -0.51111966 -0.057897184 0.28794754 -0.84442484 -0.7012468
-0.61576116 0.50528055 0.64747375 0.2827809 -0.1769862 -0.2509526 0.07206807 0.5006999
1.4104224 -1.0603164 -0.23629317 -0.16817173 0.03648308 -0.19991364 -0.4103476 0.48338175
0.47248206 -0.9127484 -0.0761654 0.4407312 -0.48605102 -0.51171136 0.042975273 0.9630463
1.085392 -1.0449373 -0.50361305 -0.49527878 0.04740767 0.8448425 0.22248995 0.7814746
0.37856865 0.562458 0.35312182 0.4209503 0.06403526 0.355636 0.16031702 0.13881646
-0.108306944 -1.4239112 -0.123889096 0.98599106 0.12785725 0.6044996 0.23817337 -0.035866942
0.5496877 0.186164 -0.405683 -0.14275275 0.08477696 -0.7773629 -0.35315496 0.18172091
-0.7346227 -0.50650984 0.22965394 -0.2955648 0.4997991 -0.048088826 0.4707604 0.34257394
0.19505073 -0.4061765 -0.028605178 -0.21432322 0.08010849 -0.1935607 0.48303494 0.503157
0.52351624 -0.75828886 0.0874506 -0.44824567 -0.122665815 0.35966727 0.04356631 0.77295476
-0.23915882 -0.087031305 -0.39318305 0.5703814 0.035080757 0.09950167 0.17916675 0.20290805
0.22668448 -0.32100675 -0.56683606 0.14474346 0.1371467 -0.68383616 -0.61175823 -0.06364309
0.10425564 -0.95061076 0.41392067 -0.2880066 -0.21862079 0.27690357 0.27969167 0.12455821
0.37972733 0.2281735 -0.06399265 0.054866213 -0.586402 -0.039977957 0.8264518 0.7234683
0.09187215 0.00798345 0.5514121 -0.14027536 -1.1372966 0.49681023 0.44070596 -0.077025674
0.5089892 0.89977854 -0.16694756 0.29116404 0.4045129 1.0899075 1.0276793 -0.27016568
0.5920468 -0.11713396 -0.051325247 0.19744006 -0.77251166 -0.20202564 0.030047037 0.05400126
0.23572138 -0.14381607 0.78095967 0.0968603 -0.1393427 -0.5777181 -0.05484868 0.26556757
0.38562036 -0.16705678 -0.8091765 0.44040772 -0.91303676 -0.41212472 -0.10392753 0.698829
0.44836164 0.56125987 -0.7193222 0.7318611 0.14471942 -0.011656314 -0.57255375 0.25144807
00000000: 42b1 543f 29f3 553e 3b9d 18bf 3b64 3d3f
00000010: 9dc3 10be dd0b 0a3f 5c04 28bf 3080 d93e
00000020: 0354 66be bcca 623f 2644 723e e245 a4bd
00000030: 4131 83bd 41cb c73e 4769 cc3d 3e08 1f3d
00000040: 71d2 aabe f1b4 343f 289b 6b3e e2ba f83e
00000050: 34eb 04bf 8d50 013f 269e 573f ef4c 6dbe
00000060: 3a2a 05bf 0ee9 1bbe 4f0f 9d3d 9527 13bf
00000070: 46d8 f3be f40e 1ebf 86dd 9cbd 6de4 3c3f
00000080: caf0 0abf 223e 19bf 3359 8f3e 2a47 dabd
00000090: 9ebe e53e d016 f8bd 3244 e2be 745c 50be
000000a0: f570 c6be e533 183e b91d 8f3e 6a24 283f
000000b0: 38cf b2bf e63f 00bf 34a4 8b3d 0ffa 903d
000000c0: 6547 b73e a042 24be 9d24 093f dd6a 503e
000000d0: 290c cdbe e6d4 b6be 6758 67be 60d9 363f
000000e0: d545 2b3f ed86 143f 52f3 dcbd 57a6 d2bc
000000f0: 2293 0d3f 0086 f6bd c6e6 9ebf 3775 033f
00000100: 8c24 c83e c5c7 c1bd 0364 b73e 2141 1d3f
00000110: bd94 e33d 30ab edbe 2457 07be d624 8e3f
00000120: 0ed3 853f fb43 28bf 91bc cb3e b375 00bf
00000130: c1ab cebe d3cf 9bbe e218 63bf 555e e4be
00000140: e6be a03d c2dd cdbe 40ad 82bd c9ff dbbe
00000150: 324f 4a3f 065c 0fbe e6ab 47be 2994 c1be
00000160: b0af 16be bbd9 5a3e 394b 24be bdd8 02bf
00000170: 9925 6dbd dc6d 933e 3a2c 58bf e984 33bf
00000180: 86a2 1dbf 115a 013f d7c0 253f a8c8 903e
00000190: df3b 35be dc7c 80be 6d98 933d de2d 003f
000001a0: b988 b43f 73b8 87bf d6f6 71be 3635 2cbe
000001b0: 486f 153d 29b6 4cbe 1519 d2be d07d f73e
000001c0: 2be9 f13e e1a9 69bf 9bfc 9bbd 85a7 e13e
000001d0: aedb f8be 84ff 02bf d706 303d 348a 763f
000001e0: 20ee 8a3f 81c0 85bf c9ec 00bf 2e95 fdbe
000001f0: 8c2e 423d 9947 583f 68d4 633e b80e 483f
00000200: c0d3 c13e 3ffd 0f3f 62cc b43e cc86 d73e
00000210: eb24 833d ec15 b63e 252a 243e e725 0e3e
00000220: 08d0 ddbd b942 b6bf 91b9 fdbd e969 7c3f
00000230: 03ed 023e 7cc0 1a3f b8e3 733e 37e9 12bd
00000240: 55b8 0c3f c7a1 3e3e afb5 cfbe c72d 12be
00000250: 8b9f ad3d 4101 47bf bad0 b4be 0c15 3a3e
00000260: 3c10 3cbf a1aa 01bf 672a 6b3e 4554 97be
00000270: abe5 ff3e caf8 44bd 8207 f13e da65 af3e
00000280: 61bb 473e 5ef6 cfbe 6855 eabc 8c77 5bbe
00000290: ec0f a43d c734 46be 5b50 f73e e6ce 003f
000002a0: 2905 063f 381f 42bf 4d19 b33d 7580 e5be
000002b0: 3738 fbbd 4f26 b83e 9672 323d 5de0 453f
000002c0: 0de6 74be 783d b2bd 4a4f c9be 8404 123f
000002d0: d7b0 0f3d 88c7 cb3d 7d77 373e 21c7 4f3e
000002e0: fa1f 683e ff5a a4be 2b1c 11bf a137 143e
000002f0: 2f70 0c3e e30f 2fbf 309c 1cbf 4f57 82bd
00000300: fb83 d53d 3a5b 73bf 69ed d33e 9a75 93be
00000310: 21de 5fbe 4ec6 8d3e bf33 8f3e 6018 ff3d
00000320: 9f6b c23e 50a6 693e 940e 83bd 65bb 603d
00000330: 711e 16bf edbf 23bd 5892 533f 3835 393f
00000340: 7727 bc3d 04cd 023c 5829 0d3f 58a4 0fbe
00000350: ef92 91bf e95d fe3e 36a4 e13e a3bf 9dbd
00000360: 1e4d 023f e357 663f 4df4 2abe 7413 953e
00000370: 511c cf3e 1782 8b3f ff8a 833f 2853 8abe
00000380: 6190 173f eee3 efbd 6c3a 52bd ba2d 4a3e
00000390: 53c3 45bf cfdf 4ebe 3425 f63c 6d30 5d3d
000003a0: f260 713e 8544 13be f9ec 473f b15e c63d
000003b0: daaf 0ebe 55e5 13bf 02a9 60bd 79f8 873e
000003c0: 0870 c53e ef10 2bbe 3126 4fbf 1f7d e13e
000003d0: c7bc 69bf 0302 d3be f5d7 d4bd 75e6 323f
000003e0: a88f e53e baae 0f3f 8025 38bf 405b 3b3f
000003f0: 5431 143e 20fa 3ebc e292 12bf cdbd 803e
