models/EBPR_ml-100k_batchsize_500_opt_adam_lr_0.001_latent_10_l2reg_0_Epoch48_NDCG@10_0.3429_HR@10_0.6045_MEP@10_0.9030_WMEP@10_0.3479_Avg_Pop@10_0.5051_EFD@10_1.0634_Avg_Pair_Sim@10_0.2960.model (torch, 106151 bytes, 2 tensors)

embed_user.weight f4 [943, 10]
0	0x3edbce83	0.42930993
1	0xbd88df32	-0.06683196
2	0xbea4afa4	-0.32165253
3	0xbf1104c5	-0.566479
4	0x3f2e077c	0.6798017
5	0x3ea9f76d	0.33196583
6	0x3effad8d	0.49937096
7	0x3f4a38cb	0.7899291
8	0x3f21cbe2	0.63201725
9	0x3ef4ef91	0.47839025
10	0x3f173585	0.5906604
11	0xbf70646c	-0.9390323
12	0x3d991f0e	0.07476626
13	0x3f6a87e1	0.91613585
14	0x3e82b6f9	0.25530222
15	0x3e55b0ce	0.20868227
16	0x3f9c6608	1.2218637
17	0x3f8628a3	1.0481151
18	0xbe00c427	-0.12574826
19	0x3ebfd586	0.37467593
20	0x3e9ee26b	0.31032118
21	0xbf8517f9	-1.0397941
22	0x3fd7076f	1.6799144
23	0xbe91893b	-0.2842501
24	0x3ea9f6a8	0.33195996
25	0x3e56f922	0.20993474
26	0x3f434147	0.7627148
27	0x3e9dee63	0.30845937
28	0x3e3b5013	0.18292265
29	0x3e9d2052	0.3068872
30	0x3edc0699	0.42973784
31	0xbf02d7fc	-0.51110816
32	0x3f7d79ca	0.9901396
33	0xbf50b32d	-0.815234
34	0x3fa532f6	1.2906177
35	0x3ee5c342	0.44875532
36	0x3f383d19	0.7196823
37	0x3fb71c0d	1.4305435
38	0xbdfe2fe5	-0.12411479
39	0x3c460435	0.012085964
40	0x3f3d3e87	0.73923534
41	0xbeeb2515	-0.4592673
42	0xbf940653	-1.156443
43	0x3f703ed5	0.93845874
44	0x3dbe5a86	0.0929461
45	0xbdd1348b	-0.102151
46	0x3f7b021d	0.980501
47	0x3f398cf7	0.7248072
48	0x3f1ce4f5	0.6128686
49	0x3f5ea8aa	0.8697611
50	0x3f318197	0.69338363
51	0xbf621c5e	-0.88324535
52	0x3eec036a	0.46096355
53	0xbfc2b96d	-1.5212837
54	0x3fcd7c1d	1.6053501
55	0x3f8e17db	1.110103
56	0x3e5e7d7e	0.21727559
57	0x3eec402a	0.46142703
58	0x3fad8e20	1.3558998
59	0x3f7426a2	0.9537145
60	0x3f073b10	0.528245
61	0xbf03e9cf	-0.5152864
62	0xbdd7ede2	-0.105434194
63	0xbf499985	-0.7874988
64	0x3f30cd6d	0.69063455
65	0x3f76411e	0.9619311
66	0x3f262733	0.64903563
67	0x3f7edecc	0.9955871
68	0x3f5786c6	0.8419002
69	0x3f99991d	1.1999851
70	0x3f88f7e6	1.0700653
71	0xbf55ccb3	-0.8351547
72	0x3eb4dc75	0.35324445
73	0xbf2b20bc	-0.66846824
74	0x3f737267	0.9509644
75	0x3f3e4d98	0.7433715
76	0x3f46525f	0.7746944
77	0x3f38c8b8	0.7218127
78	0x3fa9ba73	1.3260025
79	0x3f98ad2b	1.1927847
80	0x3f3cb50c	0.73713756
81	0x3e2f751f	0.17134522
82	0xbe6790c5	-0.22613819
83	0xbfcac909	-1.5842601
84	0x3f03675c	0.5132959
85	0x3f195105	0.5988925
86	0x3edb50c3	0.42835054
87	0x3f41441c	0.7549455
88	0x3fd6a49e	1.6768987
89	0x3f9fc800	1.248291
90	0x3ef74f7c	0.4830283
91	0xbd17c1f0	-0.037050188
92	0xbf633534	-0.88753057
93	0xbfd9c254	-1.7012429
94	0x3fad8547	1.3556298
95	0x3f6b1079	0.9182201
96	0xbd9e380a	-0.07725532
97	0x3e6a2b37	0.22868048
98	0x3ffc108d	1.9692551
99	0x3fc5a58e	1.5441148
100	0x3f180d8d	0.59395677
101	0xbefd288f	-0.49445006
102	0x3eb2031a	0.3476799
103	0xbf90764a	-1.1286099
104	0x3f4d441f	0.8018207
105	0x3f862336	1.0479496
106	0x3f5aa552	0.8540851
107	0x3f9db268	1.232007
108	0x3f1ebe28	0.62008905
109	0x3f30a5f1	0.69003206
110	0x3e99c0d5	0.30029932
111	0xbeb17964	-0.34662926
112	0x3f3825d5	0.7193273
113	0xbeef180c	-0.46698034
114	0x3f691d0d	0.9105995
115	0x3e12aacc	0.14322966
116	0x3f7eca07	0.9952702
117	0x3f9824cf	1.1886233
118	0x3ebf0278	0.3730657
119	0xbd2625c1	-0.04056335
120	0x3f2d28aa	0.67640173
121	0xbfde9977	-1.7390584
122	0x3fcf98e3	1.6218532
123	0xbdd0f2bc	-0.10202548
124	0x3f72db08	0.94865465
125	0x3f1161b8	0.5678973
126	0x3f76d04b	0.9641158
127	0x3f37d03c	0.71802115
128	0x3db42ea4	0.087979585
129	0x3e93bfff	0.2885742
130	0x3f4fed4a	0.8122145
131	0xbf2e111d	-0.6799486
132	0x3f8f76f6	1.1208179
133	0xbfb7b950	-1.4353428
134	0x3f8f5652	1.1198218
135	0x3f56d366	0.8391632
136	0x3f102e2a	0.5632044
137	0x3eeb90f8	0.4600904
138	0x3f8cfa8e	1.1013963
139	0x3f540ec1	0.8283501
140	0x3f804dbb	1.0023721
141	0x3ac20217	0.0014801648
142	0x3cc865c1	0.024462583
143	0x3b9a67bb	0.0047120727
144	0x3f43057c	0.76180243
145	0xbc423398	-0.011853121
146	0x3ed6b214	0.41932738
147	0x3f48b09c	0.78394485
148	0x3ecb1c06	0.39669818
149	0x3e9354ff	0.28775784
150	0x3ee2b56d	0.44279042
151	0xbfbb81f8	-1.4649038
152	0x3fb5a570	1.4191113
153	0xbdf394e3	-0.11893632
154	0x3f1e683a	0.6187779
155	0x3f81055b	1.0079759
156	0x3fbf6e1d	1.4955479
157	0x3fc295b5	1.5201937
158	0xbdf517b1	-0.119674094
159	0x3da9a197	0.08282774
160	0x3ec3f435	0.38272253
161	0x3e969795	0.29412523
162	0x3eb9a0ce	0.36255497
163	0xbfeb05d1	-1.836115
164	0x3ebd7e48	0.37010407
165	0x3ec66335	0.38747564
166	0xbe0fb3a5	-0.14033373
167	0x3e88c136	0.26709908
168	0x3f1b3c50	0.60638905
169	0x3eb7a4a0	0.35867786
170	0x3f39c1c6	0.725613
171	0xbf423d9b	-0.7587525
172	0x3fc78729	1.5588123
173	0xc013a680	-2.3070374
174	0x3fa24c94	1.267962
175	0x3f7ba349	0.9829603
176	0x3e7e8fab	0.24859492
177	0x3eeb8d59	0.46006277
178	0x3f4dac42	0.8034097
179	0x3f279359	0.6545921
180	0x3e4faed5	0.20281537
181	0xbfac363c	-1.3454051
182	0x3fdc1958	1.7195234
183	0x3ea7bec1	0.3276272
184	0x3e861a6f	0.26192042
185	0x3f6f0a58	0.9337516
186	0x3f892bdd	1.0716511
187	0x3f9493c4	1.1607594
188	0xbf108c32	-0.5646392
189	0xbe1f4925	-0.15555246
190	0x3e7dc656	0.2478269
191	0xbe5e219e	-0.21692511
192	0xbeb62379	-0.35573938
193	0xc00a4e55	-2.161031
194	0x3fb2eef7	1.3979176
195	0x3ef96120	0.48706913
196	0xbf205ac4	-0.626385
197	0xbf18fae9	-0.5975786
198	0x3fd9afb8	1.700675
199	0x3f719647	0.9436993
200	0x3f4284b5	0.75983745
201	0xbf78114a	-0.9690138
202	0xbedda0d1	-0.43286756
203	0x3ef3bf92	0.47607094
204	0x3f5fdc42	0.8744546
205	0x3ebe91e1	0.37220672
206	0x3faaafce	1.3334901
207	0x3faf4229	1.3692065
208	0x3ebfda1f	0.374711
209	0x3f36a0f0	0.7133932
210	0xbc03c41f	-0.008042364
211	0xbdcd8281	-0.10034657
212	0x3e7cfe72	0.24706438
213	0xbf4b8f67	-0.7951569
214	0x3dbe69fc	0.09297559
215	0x3e8604a9	0.2617543
216	0xbf031580	-0.5120468
217	0xbed16871	-0.40899995
218	0x3e3eefb5	0.18646128
219	0xbd8926fa	-0.06696887
220	0x3edfb093	0.43689403
221	0x3ea9fa95	0.3319899
222	0xbf1c381b	-0.6102311
223	0xbfd24a20	-1.6428871
224	0x3f47816c	0.7793186
225	0x3f169278	0.58817244
226	0x3ea8c783	0.32964715
227	0x3f18108f	0.59400266
228	0x3fa5cdee	1.295347
229	0x3f0fdfa0	0.562006
230	0x3f28229e	0.6567782
231	0xbf07f05d	-0.5310114
232	0x3f32502b	0.69653577
233	0xc01c9bf5	-2.4470189
234	0x3f654fb0	0.8957472
235	0x3fc6c1f9	1.5527946
236	0x3d1a03d3	0.037601303
237	0x3e16702d	0.14691229
238	0x3fba06b8	1.45333
239	0x3f9e7c54	1.2381692
240	0x3f3df834	0.7420685
241	0xbf649d46	-0.8930248
242	0x3ff99b9e	1.9500616
243	0xbfe14aa0	-1.7600899
244	0x3f47bf4b	0.78026265
245	0x3f7c1eac	0.984843
246	0x3ecce0ef	0.4001536
247	0x3e55d15c	0.20880646
248	0x3f28e7d7	0.6597876
249	0x3ec6b26a	0.38807994
250	0x3f076a21	0.52896315
251	0xbf8857e3	-1.0651821
252	0x3fc1f46f	1.515272
253	0x3e21ade1	0.15788986
254	0x3e83cd7f	0.2574272
255	0x3ee3b90a	0.4447711

embed_item.weight f4 [1682, 10]
0	0x3e555681	0.2083378
1	0x3e818cc5	0.2530271
2	0xbfda45d0	-1.7052555
3	0x3e9dd466	0.3082611
4	0x3da43cb6	0.08019392
5	0xbd3ea952	-0.046548195
6	0x3ecb1fad	0.39672604
7	0x3ee86a3c	0.4539355
8	0x3f0f48f9	0.5597072
9	0x3f148448	0.58014345
10	0x3f56ffc4	0.8398402
11	0xbdbc9f44	-0.09210065
12	0xbf9e7218	-1.2378569
13	0x3f4aea3a	0.7926365
14	0xbd477596	-0.048696123
15	0x3d35d5e8	0.04439345
16	0x3f7a4fad	0.97777826
17	0x3f106297	0.56400436
18	0x3f920ae8	1.1409578
19	0x3f8029b3	1.0012726
20	0xbe8a88d3	-0.27057514
21	0x3de711ea	0.11282714
22	0x3f43e201	0.7651673
23	0x3eabf33f	0.3358402
24	0xbee4f61c	-0.44719017
25	0xbe814d2d	-0.25254193
26	0xbf0a7e27	-0.54098743
27	0xbf48481e	-0.7823504
28	0xbf4bcbc2	-0.79607785
29	0xbf7774a0	-0.9666233
30	0x3ef9a867	0.48761293
31	0xbda4197d	-0.08012674
32	0x3f5cae31	0.86203295
33	0xbeb28c21	-0.34872535
34	0x3eb0757f	0.34464642
35	0x3e2bb52d	0.16768332
36	0x3e930167	0.28712007
37	0x3ec74ba5	0.389249
38	0x3e2c956a	0.16853872
39	0x3dd25441	0.102699764
40	0x3edb54f1	0.42838243
41	0x3d90035a	0.07031889
42	0xbf850c27	-1.0394334
43	0x3f941b8b	1.1570905
44	0xbe79f7be	-0.24410912
45	0xbed50039	-0.41601732
46	0x3f58f61e	0.84750545
47	0x3f0afae5	0.54289085
48	0x3f2e974f	0.6819963
49	0x3f2f0455	0.68365985
50	0x3eaa31c1	0.33241084
51	0xbe864f81	-0.26232532
52	0x3ea104fe	0.3144912
53	0xbfba40d2	-1.4551032
54	0x3eb7c27b	0.35890564
55	0x3f3dc7ee	0.74133193
56	0xbd62bffc	-0.05535887
57	0xbe156c31	-0.14592053
58	0x3f7a2e35	0.97726756
59	0x3f4c1f87	0.79735607
60	0x3f1cef50	0.6130266
61	0xbf0f940a	-0.56085265
62	0x3fb45e89	1.409135
63	0xbf3e078d	-0.7423027
64	0x3ecbe438	0.39822555
65	0x3f05f30b	0.5232398
66	0x3f08c285	0.53421813
67	0x3ecc70fb	0.39929947
68	0x3f1e0a62	0.6173459
69	0x3f247b57	0.642507
70	0x3d8e51f7	0.06949227
71	0xbeaaaf2a	-0.33336765
72	0x3f95b010	1.1694355
73	0xbf054ac3	-0.520672
74	0x3ef0a9a2	0.4700442
75	0x3e656b4d	0.22404213
76	0xbe44ac09	-0.19206251
77	0xbe8f8f84	-0.2803918
78	0x3e0091bb	0.12555592
79	0xbe16d766	-0.14730605
80	0x3ee5b45f	0.44864175
81	0xbe6c6993	-0.23087148
82	0x3fd77da2	1.6835215
83	0xbf7820d1	-0.96925074
84	0x3f1079f4	0.56436086
85	0x3eb153f2	0.34634358
86	0x3e51c566	0.20485458
87	0x3e8cd8e6	0.2750923
88	0x3e7fc3ec	0.24977082
89	0x3b91b983	0.0044471635
90	0x3ee85ce9	0.45383385
91	0x3e8aa6a9	0.27080277
92	0xbe9d73f5	-0.3075253
93	0xbf936f5f	-1.1518363
94	0x3f056569	0.52107865
95	0x3ea44bc1	0.32089046
96	0x3d5b1eb1	0.053496066
97	0x3eb3b9fe	0.35102838
98	0x3f3798b5	0.7171739
99	0x3edc3ce4	0.43015206
100	0x3f152b59	0.5826927
101	0xbf7be851	-0.9840136
102	0xbebb4551	-0.36576322
103	0x3e41feaa	0.18944803
104	0x3f6c36ee	0.92271316
105	0x3efa5b02	0.48897558
106	0x3f806a9a	1.0032532
107	0x3f8c6db4	1.0970979
108	0x3eb02196	0.34400624
109	0x3ee118e6	0.43964309
110	0x3ea23eef	0.3168864
111	0xbf08aeed	-0.53391916
112	0xbf05c014	-0.5224621
113	0x3eeb2cc7	0.459326
114	0x3f244091	0.6416102
115	0x3e546d5b	0.20744841
116	0x3f25bcad	0.6474102
117	0x3f6cf84f	0.9256639
118	0xbe0a903f	-0.13531588
119	0x3cfc3111	0.030785115
120	0x3f354c1c	0.7081926
121	0xbf918b29	-1.1370593
122	0x3e9d36f0	0.30705976
123	0xbe761974	-0.24033147
124	0x3f5734ff	0.8406524
125	0x3f497cae	0.7870587
126	0x3f879fc5	1.0595633
127	0x3f85c77e	1.0451505
128	0x3f0ee4f9	0.55818135
129	0x3f3669d4	0.7125523
130	0x3d6d7344	0.057971254
131	0xbe543660	-0.20723867
132	0x3f8c2474	1.0948625
133	0xbe9f755f	-0.31144235
134	0x3e93c3d1	0.28860334
135	0x3df1c82c	0.11805758
136	0xbc55117f	-0.01300466
137	0x3cdb280d	0.026752496
138	0xbe151405	-0.14558418
139	0xbea06731	-0.3132873
140	0x3eace398	0.3376739
141	0xbf022c31	-0.5084868
142	0x3fddae41	1.7318803
143	0xbd5501f4	-0.052003816
144	0xbe38d962	-0.18051675
145	0x3e2d1a0f	0.16904472
146	0x3f2102a1	0.62894636
147	0x3d1c111b	0.03810225
148	0x3cae468a	0.02127387
149	0x39b0ae90	0.00033699395
150	0x3e117163	0.1420341
151	0x3c9ba755	0.019000689
152	0x3f285e1f	0.6576862
153	0xbe466f8a	-0.19378486
154	0x3e84be37	0.25926372
155	0xbcf7051b	-0.030153802
156	0xbc6f58bd	-0.014608559
157	0x3dba095f	0.09083819
158	0xbe1ab709	-0.15108885
159	0xbee113e4	-0.43960488
160	0x3e813960	0.25239086
161	0x3eb600bd	0.35547438
162	0x3c8999d6	0.016796988
163	0xbf4d7fad	-0.8027294
164	0x3e8ce5bb	0.2751902
165	0x3e0d88f3	0.13821773
166	0x3d64293c	0.055703387
167	0x3e970ea4	0.29503357
168	0x3ebab883	0.36468896
169	0x3de1c442	0.11023761
170	0x3eea9409	0.45816067
171	0xbf4a3411	-0.789857
172	0xbe998385	-0.29983154
173	0x3cbd1634	0.023081876
174	0x3f924994	1.1428704
175	0x3ebf7d3d	0.37400237
176	0x3f133a47	0.575108
177	0x3f855e96	1.041949
178	0x3bf44a90	0.0074551776
179	0x3e373abe	0.17893502
180	0x3db4bfce	0.08825646
181	0xbd8294cf	-0.06376039
182	0x3f190702	0.5977632
183	0x3dd6e509	0.10492904
184	0xbe046545	-0.12929256
185	0x3db77aa4	0.08958939
186	0x3e06e6bb	0.13173954
187	0x3e3b97e1	0.18319656
188	0xbec0e14c	-0.37671888
189	0xbdefa581	-0.11701489
190	0xbf15e51d	-0.58552724
191	0x3f0e6bcd	0.5563324
192	0x3e813f41	0.2524357
193	0xbda0ff23	-0.078611635
194	0xbecb644d	-0.3972496
195	0xbeb10b82	-0.34579092
196	0xbf846fba	-1.0346596
197	0xbf888d01	-1.0668031
198	0xbf025bb3	-0.5092117
199	0xbf35fd65	-0.71089774
200	0x3ea396c8	0.31950974
201	0xbe982088	-0.2971232
202	0x3f95fff3	1.1718735
203	0xbed7c9e4	-0.42146218
204	0x3ebdcf75	0.3707234
205	0x3e3d595a	0.18491116
206	0x3c7adda5	0.015311633
207	0xbe2378df	-0.15964077
208	0x3dde0845	0.10841421
209	0xbd0cce5e	-0.034376495
210	0xbd69b38f	-0.057056006
211	0xbd14e762	-0.036353476
212	0xbecfcaf9	-0.40584543
213	0xbf404344	-0.7510264
214	0x3ee8ea7c	0.45491397
215	0x3e265080	0.16241646
216	0xbf4c1bb6	-0.79729784
217	0xbf261543	-0.6487619
218	0x3ef22974	0.4729725
219	0x3e6e7560	0.23286963
220	0x3f04f60a	0.51937926
221	0xbf1d86ff	-0.6153411
222	0x3f960fbf	1.1723555
223	0xbf454138	-0.7705264
224	0x3ede5825	0.43426624
225	0x3f1a2933	0.60219115
226	0x3f28e7db	0.65978783
227	0x3f1280fb	0.5722806
228	0x3f2af1e0	0.6677532
229	0x3f280ef6	0.6564783
230	0x3f131893	0.5745937
231	0xbfa8ee34	-1.3197694
232	0x3e01a614	0.1266101
233	0x3e56e094	0.20984107
234	0x3f7655e0	0.96224785
235	0x3f1d1b5a	0.6136986
236	0x3f83957f	1.0279998
237	0x3f9e09b3	1.234671
238	0x3e033114	0.1281169
239	0x3eae91e3	0.34095678
240	0x3f3ba418	0.7329726
241	0xbfa4545d	-1.2838246
242	0x3c8988d9	0.016788887
243	0xbe7c5e43	-0.24645333
244	0x3f9e806f	1.2382945
245	0x3f575979	0.841209
246	0x3f89ab45	1.0755392
247	0x3faf21e4	1.3682218
248	0x3f02fba8	0.51165247
249	0x3f224b47	0.63396114
250	0x3eeb160e	0.45915264
251	0xbf9bf242	-1.2183306
252	0x3e10a5a2	0.14125684
253	0x3eb4c0e0	0.35303402
254	0x3f43eb18	0.765306
255	0x3ef2713f	0.47352025
