models/EBPR_ml-100k_batchsize_50_opt_adam_lr_0.001_latent_20_l2reg_1e-05_Epoch46_NDCG@10_0.4003_HR@10_0.6755_MEP@10_0.9221_WMEP@10_0.3572_Avg_Pop@10_0.4717_EFD@10_1.2022_Avg_Pair_Sim@10_0.2683.model (torch, 211111 bytes, 2 tensors)

embed_user.weight f4 [943, 20]
-0.46286464 -0.39470607 -0.15776831 -0.40552884 0.6139761 0.34500325 -2.169294 0.06489358
0.43891728 0.32755718 1.0189419 0.5555893 0.17934883 -0.9231442 0.024347942 2.3524597
-0.44105747 -0.2756606 -0.2819688 -0.99936205 -0.93364346 0.60176307 0.7166304 1.6057065
-0.49696144 -0.34645495 -0.8663972 0.5959811 1.0173634 0.3953037 0.06950783 -0.22865526
-1.3838506 0.38565588 -0.078409314 -0.4873957 -2.2989676 0.39001432 0.14843985 0.60062075
0.8682096 -0.15622507 1.0110546 -1.3799497 2.4663186 1.1313128 0.8588642 0.17689145
0.32475093 0.5154281 0.059983164 -1.486404 -1.5877832 -0.4751911 -0.10052381 1.668741
-0.66811794 -0.46388817 -0.17503403 0.69293094 -1.59618 0.3872092 0.5154493 0.8241338
1.1401864 1.238494 -0.90980524 0.7822138 -0.13786204 0.008505544 0.70525455 0.22336017
0.35589492 -1.9620405 -0.5162051 0.76712894 -0.7651564 -0.7057165 -1.2897539 -0.81077766
-0.3685203 -1.4242272 1.3719298 -0.1683888 -0.7873254 -0.8459493 0.55094147 0.8103993
1.1865656 1.2852728 -0.42653534 -0.010845229 -2.2489045 0.78956306 0.5837356 1.2444752
-1.3999635 0.106188506 -0.053935282 -0.7642894 0.326195 -1.0970731 1.806252 0.6369615
0.37914553 0.14933808 -0.8113136 0.95202756 0.30451104 0.7428123 -2.551364 -0.93316793
0.84050745 -0.43366167 -1.2267027 0.6751198 -0.76459086 -0.20204894 1.5368491 -0.3272021
-1.0129265 -0.047281083 -0.3113281 0.32227224 1.1722153 0.59062576 -0.8120619 1.4078718
0.7967225 0.5678099 0.11329914 0.29104927 -0.43540838 -0.34605348 -0.2468618 -0.81156826
-0.9228237 -1.8892661 1.41173 -0.7174922 -0.24128586 -0.9996023 0.9998088 1.3822637
0.23538646 0.2197775 0.48850873 1.094699 0.42187813 1.0508454 -1.5562329 -0.45114997
-0.81925416 -0.39640906 -0.3764337 0.07813483 -0.50470394 -0.80714595 0.045964193 -1.1467118
-0.54997265 -1.4544355 -0.51230156 0.6674752 0.17160578 0.7772067 -0.4816377 0.72108036
0.051899455 0.9374559 0.13361752 -0.3915854 -0.5274405 -1.1235123 0.021684663 0.8053173
0.70844734 -0.8231106 0.77804184 -2.2511764 0.45434943 -1.8593938 0.37139747 -0.46991733
0.21753272 -0.10206754 -0.8423574 3.0732257 0.72860056 0.7645541 -1.7625817 0.14209522
0.7653781 -0.6790128 -0.47988048 0.1380413 -0.40168172 -0.9713122 1.4297792 -2.137455
-2.059191 0.13586941 -0.12137352 0.31797007 0.37182972 1.5098794 -0.66424346 0.25699604
0.59649885 0.7506319 0.11083032 -0.4388105 -0.10268345 -0.76885986 -1.3608485 0.35556328
0.07374248 -0.26356608 0.9431761 -1.1604688 -1.3955046 -2.2839186 -1.0243479 0.20298639
-0.0957335 1.0634438 -0.6197307 -0.6079971 0.82701516 -1.1788586 0.7209725 -0.9596865
0.69191414 -0.5970908 -0.99944574 1.722548 -1.5286527 -0.4690511 -1.285433 -0.95048875
-0.7663126 -0.7093506 1.2661518 0.76020354 0.69995487 1.1920197 0.231022 0.24940243
0.45333782 0.13792348 -1.627479 -1.9245521 -0.6717112 0.27529895 -2.2269251 0.160597
00000000: 98fc ecbe ea16 cabe 048e 21be 7aa1 cfbe
00000010: 8a2d 1d3f 44a4 b03e b7d5 0ac0 ede6 843d
00000020: c4b9 e03e 93b5 a73e b06c 823f 1a3b 0e3f
00000030: 38a7 373e 2e53 6cbf 5675 c73c b38e 1640
00000040: 49d2 e1be 6323 8dbe 375e 90be 31d6 7fbf
00000050: 4203 6fbf 250d 1a3f 1775 373f ca87 cd3f
00000060: bb71 febe 8b62 b1be 35cc 5dbf 3892 183f
00000070: f738 823f 3f65 ca3e 1f5a 8e3d 9b24 6abe
00000080: 0422 b1bf b074 c53e 1095 a0bd ee8b f9be
00000090: 4922 13c0 f5af c73e 9e00 183e 48c2 193f
000000a0: fc42 5e3f 77f9 1fbe 3d6a 813f 31a2 b0bf
000000b0: 2ad8 1d40 dcce 903f 86de 5b3f 0823 353e
000000c0: c145 a63e 19f3 033f e8b0 753d 7c42 bebf
000000d0: 7b3c cbbf 3f4c f3be 6ddf cdbd 4e99 d53f
000000e0: c709 2bbf c082 edbe 1f3c 33be ec63 313f
000000f0: a04f ccbf 4940 c63e 7cf4 033f 6ffa 523f
00000100: a1f1 913f f986 9e3f ffe8 68bf 2a3f 483f
00000110: b52b 0dbe d65a 0b3c 908b 343f 87b8 643e
00000120: dc37 b63e 2524 fbbf 0426 04bf 9062 443f
00000130: 4ae1 43bf d6a9 34bf a816 a5bf 208f 4fbf
00000140: b1ae bcbe 144d b6bf 659b af3f 1d6e 2cbe
00000150: 288e 49bf 2290 58bf 800a 0d3f 5476 4f3f
00000160: 62e1 973f d283 a43f d762 dabe 30b0 31bc
00000170: 0dee 0fc0 ce20 4a3f b26f 153f f74a 9f3f
00000180: 0132 b3bf 5c79 d93d 3eeb 5cbd 78a8 43bf
00000190: 0803 a73e e46c 8cbf 4433 e73f e90f 233f
000001a0: 5d1f c23e 15ec 183e 40b2 4fbf 14b8 733f
000001b0: dfe8 9b3e f228 3e3f 8c49 23c0 18e4 6ebf
000001c0: 7f2b 573f e708 debe 9804 9dbf a7d4 2c3f
000001d0: 3abc 43bf ebe5 4ebe 79b7 c43f 0987 a7be
000001e0: 93a7 81bf cfa9 41bd 6666 9fbe de00 a53e
000001f0: 270b 963f 4033 173f 4ae3 4fbf 2535 b43f
00000200: 01f6 4b3f fd5b 113f 6109 e83d 6904 953e
00000210: d9ed debe ec2d b1be 57c9 7cbe f0c2 4fbf
00000220: 2d3e 6cbf 79d3 f1bf 92b3 b43f 92ad 37bf
00000230: a413 77be f0e5 7fbf 78f3 7f3f 04ee b03f
00000240: 2609 713e 5a0d 613e d11d fa3e 191f 8c3f
00000250: 6900 d83e 1a82 863f a432 c7bf 21fd e6be
00000260: a4ba 51bf 21f6 cabe ebbb c0be 2705 a03d
00000270: 4734 01bf 1ea1 4ebf f344 3c3d 74c7 92bf
00000280: 02cb 0cbf f12a babf 3226 03bf a8df 2a3f
00000290: 6db9 2f3e 05f7 463f 3799 f6be b998 383f
000002a0: 8694 543d 1cfd 6f3f 08d3 083e e27d c8be
000002b0: 5706 07bf 40cf 8fbf 09a4 b13c 4629 4e3f
000002c0: ce5c 353f 60b7 52bf c02d 473f 4613 10c0
000002d0: 7da0 e83e 9e00 eebf cf27 be3e 0199 f0be
000002e0: e6c0 5e3e c908 d1bd bca4 57bf bbaf 4440
000002f0: 9185 3a3f d1b9 433f 479c e1bf 6981 113e
00000300: d2ef 433f c8d3 2dbf e5b2 f5be b35a 0d3e
00000310: 3aa9 cdbe eba7 78bf 0103 b73f 10cc 08c0
00000320: c9c9 03c0 5a21 0b3e ae92 f8bd f9cc a23e
00000330: 7760 be3e ba43 c13f dc0b 2abf fc94 833e
00000340: 26b4 183f 6a29 403f 02fb e23d c5ab e0be
00000350: b34b d2bd 00d4 44bf 4930 aebf 640c b63e
00000360: 4c06 973d 22f2 86be fd73 713f 3e8a 94bf
00000370: e59f b2bf b92b 12c0 d51d 83bf aadb 4f3e
00000380: ed0f c4bd ed1e 883f aca6 1ebf b3a5 1bbf
00000390: 44b7 533f d7e4 96bf a791 383f 04ae 75bf
000003a0: 4921 313f f1da 18bf addb 7fbf 747c dc3f
000003b0: e4aa c3bf 7727 f0be 1289 a4bf 3b53 73bf
000003c0: 102d 44bf 0098 35bf 4311 a23f b39c 423f
000003d0: 3e30 333f 1a94 983f 0891 6c3e 5a63 7f3e
000003e0: e51b e83e d03b 0d3e 3b51 d0bf b957 f6bf
000003f0: 44f5 2bbf fcf3 8c3e f185 0ec0 8a73 243e

embed_item.weight f4 [1682, 20]
-0.47103792 -0.975889 -0.37452984 -1.4633232 -0.7349174 -0.24302246 -0.5549368 0.26607573
0.8535253 1.1231536 0.33210748 1.1446425 -0.35607257 0.6442046 0.6716135 0.6644801
-0.32295662 0.18857981 0.086883806 -0.63759446 -0.34249172 -0.64057106 0.19855247 0.22011866
-0.6230923 -1.2698162 -0.2798595 0.18307109 0.8112993 0.43647516 0.6743431 0.5328399
-1.5981998 0.15122148 0.4528258 0.4520561 -0.5670241 -0.73402816 0.69100475 -1.1096196
1.365745 0.9399229 0.4813655 -0.12771434 -0.03424848 0.5173699 1.2347002 -2.0117116
-0.7876934 -0.7654724 0.4247886 -0.058170285 0.41000223 1.1281396 -0.1069268 0.21871708
-0.11928208 1.0469968 -0.6839479 1.2282962 -0.2887451 0.051463183 0.5884483 1.1032017
-0.122434 0.552784 -0.81170017 -0.3975449 -0.6171646 0.41909915 0.413747 -0.35737458
-0.21810094 -0.64934325 -0.41646937 -0.20828848 -0.41471052 0.87733394 0.24459572 -0.03737948
-0.09524783 0.25363028 -0.035807524 -0.04576624 -0.98032147 -1.0963557 0.2682865 -0.29692352
0.5151508 0.39947975 0.057866164 0.92502785 -1.59517 -0.51911104 1.0915437 0.40222624
-0.58501226 -0.657144 0.5859412 -0.64152974 0.88818824 -0.69558287 -0.026305363 -0.23411693
0.87738746 0.28631082 -0.22372696 0.5015502 -0.062179845 0.7127735 -0.8387522 -0.7016575
-0.38433412 -0.58967793 -0.43880364 -0.18094599 0.8142171 -1.1153045 1.1851513 -0.2382167
-0.17418668 -0.26007235 0.4706658 0.541139 0.7228096 1.149994 -0.023714274 0.27323475
0.04612753 0.90594476 -0.44940063 -1.088806 -0.6919933 -0.36138642 -0.8465911 -0.02751126
-0.22632901 -0.5748591 0.21386866 -0.1685967 0.14702661 -0.4965267 0.31825855 0.7274112
0.072171256 0.3258241 0.3054517 -0.22285499 -1.0699248 -0.25941435 -1.064678 -0.80443776
0.56247675 0.095177814 -0.9719046 0.47848892 -0.21718456 0.28369024 -0.04526867 0.3778497
0.4829173 -0.32089648 0.8779499 0.7706411 0.8868476 1.0771196 -0.8165942 -0.7682853
-0.06958523 0.18668257 0.52812207 -0.9128572 0.2946237 -0.87242764 -0.4296442 0.69923615
-0.14358178 -0.07834425 -0.050940055 0.053968407 -0.6410516 -0.6113703 0.15728837 0.5815654
-0.07495333 0.5174019 -0.6346326 0.17214322 -0.88375354 0.59749 0.46165162 -0.16981445
0.6762501 -0.16991107 -0.6633215 0.24466826 0.4137172 -0.004504101 0.37623948 -1.4883881
-1.1081438 -0.32655093 0.29367745 -0.23251507 -0.11700622 0.43645862 -0.63301754 0.567731
1.1254876 -0.21936233 -1.3926147 -0.58652806 -0.87830514 -0.587537 0.19748192 1.289749
-0.0026145382 -0.04274883 0.057903834 -0.3750451 -0.6405729 0.4012201 0.41270712 0.010282244
-0.20495097 0.004195468 -0.80017334 0.432538 0.82610106 -1.0566338 -0.8097351 -0.008133676
-0.47579485 -0.4847904 0.46762297 0.7577852 -0.13337047 0.020240568 -0.42087144 -0.27272582
-1.5132041 -0.41298622 0.44222796 -0.09145296 0.8189069 1.1552216 0.10173122 0.4371626
1.0301235 0.3493769 -1.0025274 -0.98418045 -0.6288776 -0.048980124 -0.5467188 0.6470698
00000000: e22b f1be ddd3 79bf 60c2 bfbe 2d4e bbbf
00000010: 8c23 3cbf e1da 78be 5710 0ebf 143b 883e
00000020: a280 5a3f 7fc3 8f3f fe09 aa3e a583 923f
00000030: 254f b6be 98ea 243f ddee 2b3f 5e1b 2a3f
00000040: 925a a5be 111b 413e 23f0 b13d 6439 23bf
00000050: 135b afbe 77fc 23bf 5751 4b3e c966 613e
00000060: fa82 1fbf 5689 a2bf bf49 8fbe fd76 3b3e
00000070: 50b1 4f3f ac79 df3e c0a1 2c3f 3268 083f
00000080: d091 ccbf ced9 1a3e c9d8 e73e e673 e73e
00000090: 7e28 11bf 45e9 3bbf b0e5 303f 0408 8ebf
000000a0: bbd0 ae3f ca9e 703f 8a75 f63e 8cc7 02be
000000b0: 2248 0cbd 5b72 043f a80a 9e3f e2bf 00c0
000000c0: 46a6 49bf 00f6 43bf e47d d93e f743 6ebd
000000d0: d0eb d13e e166 903f 70fc dabd 5ff7 5f3e
000000e0: 2a4a f4bd fe03 863f 3617 2fbf cf38 9d3f
000000f0: 66d6 93be 0fcb 523d 8ca4 163f b735 8d3f
00000100: adbe fabd 4183 0d3f 95cb 4fbf 018b cbbe
00000110: 80fe 1dbf 2a94 d63e a6d6 d33e cdf9 b6be
00000120: da55 5fbe 5c3b 26bf 793b d5be 9349 55be
00000130: f054 d4be f598 603f 4d77 7a3e 3a1b 19bd
00000140: 4b11 c3bd d4db 813e e9aa 12bd 6275 3bbd
00000150: 59f6 7abf 6255 8cbf d95c 893e 5c06 98be
00000160: ece0 033f 9c88 cc3e 1205 6d3d a0ce 6c3f
00000170: 882e ccbf 76e4 04bf b4b7 8b3f 99f0 cd3e
00000180: 5dc3 15bf 973a 28bf 3e00 163f 4b3b 24bf
00000190: 4e60 633f b811 32bf 587e d7bc 59bc 6fbe
000001a0: 779c 603f 5597 923e ae18 65be 9865 003f
000001b0: 4bb0 7ebd 5378 363f 77b8 56bf d39f 33bf
000001c0: 71c7 c4be 22f5 16bf dfaa e0be e849 39be
000001d0: 8870 503f 4cc2 8ebf 0ab3 973f 14ef 73be
000001e0: fe5d 32be 3428 85be 1cfb f03e 1688 0a3f
000001f0: 0d0a 393f 0133 933f 7044 c2bc 6de5 8b3e
00000200: 39f0 3c3d ffeb 673f d717 e6be ff5d 8bbf
00000210: 7926 31bf a407 b9be 32ba 58bf 4b5f e1bc
00000220: cbc2 67be f729 13bf 6300 5b3e 9da4 2cbe
00000230: 258e 163e bf38 febe c9f2 a23e 9f37 3a3f
00000240: 86ce 933d 6bd2 a63e 2a64 9c3e 1934 64be
00000250: 4cf3 88bf f5d1 84be 5e47 88bf a2ef 4dbf
00000260: 7afe 0f3f 96ec c23d bdce 78bf 80fc f43e
00000270: a165 5ebe d93f 913e a46b 39bd 8475 c13e
00000280: f040 f73e 8b4c a4be 53c1 603f bc48 453f
00000290: 7208 633f 0edf 893f 510c 51bf 58ae 44bf
000002a0: b382 8ebd b729 3f3e 0233 073f 02b1 69bf
000002b0: ebd8 963e 6b57 5fbf 53fa dbbe 2401 333f
000002c0: 1a07 13be f372 a0bd 85a6 50bd fa0d 5d3d
000002d0: f51b 24bf c482 1cbf 3410 213e 78e1 143f
000002e0: 2281 99bd 7374 043f 4877 22bf 5046 303e
000002f0: ac3d 62bf 1bf5 183f 9a5d ec3e d7e3 2dbe
00000300: ba1e 2d3f 2bfd 2dbe 70cf 29bf 518a 7a3e
00000310: bed2 d33e 2397 93bb 76a2 c03e 8083 bebf
00000320: a8d7 8dbf af31 a7be e45c 963e 6e18 6ebe
00000330: f5a0 efbd 8177 df3e 700d 22bf d256 113f
00000340: fa0f 903f 85a0 60be 3341 b2bf b426 16bf
00000350: 9bd8 60bf d368 16bf b338 4a3e 7f16 a53f
00000360: ac58 2bbb 6619 2fbd 922c 6d3d e905 c0be
00000370: 96fc 23bf b96c cd3e 594e d33e db76 283c
00000380: abde 51be 237a 893b 29d8 4cbf 9f75 dd3e
00000390: 5c7b 533f c73f 87bf cd4a 4fbf 1c43 05bc
000003a0: 629b f3be 7336 f8be 476c ef3e 36fe 413f
000003b0: 4592 08be 8ccf a53c 767c d7be b8a2 8bbe
000003c0: acb0 c1bf ee72 d3be b46b e23e b14b bbbd
000003d0: e2a3 513f 4dde 933f 7558 d03d c7d3 df3e
000003e0: 16db 833f 87e1 b23e d152 80bf 40f3 7bbf
000003f0: 1ffe 20bf 629f 48bd c3f5 0bbf 5ea6 253f
