models/EBPR_ml-100k_batchsize_100_opt_adam_lr_0.001_latent_20_l2reg_0_Epoch42_NDCG@10_0.3980_HR@10_0.6713_MEP@10_0.9238_WMEP@10_0.3579_Avg_Pop@10_0.4765_EFD@10_1.1796_Avg_Pair_Sim@10_0.2717.model (torch, 211111 bytes, 2 tensors)

embed_user.weight f4 [943, 20]
000000 55 03 35 3e 4e ca 7c be 13 18 48 bf 44 bc 17 3e
       0.17677052 -0.24686548 -0.78161734 0.14817911
000010 f1 a8 ea be 5d b8 18 3e 44 dc af bf 8d 3d 0b 3f
       -0.45832017 0.14914079 -1.3739095 0.54390794
000020 96 90 b1 3f 5a 3a 77 3e aa cd 04 3e 27 59 8e 3d
       1.3872249 0.24143353 0.1296908 0.06950598
000030 0d 16 91 3f 27 22 73 bf 0c 8e 45 3e f9 d9 05 3f
       1.1334854 -0.9497399 0.19292468 0.52285725
000040 77 bd 8e 3f 71 9c 30 3e d8 23 a0 3e f1 e2 9d 3f
       1.115157 0.17247178 0.31277347 1.2334882
000050 4a 2d cf be e1 d0 be be 27 d8 a2 3f 8b 5c 6e be
       -0.4046424 -0.37268737 1.2722214 -0.2327749
000060 09 4f 4d 3f e7 8e 1d 3d ea 9a 4c 3e 3c f5 1a 40
       0.80198723 0.03846636 0.1998097 2.421218
000070 c2 a5 67 3e 5b 26 6a be 48 37 d5 be e8 05 80 be
       0.22621825 -0.22866194 -0.4164374 -0.25004506
000080 1e 25 b8 be e3 3a c2 be 3b de b5 bf b2 ad 13 bf
       -0.35965818 -0.37935552 -1.4208444 -0.57686913
000090 82 1c 68 3f 87 7a 45 bf f8 ac ad 3e 20 e2 ca be
       0.906685 -0.77140087 0.33921027 -0.39625645
0000a0 42 b9 8d 3d c1 4c a6 3f 5c 75 87 3d 15 54 eb 3e
       0.06920101 1.2992173 0.066141814 0.45962587
0000b0 dd ab 18 3f b2 6d d7 be ac 68 82 3e 57 62 c0 3f
       0.5963724 -0.42075878 0.25470483 1.5030011
0000c0 32 43 a1 bd d1 9d 87 be 5b b3 ea bf f1 a9 b8 3f
       -0.078741446 -0.26487592 -1.8335985 1.4426862
0000d0 59 18 88 3e ad bd 24 be 9c 39 35 3f 47 3f 9a 3f
       0.26581076 -0.1608798 0.7079103 1.2050561
0000e0 39 0c 04 3f 70 ba ce 3f 94 2f 9e be c4 c2 a8 3e
       0.5158115 1.6150646 -0.30895674 0.32961094
0000f0 f2 5d c9 3c 5f a7 c0 3e 05 db 7e be 5f 01 26 3f
       0.02458093 0.37627694 -0.24888237 0.6484584
000100 90 32 aa 3d 78 17 33 40 3a 2d 93 bf 68 ef c1 3e
       0.08310425 2.7983074 -1.1498177 0.37877965
000110 e3 c1 b1 3f 63 93 15 3e 28 06 15 bf 99 e4 e0 be
       1.3887295 0.14607005 -0.5821252 -0.43924406
000120 8a 35 96 3f 54 ed b3 bf 6f 9e 62 bf c5 6b 0a 3f
       1.1735089 -1.4056802 -0.88523 0.54070693
000130 07 46 4e 3f 6b 45 7e 3e 53 f2 b5 3c 3e 14 c2 bd
       0.80575603 0.24831168 0.022210276 -0.09476517
000140 c5 d3 d3 3e ed fb 84 bf 00 cc a9 3f 9b 35 ce be
       0.41372505 -1.0389382 1.3265381 -0.40275273
000150 7f 52 b0 3f d2 ff 89 be be 7a 94 bd b9 76 a2 3f
       1.3775176 -0.26952988 -0.07249974 1.2692481
000160 8a 64 a3 3e 3d 5e 13 3f 16 25 2f 3e 5a cd 99 3f
       0.31912643 0.5756567 0.17103991 1.2015793
000170 c8 e8 69 be d4 84 05 bf 00 2b bd 3d f7 8d cc bf
       -0.22842705 -0.52155805 0.09236717 -1.5980824
000180 4a 84 42 3f 50 82 ae 3e 32 be 50 3f 76 d0 45 3f
       0.7598311 0.34083796 0.81540215 0.7727121
000190 fc cd 07 bf e1 3b f8 3e d3 59 00 3e fc 45 16 c0
       -0.5304868 0.48483184 0.12534265 -2.3480215
0001a0 78 f6 2c 3f c8 d6 0a bc 4f 84 a1 3d 68 0c 3e bf
       0.6756358 -0.008474059 0.07886564 -0.7423768
0001b0 81 79 a4 3f bd c1 f9 bf 49 a7 96 bf 4d 8d b7 3f
       1.284958 -1.9512249 -1.1769801 1.4339997
0001c0 6a a7 b0 3e 29 8b ff be 30 b2 24 bf aa 8f 93 3e
       0.34502727 -0.49910858 -0.6433439 0.28820544
0001d0 d4 05 6c 3f d5 58 1e 3f 47 f4 a4 3e 8c 34 08 3f
       0.92196393 0.61854297 0.3221762 0.5320518
0001e0 29 7f f6 bf cd 18 9d be 58 6d 7f 3f e5 73 5c bf
       -1.9257556 -0.30682984 0.9977622 -0.8611434
0001f0 47 77 a3 be 02 6b a8 3f fc 19 c3 bf d5 2c c3 3e
       -0.3192694 1.3157656 -1.5242305 0.38120142
000200 41 52 f4 be 2a f3 b5 be a9 1b e3 bd 87 c1 d8 3c
       -0.47719005 -0.35537082 -0.1108926 0.026459469
000210 07 04 86 be 37 9d 22 bf 95 0d 1c bf ed 8a 1f 3e
       -0.26174948 -0.6352114 -0.60958225 0.1558034
000220 61 9b 2b 3f d6 b3 4f be d7 fd 14 3f 6c d6 6d 3f
       0.67033964 -0.20283446 0.5819983 0.92905307
000230 9e 84 5b be e6 2c 69 3e af 44 94 3f e3 83 b1 bf
       -0.21437308 0.22771034 1.158346 -1.3868374
000240 62 2a a8 3f 9c bb f0 3e df 8c 95 be 48 0b 28 3e
       1.3137934 0.47018135 -0.2920904 0.16410553
000250 b8 ed 0b 3f 0f 87 41 be b6 ef 03 bf 37 31 8b 3f
       0.54659605 -0.18899177 -0.51537645 1.0874394
000260 48 4f ed 3e 4c 39 20 bf 99 5c b1 be 7a 09 fe 3d
       0.4634955 -0.6258743 -0.3464096 0.12404151
000270 d9 51 f8 3d 02 ed 8d 3e f5 bc 79 3f ef fb 09 3f
       0.12124986 0.27719885 0.9755395 0.53900045
000280 98 f4 92 bf 66 f2 67 3e 3a f5 8e 3f 1c e6 66 bf
       -1.1480894 0.22651061 1.1168587 -0.9019487
000290 f5 2d c2 be a4 2f a0 be c3 31 8e bf 5a c1 8c be
       -0.37925687 -0.31286347 -1.1108936 -0.27491266
0002a0 43 07 d1 3e 46 80 14 3f a4 f9 dc 3e 04 e1 17 3f
       0.40825853 0.5800823 0.4315921 0.5932772
0002b0 12 46 da 3f fd c4 8c bf e5 89 38 bd e8 90 71 3f
       1.7052634 -1.0997616 -0.04505338 0.94361734
0002c0 69 6a 5b 3e 82 e8 4b 3f f4 1a cb 3f 78 97 81 3f
       0.21427311 0.79651654 1.58676 1.012435
0002d0 2f 71 a9 bf 6d d9 45 be 47 86 c0 3e 5b c2 20 c0
       -1.3237666 -0.19321223 0.37602445 -2.5118625
0002e0 82 9d 91 be 7f 06 14 bd 1a 0f 94 bf e6 8f 84 bf
       -0.2844048 -0.036139008 -1.1567109 -1.0356414
0002f0 d2 34 fc 3e 2c 34 59 bf 8a 32 ab bc 13 6f fd 3f
       0.4925905 -0.8484523 -0.020898122 1.9799522
000300 9b dc 29 3e 4e 00 bb bf c3 a5 d4 3d ec 25 c5 3d
       0.1658806 -1.4609468 0.10383179 0.09626374
000310 95 cb 7a 3f f0 19 46 3e b7 f3 9f 3f fd 7d 0a 40
       0.9796689 0.19345832 1.2496251 2.1639397
000320 b4 c9 54 bf d9 71 2e 3e 9a ec b6 3e d7 9d 54 bf
       -0.83120275 0.17035617 0.35727388 -0.83053344
000330 18 b3 da bc 2c 6b 8c 3f 26 bf cf bf 74 a2 14 3d
       -0.026696727 1.0970206 -1.6230209 0.03628774
000340 60 bc 88 3d 13 f0 67 be ad 9c f1 be d8 05 16 bf
       0.06676555 -0.22650175 -0.47189847 -0.58602667
000350 4f 29 04 3f 0e b9 77 bf 18 44 bf bf 68 2a 46 3e
       0.5162553 -0.96766746 -1.4942656 0.19352114
000360 61 03 04 3f a6 4d b7 3f ed 79 1b 3f 6f a4 19 3f
       0.51567656 1.4320571 0.6073292 0.6001653
000370 67 81 7c 3f 9c 59 0c 3f 4f c7 3b bf 0c 55 d2 3d
       0.9863495 0.54824233 -0.73350996 0.10270128
000380 08 b8 4d 3e 02 46 55 3f b6 9c 74 bf 20 b8 af 3f
       0.20089734 0.8330995 -0.9555162 1.3728065
000390 aa 8b 2c 3f e7 51 a5 3e b1 5b c4 bd e3 17 a6 be
       0.6740061 0.3228905 -0.09587801 -0.324401
0003a0 c0 6a ad 3e 7a 76 02 c0 19 3e 1d be da 6b 9a 3f
       0.33870506 -2.0384812 -0.1535572 1.2064164
0003b0 26 f2 00 3f 9a 42 c5 3f 55 ca c9 be 6e 36 89 3f
       0.5036949 1.541095 -0.3941218 1.0719736
0003c0 56 2b c8 3d 45 40 6d 3f cf 5e 28 3f cd 3c ac bf
       0.09773891 0.9267619 0.65769666 -1.3456055
0003d0 2d d1 ea 3f ee 92 30 bd 1e 8a 25 3f f8 46 44 3f
       1.8345085 -0.043108873 0.64663875 0.7667079
0003e0 4e a2 f7 be 83 e6 6d bf ee 99 d4 bf c3 be 83 3f
       -0.48366016 -0.9292986 -1.6609476 1.0292591
0003f0 0d 5f 0b 3d 6d 8a 70 be 4f 6c 1e c0 df 98 14 3f
       0.034026194 -0.23490305 -2.4753606 0.5804576

embed_item.weight f4 [1682, 20]
000000 15 34 90 3b 53 f3 89 bf c7 3d 25 3d 19 cf b7 be
       0.00440074 -1.0777382 0.04034212 -0.3590019
000010 4c 58 22 bf e6 d7 0a bf 07 49 c0 bd 21 a4 ce 3e
       -0.6341598 -0.54235685 -0.09388929 0.40359595
000020 83 28 c4 3e 30 94 4f 3f ce bb 62 3f 92 47 90 3e
       0.38312158 0.8108549 0.8856782 0.28179604
000030 84 ea 9b be 2c 91 cf be e0 18 0f 3f 8e cf d3 be
       -0.3045236 -0.40540445 0.5589733 -0.4136929
000040 07 f6 2a 3f dc 14 ad 3e 51 a4 08 3f d6 73 71 3f
       0.6678166 0.33804977 0.53375727 0.94317377
000050 88 b7 95 be e9 4a 6c bf db 5b 7b 3f cd f6 f5 bd
       -0.29241586 -0.92301804 0.98187035 -0.12009964
000060 0d 80 fc 3e e6 8b 2b bf b1 9b 6a bf ea 18 8b 3f
       0.49316445 -0.67010343 -0.91643816 1.0866978
000070 09 40 1e 3f 93 67 c6 3e 6e 7b bd 3e 4d 69 9e 3e
       0.6181646 0.38750896 0.37008232 0.30939713
000080 d3 fc 67 3e 25 43 d7 be 36 70 ae 3e d0 d9 85 bf
       0.22655039 -0.42043415 0.34069985 -1.0457096
000090 ae 16 49 3e 70 c5 27 3e 27 ca af 3f 3f c4 61 3f
       0.19637558 0.1638391 1.3733567 0.8819007
0000a0 3f 7b 9d 3f c3 80 06 3f dc 87 2b bf 2d 59 e6 3e
       1.2303237 0.52540225 -0.6700418 0.4498991
0000b0 c9 a0 45 3e 03 5a 37 bf 0d f1 bc 3f ec 5c e6 bc
       0.19299616 -0.7162172 1.4761063 -0.02812048
0000c0 fc 8f 52 be 9f 03 5f be d0 70 ff bd 59 09 96 bf
       -0.20562738 -0.21778725 -0.12472689 -1.1721603
0000d0 03 81 50 3d 7b e1 fc 3f e8 c8 86 3e d7 29 9f 3e
       0.050904285 1.9756311 0.26325154 0.3108661
0000e0 20 37 0f 3e c3 e1 69 3e 27 9a 8f bf 42 de 83 bf
       0.13985872 0.22840028 -1.1218919 -1.0302203
0000f0 8f fb 84 3d 59 7a 6f 3f 0b 55 c1 3d 78 7b 26 be
       0.064932935 0.9354606 0.09440049 -0.16258037
000100 67 ca df 3e f0 d9 96 3e 41 17 e6 bc a4 61 6c 3e
       0.43709108 0.29463148 -0.02808726 0.23084122
000110 f6 b0 37 3f ec c4 4e be 72 fe 8f bd 27 01 40 bf
       0.71754396 -0.20192307 -0.070309535 -0.7500176
000120 e3 98 64 3e b2 1b 7e bd 0f b8 3a bf 63 b1 ec 3e
       0.22323947 -0.06203813 -0.729371 0.46229085
000130 88 e3 a2 3e 80 bf 6f be 97 ba e7 3e d0 ee 8e be
       0.31814218 -0.23412895 0.45259544 -0.27916574
000140 a9 33 23 be 4f 27 59 bf 56 97 80 3f 02 ea 95 3e
       -0.15937676 -0.84825605 1.0046184 0.29280096
000150 57 18 47 3f 91 2c 4f bf 47 6e 49 bf c6 91 14 3f
       0.77771515 -0.8092738 -0.78683895 0.5803493
000160 1d 6f af 3e 99 2b 28 3f a6 90 25 3f e1 09 62 3e
       0.3426446 0.65691525 0.6467384 0.22074081
000170 32 26 17 be 6e 1c ea be c5 a4 ad 3e c2 22 69 bf
       -0.14760664 -0.45724815 0.33914772 -0.9106866
000180 da fa f9 be e6 a4 c8 3e 4d aa 1a 3f bd 46 4f 3e
       -0.48824197 0.39188308 0.6041611 0.20241828
000190 0d 7c 98 bf 39 20 55 3f 86 25 eb 3e 16 f5 67 be
       -1.1912857 0.8325229 0.45927066 -0.22652087
0001a0 b0 17 c3 3c 31 2f f8 ba e8 d2 06 bf 7f 8c 6b bf
       0.023815006 -0.0018934963 -0.5266557 -0.92011255
0001b0 67 4a 3a bd fb 48 21 bf af 0d d1 be aa 89 9a 3f
       -0.04548111 -0.63001984 -0.40830752 1.2073262
0001c0 5e ed 54 3e 6e cd 5a 3e dd f1 b4 3e 49 19 2a 3f
       0.20793673 0.21367428 0.35340777 0.6644483
0001d0 5e af b6 3e f6 4d fc 3e c6 d4 ff 3e 98 87 28 3f
       0.3568067 0.4927823 0.4996702 0.658319
0001e0 c6 c3 2e bf 3b 7e 9d 3f d8 8c 67 3f 13 cc 03 bf
       -0.68267477 1.2304147 0.90449286 -0.5148327
0001f0 bb 22 2b 3f 39 44 c9 3e df 10 9c be 53 14 04 3f
       0.6684987 0.39309862 -0.30481622 0.5159351
000200 a6 5d ed 3c fd 59 03 bf 56 28 21 bf 74 ed b8 3e
       0.02897532 -0.51309186 -0.6295217 0.36118662
000210 41 e4 1e 3f b6 a5 37 be 61 43 2b bf f4 d6 6c 3f
       0.6206704 -0.17934307 -0.6689969 0.9251549
000220 29 9c 91 3e 8b 13 f1 3e 0d bb 0a 3f 15 60 7d 3e
       0.28439453 0.47085223 0.54191667 0.24743684
000230 cd 9a 24 3f 4b d6 73 3f db 9d 21 bf ad 43 3e bf
       0.6429871 0.9524886 -0.63131493 -0.74322015
000240 ab a7 2d 3f 00 c4 42 3e 44 95 2b 3f 9d 14 ac be
       0.67833966 0.1902008 0.67024636 -0.33609477
000250 15 3c 83 3e f3 21 df be 55 ea c8 be 4a 8c 0c 3f
       0.25631776 -0.4358059 -0.3924128 0.54901564
000260 2f c5 f4 3d 88 91 85 be a3 87 32 bf cd 62 04 3f
       0.11951672 -0.26087594 -0.69738215 0.5171326
000270 b1 1f 27 3e fb 97 bd 3e 14 49 82 be 39 ee a5 be
       0.16320683 0.37030014 -0.2544638 -0.32408312
000280 0c 4d 29 be f5 53 ac 3f 05 b4 cd be c3 18 44 3e
       -0.16533297 1.3463122 -0.40176407 0.19150071
000290 88 08 f5 3e e7 ea 3c 3e 29 99 53 be a7 fc b1 3e
       0.4785807 0.18448983 -0.20663895 0.3476307
0002a0 e7 f1 b2 3f ba ea 00 bf f9 3f 27 bf 8e 15 54 be
       1.3980073 -0.50358164 -0.6533199 -0.20711347
0002b0 1a 8b 64 3f 11 8f 46 3e e9 55 0b bf 0d 65 a5 3f
       0.8927475 0.19390513 -0.54427963 1.2921463
0002c0 1e 4e e9 3d 5b 18 59 3e 56 60 be 3e 0a 75 df 3d
       0.11391853 0.21200697 0.37182873 0.10910995
0002d0 c3 1f fc 3d 90 57 a0 3e 3a a5 4d 3e 1d 1c 72 bf
       0.123107456 0.31316805 0.2008256 -0.9457415
0002e0 c7 65 1a be f1 3e 67 3e e5 6f 49 bf 45 f2 64 bf
       -0.15077887 0.22582604 -0.7868636 -0.89432174
0002f0 c8 76 04 3f ff ac 8c 3e f8 cc b2 3e 3f 05 2d bf
       0.51743746 0.27475736 0.34922004 -0.6758613
000300 15 10 38 3f fc 86 f6 be b4 a1 fb be c2 64 05 3f
       0.7189954 -0.4814986 -0.49146807 0.5210687
000310 be de 2f 3f bc b2 0a 3e e3 4b 62 3f c4 ea 4b 3e
       0.6869925 0.13544744 0.88397044 0.19913775
000320 85 9c a5 be a0 59 7d bf ea 11 be bd 9f 44 1c bf
       -0.32345977 -0.9896488 -0.092807606 -0.6104221
000330 11 89 bd 3e 2f 33 2b 3e b8 64 1a bf 6b 64 5b 3f
       0.37018636 0.16718744 -0.60309935 0.857001
000340 94 6e c8 3e 64 5d 36 bf 5d 97 3e bf 7a ed 93 3f
       0.39146864 -0.7123625 -0.7444971 1.1556847
000350 67 a0 cf 3e 54 6c 82 bf 09 34 2f bf 44 ed 12 bf
       0.40552065 -1.0189309 -0.68438774 -0.5739329
000360 ee d5 b6 be a8 46 af 3f 14 69 cb 3e 94 b7 51 3e
       -0.3571009 1.3693438 0.39728606 0.20480186
000370 c7 fc e0 3c d3 fd 88 bf 34 a0 5e 3d 1c 4f 56 3e
       0.027464284 -1.0702461 0.054352 0.20928615
000380 f6 9a 9b 3d 1d 4b a7 3e 8c 95 06 bf c3 2b 16 3f
       0.07597916 0.32674494 -0.5257194 0.58660525
000390 ef c6 12 3f b1 d1 7c be a7 c0 6f be 85 b0 bf 3e
       0.573348 -0.24689366 -0.23413335 0.3743936
0003a0 78 1e 71 3e 7c c5 7a bf 5f d7 b6 be 04 7e 1a bf
       0.23546779 -0.9795759 -0.3571119 -0.60348535
0003b0 06 cb 91 be c6 ca 9a 3e 16 3a 53 be 93 1a ab bc
       -0.28475207 0.3023283 -0.20627627 -0.020886695
0003c0 94 f8 1c bf b2 dd 84 be 55 6d 77 3e ad 60 5b bf
       -0.613168 -0.2595039 0.241628 -0.8569439
0003d0 6c 7f 1e 3f dd 41 45 3f 12 ae 97 be 74 b9 86 3f
       0.6191318 0.77053624 -0.29624993 1.0525346
0003e0 e0 db 3f be 3d ab 00 bf 0a 3d 93 bf 7f ac 52 3f
       -0.1873622 -0.5026129 -1.1503003 0.8229446
0003f0 21 c6 45 3e 2c 23 3f bf cb bf a4 be d2 5c 33 bd
       0.19313861 -0.74663043 -0.32177576 -0.043789692
