models/EBPR_ml-100k_batchsize_500_opt_adam_lr_0.001_latent_20_l2reg_0.001_Epoch49_NDCG@10_0.3822_HR@10_0.6437_MEP@10_0.9137_WMEP@10_0.3551_Avg_Pop@10_0.4894_EFD@10_1.1286_Avg_Pair_Sim@10_0.2858.model (torch, 211111 bytes, 2 tensors)

embed_user.weight f4 [943, 20]
-0.6294239 -0.10663376 -0.979992 0.13224325 -0.39392915 -0.7051421 0.0020608269 0.013545324
-0.08365817 -0.29129034 0.9001839 -0.43038726 -0.3426668 -0.3176975 0.54152745 0.0482663
-0.05006739 -0.2844645 -0.077828705 0.7388381 0.05052702 -0.38718188 0.4685639 -0.5925333
1.254062 -0.20016968 -0.056079153 -0.17381826 0.8422548 -0.88036066 0.07490228 -1.2337755
0.41295287 -0.08719122 0.06532035 0.47502288 -0.51282233 0.15742949 0.22092903 0.5854837
-0.49193236 -0.18111622 0.0704334 -0.79274696 1.1922498 0.3492075 0.1394011 -0.7974275
1.1673598 -0.5061973 -0.21599333 -0.6220306 -0.2045078 -0.17588308 -0.2339826 0.24338342
0.9167691 -0.34486887 -0.87534314 -0.14919677 -0.7248047 -0.33520275 -1.0523639 0.5565672
0.6978421 -0.1917414 -0.22575006 0.34541693 0.5482479 -1.219753 0.65057033 -0.69671065
-0.94697565 0.0026322284 0.12310188 -0.13983008 0.21568891 -0.3009095 -1.003476 1.0664709
-0.21009813 -0.057165574 0.38678688 -0.7826837 0.5522228 -0.61710036 0.2662883 -0.15584175
0.27329242 -0.20596881 0.17593619 -0.9517968 0.55039644 -0.8220308 0.75956506 0.9314453
-0.71984065 -0.0011897599 0.9631247 0.72532064 -1.2431674 -0.9598566 -0.7480612 -0.47177964
0.14873195 -0.43678227 -1.0000795 -0.8615712 0.5654934 -0.14536951 0.20222169 0.04955752
-1.3217163 -0.36995593 0.96270084 0.6124024 0.60652196 -1.494952 -0.60475934 0.069229476
-0.08864065 -0.33596173 -0.6829054 -0.20445813 0.1391351 -0.71907824 -1.1141043 -0.70771897
0.42065272 -0.87697613 1.3830051 -0.3362871 -0.20951864 -0.93257666 0.28949106 0.20659877
-0.037581414 -0.5467216 -0.46268585 0.21212156 -0.5537147 -0.4195392 -0.35902458 -0.85162383
0.54363185 -0.71883845 -0.53564817 -0.8013989 0.38625547 -0.4102107 0.40357375 -0.2714171
-0.39187074 -0.9331973 0.91118765 1.1704085 0.37875503 -0.6638238 -0.27059573 0.55122155
-0.16492492 -0.29846802 -1.3112224 -0.71821076 -0.35814467 -1.3187138 -0.2817278 -0.30239353
-0.2519222 -0.5421512 1.513246 0.08464955 -0.5332519 -1.1358138 0.9416402 0.8066715
0.6000795 -0.44500622 -0.40218565 0.6237563 -1.0122659 -0.23764302 -1.0359051 -0.38558513
-0.743989 -1.1566831 -1.2382293 -0.72569704 -0.09047633 -0.0665967 1.1445994 0.5192551
-0.6038763 -1.4503635 1.6909362 0.85888064 0.15288286 -1.7605115 -0.057114203 -0.114880376
-0.5027662 -0.522872 -1.0830108 -0.16193685 0.4161353 -0.78510416 -0.84294844 -0.13120387
0.38546702 -0.99139166 1.2112129 -0.54526126 -0.75818354 -0.5495257 0.46961707 0.05917407
0.14918128 -0.4821509 -0.77326435 0.68253314 -0.9193925 -0.08599428 -0.4027729 0.44102916
0.32257637 -0.47083515 0.3220916 0.51910335 0.5079809 -0.5205939 0.7167457 -1.344365
-0.78065705 -0.024361962 0.37607995 -0.07371987 0.6002294 -0.2953378 -0.7378113 1.0961884
-1.0739269 -1.3196146 0.12508051 -0.5461321 1.7068173 0.04580072 -0.16504645 -0.46500495
1.3295982 -0.68577063 -0.26284912 -0.9558714 -0.51976 0.20728302 0.035820782 0.560884
00000000: ed21 21bf cd62 dabd c1e0 7abf c66a 073e
00000010: 15b1 c9be 3184 34bf f00e 073b 35ed 5d3c
00000020: fa54 abbd 0224 95be 7472 663f b85b dcbe
00000030: 0672 afbe 3fa9 a2be 8ba1 0a3f e2b2 453d
00000040: 7713 4dbd 55a5 91be a864 9fbd 7e24 3d3f
00000050: 6cf5 4e3d b43c c6be 9ce7 ef3e 43b0 17bf
00000060: 1b85 a03f 48f9 4cbe 41b3 65bd 6afd 31be
00000070: 039e 573f 515f 61bf 5e66 993d 5bec 9dbf
00000080: 8f6e d33e 4f91 b2bd adc6 853d 3336 f33e
00000090: 5348 03bf 3235 213e 383b 623e 42e2 153f
000000a0: 8fde fbbe 8876 39be 633f 903d 77f1 4abf
000000b0: a49b 983f 53cb b23e 29bf 0e3e 3524 4cbf
000000c0: 0c6c 953f 2596 01bf 5b2d 5dbe 663d 1fbf
000000d0: 7e6a 51be b21a 34be 2299 6fbe 8139 793e
000000e0: 61b1 6a3f a792 b0be 7d16 60bf 0ac7 18be
000000f0: cd8c 39bf b29f abbe dcb3 86bf 307b 0e3f
00000100: c8a5 323f dc57 44be 062b 67be 7dda b03e
00000110: f959 0c3f de20 9cbf c78b 263f a15b 32bf
00000120: ff6c 72bf 7781 2c3b d71c fc3d 9e2f 0fbe
00000130: 8edd 5c3e cf10 9abe e771 80bf 1e82 883f
00000140: f723 57be 7326 6abd ee08 c63e f55d 48bf
00000150: 795e 0d3f 4afa 1dbf f156 883e fb94 1fbe
00000160: fcec 8b3e 7de9 52be 9e28 343e f5a8 73bf
00000170: c8e6 0c3f 9c70 52bf db72 423f 3373 6e3f
00000180: 7a47 38bf b8f1 9bba 578f 763f 9dae 393f
00000190: 1c20 9fbf 2ab9 75bf f080 3fbf 1a8d f1be
000001a0: 304d 183e eda1 dfbe 9b02 80bf ee8f 5cbf
000001b0: 2dc4 103f bfdb 14be 3413 4f3e d3fc 4a3d
000001c0: 002e a9bf dd6a bdbe 9073 763f 67c6 1c3f
000001d0: 0645 1b3f 965a bfbf 82d1 1abf 2fc8 8d3d
000001e0: 3b89 b5bd 2d03 acbe e3d2 2ebf 795d 51be
000001f0: 6f79 0e3e 8315 38bf f89a 8ebf 122d 35bf
00000200: cb5f d73e 8281 60bf 5006 b13f d32d acbe
00000210: 0e8c 56be 58bd 6ebf 2c38 943e a18e 533e
00000220: f8ee 19bd f2f5 0bbf 29e5 ecbe 6536 593e
00000230: 3fc0 0dbf d8cd d6be 12d2 b7be 0504 5abf
00000240: 752b 0b3f cc05 38bf 3d20 09bf 7a28 4dbf
00000250: 47c3 c53e 2307 d2be 38a1 ce3e 2ff7 8abe
00000260: 48a3 c8be 05e6 6ebf 9843 693f f2cf 953f
00000270: 2eec c13e 5bf0 29bf 868b 8abe db1c 0d3f
00000280: 14e2 28be cdd0 98be 23d6 a7bf a9dc 37bf
00000290: bd5e b7be 9dcb a8bf a03e 90be 53d3 9abe
000002a0: f2fb 80be 6cca 0abf 0cb2 c13f be5c ad3d
000002b0: 3283 08bf 5962 91bf 550f 713f 0682 4e3f
000002c0: cf9e 193f dbd7 e3be 47eb cdbe 7eae 1f3f
000002d0: ee91 81bf b158 73be 8a98 84bf 6a6b c5be
000002e0: 1076 3ebf 310e 94bf 4c7e 9ebf 48c7 39bf
000002f0: a74b b9bd da63 88bd 3c82 923f e7ed 043f
00000300: a397 1abf 83a5 b9bf 9970 d83f 9adf 5b3f
00000310: 538d 1c3e 7158 e1bf 95f0 69bd 6746 ebbd
00000320: 49b5 00bf f0da 05bf 19a0 8abf c6d2 25be
00000330: b00f d53e 96fc 48bf 78cb 57bf 4f5a 06be
00000340: ef5b c53e d8cb 7dbf 0609 9b3f 3e96 0bbf
00000350: 5118 42bf b7ad 0cbf a671 f03e 8260 723d
00000360: fac2 183e 7cdc f6be a7f4 45bf 7eba 2e3f
00000370: 4f5d 6bbf c51d b0bd 4038 cebe 93ce e13e
00000380: bb28 a53e 4e11 f1be 31e9 a43e f5e3 043f
00000390: 090b 023f a445 05bf a57c 373f 2714 acbf
000003a0: 24d9 47bf bd92 c7bc 8d8d c03e 71fa 96bd
000003b0: a2a8 193f 8436 97be 34e1 3cbf e74f 8c3f
000003c0: 7076 89bf 22e9 a8bf 1b15 003e 50cf 0bbf
000003d0: fd78 da3f 8999 3b3d f001 29be 2115 eebe
000003e0: 4630 aa3f aa8e 2fbf 2994 86be fdb3 74bf
000003f0: fe0e 05bf 0042 543e d0b8 123d 1896 0f3f

embed_item.weight f4 [1682, 20]
-0.32251066 0.37613833 -0.22524503 -0.076299556 -0.6666414 -0.7437792 0.10711772 -0.03989929
-0.15870848 0.0015013815 0.61020994 -0.34867454 0.43655953 -0.7029219 0.7118945 0.35892427
-0.6836477 -0.06936623 1.0210868 0.22116105 0.0677655 -0.05273433 -0.027369529 -0.9160891
0.15283883 -0.8675863 0.19362289 -0.25764152 -0.07045277 0.03879453 0.673487 -0.69564223
0.5721324 -1.0226806 0.8454903 0.89695984 -0.5083001 0.27029377 1.0970262 0.9463311
0.1617767 0.08191516 0.534476 0.32226208 0.212906 0.8701381 0.72211313 0.24182954
0.111578204 0.56669563 -1.3283702 0.20399396 -0.026983405 0.7583003 -0.80633885 -0.19499499
0.33749086 0.58027 -0.13922541 -0.09915258 -0.19870754 -0.3929567 -0.24446036 -0.11168086
0.45710596 -0.24749765 -0.023371464 0.0677838 -0.027245147 -0.31653333 -0.058004707 -0.011033037
-0.5082977 0.12431364 0.16392557 0.37614205 0.5419975 0.2116418 -0.4163154 0.67277414
0.38631997 0.0095227705 0.22664878 -0.78394216 0.030346947 -0.54242116 0.3137567 -0.09768266
-0.224821 0.084116936 0.45854327 -0.72983176 0.6510211 -0.7121779 0.48514363 0.58494216
-0.57246673 0.4586614 0.926792 0.60096186 -0.18488234 -0.21174194 -0.5124839 -0.7427778
-0.11764627 -0.37911296 -0.76069367 -0.72253644 0.094374806 -0.010927608 0.4964482 0.703997
-0.39948145 -0.7379145 0.41024983 0.49699855 0.9645113 -0.62445354 -0.56200135 -0.26861715
-0.20350553 -0.53263766 -0.29519287 -0.82753843 0.7060484 -0.23629925 -0.36574435 -0.6628904
0.36128756 -0.45246568 0.26368803 -0.18917319 -0.43945178 -0.3775288 0.08266889 0.5251971
1.0326449 -0.2899306 -0.87931854 0.25063953 -0.526642 -0.40761563 -0.1128149 -0.040973328
0.37422365 0.14868338 0.014202159 -0.13229421 0.34136653 0.27979246 -0.49582613 -0.009271202
-0.663628 0.3827639 0.061469454 0.2178783 0.8016619 -0.4107712 -0.50564986 -0.07145979
-0.48636034 -0.60922617 -0.6076926 -0.11025648 0.58719134 -0.15398443 -0.11839334 -0.23274088
0.20406862 -0.19864655 0.025022928 -0.18664679 -0.92805195 0.21354872 0.051952254 0.13697207
1.0561711 -0.123025596 -0.99846405 0.6223509 -0.38711372 -0.23694351 -0.79431045 -0.07933021
-0.34751055 -0.77100605 -0.16986586 0.093972586 -0.40097046 -0.2180776 0.455044 0.5681918
-0.52956235 -0.31653762 0.6199757 0.31634778 0.5463295 -0.21232055 -0.23026495 0.5757929
-0.60161906 -0.5662921 -0.31612292 -0.3462113 0.46615842 -0.4919632 -0.23448735 -0.38642168
0.70910263 -0.6671226 0.6111225 -1.1819263 -0.27338803 -0.30487233 0.5558765 0.12566413
-0.7497926 -0.6090401 0.15011942 0.41130123 -0.2205602 -0.21904665 -0.24032934 0.106532626
0.28398928 -0.27652657 -0.15973102 0.010749995 0.32583046 -0.5534925 0.39200822 -0.82005876
-0.11463874 0.021491183 0.3137082 -0.003235086 -0.8391832 -0.20022479 0.21779516 0.5069803
-0.6986394 -0.5050211 -0.25859326 -0.5619653 0.71930605 -0.4820738 -0.6240119 -0.6220063
0.963995 -0.7662983 0.5515473 -0.994414 -0.2886011 -0.59088725 0.5452998 0.335026
00000000: 1e20 a5be 3495 c03e a2a6 66be f142 9cbd
00000010: 03a9 2abf 5068 3ebf 8960 db3d 706d 23bd
00000020: 7a84 22be 01ca c43a b836 1c3f 7885 b2be
00000030: bb84 df3e b1f2 33bf b83e 363f ecc4 b73e
00000040: 8903 2fbf e20f 8ebd f9b2 823f 0b78 623e
00000050: a3c8 8a3d f4ff 57bd 1036 e0bc d184 6abf
00000060: c881 1c3e 231a 5ebf 1445 463e 97e9 83be
00000070: 8b49 90bd 03e7 1e3d a569 2c3f 9c15 32bf
00000080: 4577 123f 33e7 82bf 0d72 583f 299f 653f
00000090: f51f 02bf f263 8a3e 5b6b 8c3f c142 723f
000000a0: cba8 253e 23c3 a73d 6bd3 083f 89ff a43e
000000b0: 0804 5a3e 5fc1 5e3f 68dc 383f 2aa2 773e
000000c0: 1d83 e43d f712 113f 0908 aabf cbe3 503e
000000d0: 4d0c ddbc f81f 423f 396c 4ebf c4ac 47be
000000e0: 9acb ac3e 938c 143f 1b91 0ebe 8210 cbbd
000000f0: fd79 4bbe 9f31 c9be d153 7abe efb8 e4bd
00000100: cb09 ea3e 0670 7dbe 8375 bfbc 3cd2 8a3d
00000110: 3731 dfbc a810 a2be 5896 6dbd e9c3 34bc
00000120: cc1f 02bf 2698 fe3d 1bdc 273e b195 c03e
00000130: 59c0 0a3f a1b8 583e 4b27 d5be ed3a 2c3f
00000140: bbcb c53e 6505 1c3c 9e16 683e 6fb0 48bf
00000150: 299a f83c 1ddc 0abf b8a4 a03e d90d c8bd
00000160: 7a37 66be 8045 ac3d 2fc6 ea3e 41d6 3abf
00000170: 52a9 263f 4a51 36bf bf64 f83e c5be 153f
00000180: 2e8d 12bf abd5 ea3e 3e42 6d3f a3d8 193f
00000190: cc51 3dbe e1d2 58be 2532 03bf b026 3ebf
000001a0: 87f0 f0bd 181b c2be d2bc 42bf 26f8 38bf
000001b0: 9447 c13d b609 33bc 752e fe3e 2639 343f
000001c0: d588 ccbe f7e7 3cbf 440c d23e 9876 fe3e
000001d0: 36ea 763f 30dc 1fbf 52df 0fbf 3088 89be
000001e0: c163 50be f15a 08bf 8523 97be 8fd9 53bf
000001f0: 97bf 343f 6ef8 71be d842 bbbe 2fb3 29bf
00000200: affa b83e 95a9 e7be 1e02 873e 9eb6 41be
00000210: d3ff e0be 744b c1be 4f4e a93d 5173 063f
00000220: b52d 843f c971 94be 051b 61bf d353 803e
00000230: 03d2 06bf ffb2 d0be 800b e7bd a6d3 27bd
00000240: 3e9a bf3e 7540 183e 2cb0 683c 2278 07be
00000250: 98c7 ae3e f540 8f3e ecdc fdbe 3de6 17bc
00000260: 86e3 29bf a1f9 c33e 65c7 7b3d 7d1b 5f3e
00000270: b739 4d3f 9a50 d2be 4572 01bf 8359 92bd
00000280: 3904 f9be 3ff6 1bbf be91 1bbf 26ce e1bd
00000290: 2c52 163f 18ae 1dbe 3578 f2bd a053 6ebe
000002a0: 5df7 503e 006a 4bbe e2fc cc3c 5620 3fbe
000002b0: d094 6dbf 84ac 5a3e e3cb 543d 6842 0c3e
000002c0: 9d30 873f d8f4 fbbd 579b 7fbf 6352 1f3f
000002d0: c533 c6be 52a1 72be ee57 4bbf e177 a2bd
000002e0: e7ec b1be a760 45bf 51f1 2dbe b374 c03d
000002f0: 004c cdbe bc4f 5fbe 87fb e83e 0575 113f
00000300: 6691 07bf 3811 a2be bab6 1e3f 56f8 a13e
00000310: 40dc 0b3f 8f6a 59be 93ca 6bbe 2a67 133f
00000320: b503 1abf 85f8 10bf ddda a1be 9c42 b1be
00000330: 51ac ee3e 9ae2 fbbe 741d 70be 10d9 c5be
00000340: c087 353f 8cc8 2abf 8672 1c3f 5c49 97bf
00000350: 84f9 8bbe 3a18 9cbe ec4d 0e3f 19ae 003e
00000360: 68f2 3fbf 0dea 1bbf e8b8 193e 1396 d23e
00000370: 88da 61be c44d 60be e518 76be c72d da3d
00000380: 0b67 913e e494 8dbe 8790 23be bf20 303c
00000390: 40d3 a63e afb1 0dbf 4db5 c83e 5fef 51bf
000003a0: b7c7 eabd 470e b03c 5c9e a03e bd03 54bb
000003b0: b6d4 56bf ba07 4dbe b205 5f3e 76c9 013f
000003c0: 08da 32bf 1049 01bf 5666 84be f5dc 0fbf
000003d0: 7124 383f 61d2 f6be 3ebf 1fbf ce3b 1fbf
000003e0: 60c8 763f 202c 44bf 3432 0d3f ea91 7ebf
000003f0: 86c3 93be 6344 17bf c598 0b3f 8788 ab3e
