models/EBPR_ml-100k_batchsize_100_opt_adam_lr_0.001_latent_20_l2reg_0_Epoch48_NDCG@10_0.3986_HR@10_0.6649_MEP@10_0.9255_WMEP@10_0.3589_Avg_Pop@10_0.4745_EFD@10_1.1934_Avg_Pair_Sim@10_0.2696.model (torch, 211111 bytes, 2 tensors)

embed_user.weight f4 [943, 20]
0	0xbf2bf2b6	-0.6716722
1	0xbf28365c	-0.65707946
2	0x3f0a0884	0.53919244
3	0xbeba365c	-0.36369598
4	0xbeaf0edd	-0.34191027
5	0xbf4e1c1f	-0.8051166
6	0x3e963859	0.29339865
7	0xbec3a117	-0.3820884
8	0xbdc79c2e	-0.09746586
9	0x3d35d102	0.04438878
10	0xbeb0d528	-0.34537625
11	0x3f01ba09	0.5067449
12	0xbfb9b0d6	-1.4507091
13	0xbfdf45a8	-1.7443132
14	0x3f2f1062	0.68384373
15	0x3f614bfe	0.8800658
16	0xbe7d626f	-0.2474458
17	0x3f188ed7	0.59592956
18	0x3f5528d1	0.83265406
19	0xbe196f82	-0.14983943
20	0x3f3f8787	0.74816173
21	0xbf33731e	-0.7009753
22	0xbf2c028c	-0.67191386
23	0x3e1a25ab	0.15053432
24	0x3f603507	0.87580913
25	0xbea9d5a4	-0.33170807
26	0x3f9448b0	1.1584682
27	0xbe37e844	-0.17959696
28	0x3f881ba5	1.0633436
29	0x3ee82590	0.45341158
30	0xbecd03eb	-0.40042052
31	0x3d5df540	0.054188967
32	0xbfa92e69	-1.3217288
33	0xbe2162dd	-0.1576037
34	0xbf9bfb73	-1.2186111
35	0xbef25a6c	-0.4733461
36	0x3f8ddd94	1.1083245
37	0xbf0df2dd	-0.55448705
38	0xbf5ef633	-0.8709442
39	0xbedbc975	-0.42927137
40	0xbf0e9a9a	-0.55704653
41	0x3ee1815c	0.44044006
42	0x3eda93fc	0.42691028
43	0x3f073799	0.5281921
44	0x3f8dccaf	1.107809
45	0xbfa0f1a0	-1.2573738
46	0xbb5194f5	-0.0031979654
47	0x3fc6cc66	1.5531127
48	0xbf574b6c	-0.8409946
49	0xbf3536c7	-0.7078671
50	0x3f63d807	0.89001507
51	0x3e6ded24	0.23234993
52	0xbee4b5a0	-0.4466982
53	0xbf62aa36	-0.8854097
54	0xc001de4e	-2.0291934
55	0x3ea468fc	0.32111347
56	0x3e026ac9	0.12736048
57	0x3eb4d66b	0.35319838
58	0x3f76f65b	0.9646966
59	0xbf10ad6d	-0.56514627
60	0xbf95673a	-1.1672127
61	0xbf612cb9	-0.87958866
62	0x3f64157d	0.8909529
63	0x3eb9d5fd	0.36296073
64	0xbe5eb124	-0.21747261
65	0xbe716f86	-0.23577699
66	0x3f77d6e3	0.96812266
67	0x3efb7815	0.49115053
68	0x3f03f9aa	0.5155283
69	0xbf891fe1	-1.0712854
70	0xbe3032c3	-0.17206864
71	0xbeb25230	-0.3482833
72	0xbffb231c	-1.962009
73	0xbf0e0c59	-0.5548759
74	0x3e96f7f3	0.29486045
75	0x3f26b201	0.6511536
76	0xbeee3951	-0.46528104
77	0xbea42853	-0.32062015
78	0xbf7e7f4a	-0.9941298
79	0xbf627c5f	-0.88471025
80	0x3f795c36	0.9740633
81	0xbf8d4a30	-1.1038265
82	0xbf6e577b	-0.93102235
83	0xbf48eddf	-0.7848796
84	0x3f7793d0	0.9670992
85	0xbf5930f6	-0.84840333
86	0x3d3dd80c	0.046348616
87	0xbfb91cc2	-1.4461901
88	0x3eb7e359	0.3591564
89	0x3f868be3	1.051144
90	0x3f497d9e	0.787073
91	0x3f3f1368	0.74638987
92	0xbf89bdf7	-1.0761098
93	0x3dcdf961	0.10057331
94	0xbfac9d18	-1.3485441
95	0x3e918074	0.28418314
96	0x3fc73370	1.5562572
97	0x3f86dc11	1.0535909
98	0x3e4b353d	0.19844528
99	0xbd4b74d5	-0.049671967
100	0xbf8086f4	-1.0041184
101	0x3e43960f	0.19100212
102	0x3fad106e	1.3520639
103	0xbf874c10	-1.0570087
104	0x3ea6f9fa	0.32612592
105	0xbd9f9c6b	-0.07793506
106	0x3e3475a8	0.17623007
107	0x3f387376	0.7205118
108	0x3fcfcc67	1.6234254
109	0xbf62db2c	-0.8861568
110	0x400e27cf	2.2211797
111	0x3f128bcc	0.57244563
112	0x3e54cb0a	0.20780578
113	0xbf47268c	-0.7779319
114	0xbedd7bae	-0.43258423
115	0xb85e68c6	-5.3026502e-05
116	0x3e9ea7d2	0.30987412
117	0x3fa7245e	1.3057973
118	0xbeb48eac	-0.352651
119	0xbf8ec949	-1.1155177
120	0xbf2c24bc	-0.6724355
121	0xbfe485a4	-1.7853284
122	0x3d95b280	0.07309437
123	0xbf647de8	-0.8925462
124	0x3f8e472d	1.1115471
125	0xbf267080	-0.6501541
126	0x3e4760e7	0.19470559
127	0x3f0362e3	0.51322764
128	0xbdcad642	-0.09904148
129	0xbef72e62	-0.48277575
130	0x3d644842	0.055732973
131	0x3ef397fe	0.47576898
132	0xbe5b967d	-0.21444125
133	0xbfac2f4f	-1.3451937
134	0x3ddc8d73	0.10769167
135	0x3db14d49	0.08657319
136	0x3f8d34ab	1.1031698
137	0xbe62af96	-0.22137293
138	0xbf67ac4d	-0.90497285
139	0xbe2d6888	-0.16934407
140	0xbec99b8d	-0.39376488
141	0xbe8d6b53	-0.27620944
142	0x3ea97bc0	0.33102226
143	0xbefea1ca	-0.4973281
144	0x3f01ba25	0.5067466
145	0xbec3cbc9	-0.38241413
146	0x3eec17d6	0.46111935
147	0x3e9ee6d1	0.31035474
148	0x3f41b1f1	0.7566214
149	0xbec4fcb4	-0.38474047
150	0x3f9724bf	1.1808089
151	0x3ef9008c	0.4863323
152	0xbf00e74a	-0.5035292
153	0xbe618308	-0.2202264
154	0xbf665927	-0.89979786
155	0x3f8628e8	1.0481234
156	0x3fa8ba93	1.3181938
157	0x3f98abb5	1.1927401
158	0xbdef6e01	-0.116909035
159	0xbf0ec2e7	-0.5576615
160	0xbf8cb7ca	-1.0993588
161	0xbf517349	-0.81816536
162	0x3f3bb9f4	0.73330617
163	0xbf642b45	-0.89128524
164	0xbf0088ca	-0.50208724
165	0xbee0d27b	-0.43910584
166	0x3e428a40	0.1899805
167	0x3e92a962	0.28644854
168	0xbec61dbb	-0.38694558
169	0xbef38819	-0.47564772
170	0x3f05d890	0.52283573
171	0x3f067f79	0.5253826
172	0xbf6acdf1	-0.9172049
173	0xbd86b3f6	-0.065772936
174	0x3e849511	0.2589498
175	0x3fe00998	1.7502928
176	0x3fa2ed93	1.2728752
177	0x3fb52926	1.4153183
178	0xbfc3e05b	-1.5302843
179	0x3e30858d	0.17238446
180	0xbf8e8777	-1.113509
181	0xbed2da50	-0.41182184
182	0x3f4f2aea	0.80924857
183	0xbfe56f3e	-1.7924573
184	0xbd4e3686	-0.050344966
185	0x3b6d72b8	0.0036231708
186	0xbf028bdd	-0.50994664
187	0x3e4c37be	0.19943139
188	0x3ddcdfb9	0.10784859
189	0xbeea44ab	-0.45755515
190	0x4032875e	2.7895122
191	0x3f990b54	1.1956582
192	0xbee44223	-0.44581708
193	0xbfae6356	-1.3624065
194	0x3f394411	0.72369486
195	0x3ea049a9	0.31306198
196	0x3fb22dce	1.3920228
197	0x3ff9bd15	1.9510828
198	0xbcd89c62	-0.026441757
199	0xbf0cca29	-0.5499597
200	0xbf3ddf4c	-0.7416885
201	0xbf84edc6	-1.0385063
202	0x3f9556bb	1.1667093
203	0xbf35cdc4	-0.710171
204	0x3e32a846	0.17447004
205	0xbf8ac278	-1.0840597
206	0x3f83d3cf	1.0299014
207	0x3f2fdb13	0.68693656
208	0x3ede4bb7	0.4341714
209	0xbf4f32c3	-0.8093683
210	0xbd81a3aa	-0.063300446
211	0x3e9ad85d	0.30243197
212	0xbf4633b9	-0.7742267
213	0xbdfe2092	-0.12408556
214	0x3e936ea8	0.28795362
215	0xbe303f38	-0.17211616
216	0x3e574b58	0.21024835
217	0x3ee1b204	0.44081128
218	0xc018301a	-2.377936
219	0xbee1dfbe	-0.44116014
220	0xbf6b361f	-0.9187946
221	0xbf401fd3	-0.7504856
222	0x3fa8bc59	1.3182479
223	0xbf4b1c9e	-0.7934054
224	0x3eb99afc	0.36251056
225	0xc007bbdd	-2.1208413
226	0xbf88bd18	-1.0682707
227	0x3f20e0d8	0.62843084
228	0x3ee22cec	0.44174898
229	0xbf0cfac8	-0.5507016
230	0xbf35ac2f	-0.70965856
231	0xbf09f744	-0.5389292
232	0xbff5ff4d	-1.9218537
233	0x3e8ceb2a	0.27523166
234	0xbea8a63d	-0.3293933
235	0x3f2de9ba	0.67934763
236	0xbf63d738	-0.8900027
237	0x3f3aef4b	0.7302138
238	0xbdbdb7b7	-0.092635565
239	0xbf0280ef	-0.5097799
240	0xbe289cf0	-0.16466117
241	0x3e30b880	0.17257881
242	0x3f9ba75b	1.2160448
243	0xbe7c5944	-0.24643427
244	0x3fa5d08f	1.2954272
245	0xbfc6e94f	-1.553995
246	0x3ea0514a	0.3131202
247	0x3f8b8395	1.0899531
248	0x400b22c5	2.1739972
249	0xbf32fc77	-0.6991648
250	0x3f2a74fd	0.6658476
251	0x3e3791cd	0.17926712
252	0x3e5c3a4f	0.21506618
253	0x3d4d3b32	0.05010528
254	0xc00a75b9	-2.1634352
255	0xbf440e36	-0.76584184

embed_item.weight f4 [1682, 20]
0	0x3e87d7af	0.2653174
1	0xbf5e662a	-0.8687464
2	0xbed2615b	-0.410899
3	0xbf065989	-0.5248037
4	0xbe204f8f	-0.15655349
5	0xbf06b219	-0.52615505
6	0xbf1fb3ca	-0.6238371
7	0xbfa2c365	-1.271588
8	0xbda9a852	-0.08284058
9	0x3ef5c854	0.480044
10	0x3e4cf0b7	0.200137
11	0x3f2d25ce	0.6763581
12	0xbf3cccc0	-0.73749924
13	0xbeb0f12a	-0.34558994
14	0x3f042b47	0.51628536
15	0xbd045636	-0.03230878
16	0x3e2996eb	0.16561477
17	0x3f3e1590	0.7425165
18	0x3ebe9d88	0.37229562
19	0x3ed1981b	0.4093636
20	0x3e36dbdb	0.17857306
21	0xbf5aa837	-0.85412925
22	0xbf4b0e2b	-0.79318494
23	0xbf62005e	-0.8828181
24	0x3e4317f2	0.19052103
25	0xbef0326d	-0.46913472
26	0x3e585a2c	0.21128148
27	0xbf8b246d	-1.0870491
28	0xbee6b6f4	-0.45061457
29	0x3f393eca	0.72361434
30	0xbdcaa6e7	-0.09895115
31	0x3f7ab6d3	0.9793522
32	0xbf8cf77f	-1.101303
33	0xbe0935c4	-0.13399416
34	0xbf086033	-0.5327179
35	0x3ef7d891	0.48407415
36	0x3f6925ee	0.910735
37	0x3f4eec56	0.8082937
38	0xbe91b3c1	-0.28457454
39	0x3dad3e13	0.08459105
40	0xbd9c36f6	-0.076276705
41	0x3fc1c057	1.5136822
42	0xbe777222	-0.24164632
43	0x3fc9b4c8	1.5758295
44	0xbeb30cf4	-0.3497082
45	0x3e209041	0.15680028
46	0xbe2b4ed3	-0.16729288
47	0x3efac9f2	0.48982197
48	0x3eba76b7	0.36418697
49	0xbdd550dd	-0.10415814
50	0xbf786bbc	-0.9703939
51	0xbeb57af8	-0.3544538
52	0x3f2dd68e	0.6790551
53	0x3e98bc9b	0.29831395
54	0xbeee6acf	-0.46565863
55	0xbf624efe	-0.8840178
56	0xbfdfade0	-1.7474937
57	0xbf5617fc	-0.8363035
58	0x3f31536d	0.6926792
59	0x3ec39728	0.3820126
60	0xbf33f26f	-0.702918
61	0xbecfc40f	-0.40579268
62	0xbe5eb679	-0.21749295
63	0x3ed857d4	0.42254508
64	0xbf228d4e	-0.63496864
65	0x3d9460a3	0.072449945
66	0x3f5ee70c	0.870713
67	0x3ebe948a	0.372227
68	0x3f7923ce	0.9732026
69	0xbe8c885b	-0.2744778
70	0xbee311ba	-0.44349462
71	0x3e9261f5	0.2859036
72	0xbece0347	-0.40236875
73	0x3ea60e95	0.32433
74	0xbecc1cca	-0.39865714
75	0xbb816832	-0.0039491886
76	0x3e748440	0.23878574
77	0x3d6c7803	0.05773164
78	0xbe790a6d	-0.24320383
79	0xbe68d361	-0.22736885
80	0x3e9a1d09	0.30100277
81	0xbec87b0a	-0.3915637
82	0xbf81f775	-1.0153643
83	0xbeef78bc	-0.467718
84	0x3d1e9b60	0.038722396
85	0xbe09632f	-0.13416742
86	0x3db049f6	0.08607857
87	0xbf928751	-1.1447545
88	0xbf89d505	-1.0768133
89	0x3f364c01	0.7120972
90	0xbce10f81	-0.027473213
91	0x3f033f3c	0.51268363
92	0xbf4d9cc9	-0.8031736
93	0xbe1971cc	-0.14984816
94	0xbf552630	-0.83261395
95	0x3dfd4ebe	0.123685345
96	0x3f21ae9c	0.6315706
97	0x3f468b7d	0.7755659
98	0xbf1d89d6	-0.61538446
99	0x3e38da04	0.18051916
100	0xbf16ed10	-0.5895548
101	0xbce49c57	-0.02790658
102	0x3f07fd36	0.53120744
103	0xbec0f533	-0.37687072
104	0x3e53d6d3	0.20687418
105	0x3e401223	0.18756919
106	0xbe28a554	-0.16469318
107	0x3f86445a	1.0489609
108	0xbf0ef045	-0.5583537
109	0xbf39807d	-0.7246168
110	0x3f99788c	1.1989913
111	0x3f2c6e09	0.673554
112	0x3f2748b5	0.6534532
113	0xbedf043f	-0.43557927
114	0xbc797804	-0.015226368
115	0x3f11efc4	0.5700648
116	0x3f27e9e0	0.6559124
117	0x3f45d622	0.77279866
118	0xbedcf71c	-0.4315728
119	0xbe500670	-0.20314956
120	0xbf21096c	-0.62905
121	0xbe81be18	-0.25340343
122	0x3ef47de6	0.47752303
123	0xbeaec166	-0.34131926
124	0x3f2c588c	0.6732261
125	0xbf13d79e	-0.5775088
126	0x3ea9ffd6	0.33203
127	0x3f94d11b	1.1626314
128	0x3ed6329e	0.41835493
129	0xbf3c15d0	-0.73470783
130	0x3e88cc95	0.26718584
131	0x3f22e640	0.63632584
132	0x3ca5e733	0.020251846
133	0x3e3013a2	0.1719499
134	0xbf7862bc	-0.97025657
135	0x3ee5304f	0.4476342
136	0x3f09ed15	0.53877383
137	0x3e8fc78c	0.2808193
138	0xbe837b6f	-0.2568011
139	0xbebdce68	-0.37071538
140	0xbe8695d6	-0.2628619
141	0x3f2c9af0	0.67423916
142	0x3f6e2ef4	0.93040395
143	0x3e7a896d	0.24466486
144	0x3e517ea7	0.2045847
145	0xbf0c3b7c	-0.54778266
146	0x3e498cce	0.19682619
147	0x3e62dfe5	0.22155721
148	0x3f94986f	1.1609019
149	0xbe8b79b1	-0.2724128
150	0x3eee183a	0.46502858
151	0xbeded349	-0.43520573
152	0x3f0040b7	0.50098747
153	0x3f1d2501	0.6138459
154	0xbea7202b	-0.3264173
155	0x3ed1170b	0.40837893
156	0xbecf86a0	-0.40532398
157	0x3ea1a031	0.3156753
158	0x3e415fd5	0.18884213
159	0xbe9dd2b9	-0.3082483
160	0xbf85245b	-1.040172
161	0x3ca0bdad	0.019621694
162	0x3f291b96	0.6605772
163	0x3e9ce0de	0.3064031
164	0xbeeb98fe	-0.4601516
165	0xbec6c9ef	-0.38825938
166	0x3f9b79ca	1.2146542
167	0x3f4fbb3c	0.8114507
168	0x3f0a8021	0.5410176
169	0xbf57f649	-0.84360176
170	0xbec0ef53	-0.3768259
171	0x3e9d8d1c	0.3077172
172	0xbe221846	-0.15829572
173	0xbe9bf6bc	-0.3046168
174	0xbf4ebc46	-0.8075603
175	0x3f26332f	0.6492185
176	0xbeb3d065	-0.3511993
177	0x3ed06e59	0.4070919
178	0x3ea14790	0.3149991
179	0xbec0d832	-0.37664944
180	0xbf69710e	-0.9118813
181	0xbf252ec4	-0.64524484
182	0x3f0bc50f	0.5459756
183	0xbf144575	-0.57918483
184	0xbf502aa9	-0.81315094
185	0x3d43a0a8	0.047760636
186	0x3e9619b9	0.293165
187	0x3daba287	0.08380609
188	0x3f496a5b	0.7867791
189	0xbe90e071	-0.28296235
190	0xbe218899	-0.15774764
191	0x3f1cb73f	0.6121711
192	0xbeb97e8d	-0.36229363
193	0x3e896d65	0.26841274
194	0x3f27cf76	0.65550935
195	0x3e4dbfa0	0.2009263
196	0x3e5263f3	0.2054594
197	0x3f1e63de	0.61871135
198	0xbf2703e7	-0.6524033
199	0x3e007627	0.12545072
200	0x3e798538	0.24367225
201	0x3bf3ef05	0.007444265
202	0x3f1925ad	0.59823114
203	0xbf81f1e0	-1.0151939
204	0x3f1bb527	0.6082329
205	0xbf80d9b4	-1.0066438
206	0x3f038841	0.5137978
207	0xbf17ce5a	-0.5929924
208	0x3d866b92	0.06563486
209	0xbe360f03	-0.17779164
210	0x3f38dd1a	0.72212374
211	0xbcf30de2	-0.029669706
212	0xbf3198cb	-0.6937377
213	0xbf246ca6	-0.64228284
214	0xbf23cf03	-0.6398775
215	0x3e8b3a15	0.2719275
216	0x3d17ddf9	0.037076924
217	0x3f0bf0a8	0.5466409
218	0xbf77b18e	-0.967553
219	0xbf761d27	-0.9613823
220	0x3e03b89f	0.12863396
221	0x3dd16ba5	0.1022561
222	0xbda799a4	-0.081836015
223	0xbf4a159e	-0.78939235
224	0x3e82b08a	0.25525314
225	0xbf11cd69	-0.56954056
226	0x3f24c36b	0.64360684
227	0xbf1ca04f	-0.6118211
228	0xbe4bc8ab	-0.19900768
229	0xbdc068fb	-0.093950234
230	0x3d95fbef	0.07323443
231	0xbf1a3a2d	-0.6024502
232	0xbf72c67c	-0.94834113
233	0xbf26a121	-0.65089613
234	0xbd2fc088	-0.04290822
235	0x3eebcb44	0.46053517
236	0x3dd31e53	0.10308518
237	0xbe2f3485	-0.17109878
238	0xbf2137c7	-0.62975734
239	0xbf5ad548	-0.8548169
240	0x3d5894da	0.05287633
241	0xbebfd2d7	-0.37465546
242	0x3f5bd401	0.8587037
243	0xbf4f056c	-0.8086765
244	0x3fb1d8c3	1.3894275
245	0xbf9b8646	-1.2150352
246	0x3e329a2b	0.17441623
247	0x3eac479a	0.33648378
248	0x3edf413f	0.43604466
249	0xbf000b4b	-0.5001723
250	0x3f27d418	0.65558004
251	0x3edf8fdb	0.4366444
252	0xbea9de9d	-0.33177653
253	0xbecb3451	-0.39688352
254	0xbf4e0c86	-0.8048786
255	0x3ea897b7	0.3292825
