models/EBPR_ml-100k_batchsize_500_opt_adam_lr_0.001_latent_20_l2reg_0.001_Epoch49_NDCG@10_0.3733_HR@10_0.6416_MEP@10_0.9175_WMEP@10_0.3582_Avg_Pop@10_0.4913_EFD@10_1.1205_Avg_Pair_Sim@10_0.2877.model (torch, 211111 bytes, 2 tensors)

embed_user.weight f4 [943, 20]
00000000: 81b0 babc 32f0 d6be 1293 98be f9d7 3e3e
00000010: 978c 4c3f ffa6 cdbd 4559 403e 8bca b13e
00000020: 95da 623f 1ea2 6abf af13 a5be 28d0 6abc
00000030: 4fd5 cd3e 2635 8abe 188b 103f 9282 33be
00000040: c027 dabd a293 90be aecc ed3e 51fc f83e
00000050: fe41 8b3e ff69 983f d238 04be 7539 82bd
00000060: ad12 523e a9c7 a4bf 718d 3abd d5f7 85bd
00000070: 63ac 13be 2a10 9dbd 212d 07be e11c 17bf
00000080: fa39 9a3f c02c a23e a217 0abc d570 52bc
00000090: 55fe 50bf 40f4 453f 4598 9f3d 911b f0bd
000000a0: 39d4 943f ad52 813f 736d fdbd b7c0 3a3f
000000b0: a5ac ecbd 86ee 4ebf 271b 433f 85ac 2a3e
000000c0: 7d13 6abd cf78 d03c 3eec cebe ffb2 c23b
000000d0: fc09 90be 98d4 02bf cae8 343f bd27 fbbe
000000e0: 0941 3cbd c75f aa3f e7ec a1be ace3 833e
000000f0: 531e 963e f146 b3be 26df 10be 1371 0e3f
00000100: 8be2 c63f 2e6d d13c 140d f63d bc6c 453f
00000110: 5bee cf3e 9268 3bbf 828b febe 818e a0bb
00000120: 4ac5 053f 251b 3ebf 4ebe 543f a8cf 46bf
00000130: 1a25 36bb e3db a73f 8e6d f63e cc3b 4f3f
00000140: 54fa 043f 2cd0 723f 578e d33d 466d 2fbd
00000150: 38c5 00be cc10 a7bf 7ab4 753c 5eee 7bbe
00000160: fdb4 753e 30ee 8abe e699 92bd abc2 53bf
00000170: 1478 783f 3ee0 243f 14a5 773e 5f78 9c3e
00000180: a1b1 73bf 3767 2fbf 4f01 4c3f 1650 af3e
00000190: 6dfa 873f d687 a23e d4d1 0ebf 5de1 f93e
000001a0: 8c7d 683e 7ac9 75be f679 db3e 4232 c53f
000001b0: 48f8 2c3f 8839 f6be f355 163e fd2b dfbe
000001c0: 91c7 31bf 1c6e 84bf 128e 0a3f f3b4 b4be
000001d0: b82d a2bf a6e0 053e 22d6 993f 5e3f 583f
000001e0: aebd f03e ab20 9d3e 7197 11bf b373 1b3e
000001f0: 6ffd 383f ada8 7f3e 811c f03e 8ba4 a43e
00000200: 7dcf 963f c8b1 96bf 6fe6 a2bf 210c 16bf
00000210: a3f5 d73e 07d0 b4be 70a9 32bd 5bff 10bf
00000220: eca9 f9be 7eac 313e 6da2 d13e b0d5 ecbd
00000230: 3d35 353f 4fc1 573f 0c7f 0abf 32b9 1a3f
00000240: e7cf c03e fd2b 20bf c6ee 103f d191 143f
00000250: 1c9f 1d3f 984b cebe 6a9e 0ebf f154 84bf
00000260: 5164 eebc 6576 b2be 368d 113f afc0 c3be
00000270: fa28 4dbf 1a2a 34bd ae43 443f 1e36 203f
00000280: 0715 9ebe 0141 e5bd 7d61 66bf b8f7 443f
00000290: 6c0a 8f3f 8d4e 21bd 9e64 543f 0899 fc3e
000002a0: c1d0 a93f 4646 8fbf d9b8 aabf bc7c 1bbf
000002b0: 056e 28be 08ed a0be 569c 833f bc98 e9be
000002c0: 3c4c d2bd 1135 51bf 1e8e dc3e 8a91 503f
000002d0: a3a7 463f d7f8 38be 9dad 45bf 7bd0 613e
000002e0: 3c9b 8d3e 2aed 923e 9a30 153f 3270 923f
000002f0: d101 f13f 6bab 9abf 1e88 89be 97af 3dbf
00000300: 1395 01bf 85d3 0fbf 7778 d53e 128d aebe
00000310: 6295 a4bf e5be a0bf 520e a23f e073 ea3e
00000320: 4e0d 633e 0d8e 313d 7785 19bf a4b1 073f
00000330: 7a16 713f a100 06bc e52a d93e 5854 403f
00000340: bfc1 863f c617 a2bf 92a0 65bf e410 0ebf
00000350: 0955 0a3f ec55 2abf 3a19 0c3f 7812 43bf
00000360: 7ce9 20be 667c 243f efc3 1a3f f4fa 053f
00000370: acb7 01be 60d8 c8be a4ad 833e 0c5b f33e
00000380: 5bc2 653f 5882 b7be d99f 513e 9978 fc3e
00000390: b397 f23e 4502 53bf 59f0 d4be 31e2 7f3d
000003a0: bb3a f03e a0d2 afbe cd59 893f 948c 62be
000003b0: d533 6a3d 46c9 893f 9f7a 3d3f 0602 813f
000003c0: 02df ac3f f2ff ad3f d126 b5be e0b4 1c3f
000003d0: 8664 1b3e 0599 8dbf a06c 243f 77d4 283f
000003e0: 21ec 30be 78ea ab3d e25b 3c3e e69e 89be
000003f0: bb5d 8cbd abf9 5fbf 6e4f f63e 2d18 a3be
-0.022789242 -0.4198013 -0.29799706 0.18637075 0.79902023 -0.100416176 0.18784054 0.3472484
0.8861478 -0.9165362 -0.3224158 -0.014331855 0.40201804 -0.26993674 0.5646224 -0.17530277
-0.10652113 -0.28237635 0.4644522 0.48630002 0.27198786 1.1907347 -0.129123 -0.06358615
0.20514937 -1.2873431 -0.045545045 -0.06541411 -0.14421229 -0.07669099 -0.13200809 -0.5902844
1.2048943 0.31674767 -0.008428486 -0.012844284 -0.8163808 0.7732582 0.07792715 -0.11724008
1.1627265 1.0103356 -0.123743914 0.7295031 -0.11556367 -0.8083271 0.76213306 0.16667373
-0.05714749 0.025448231 -0.40414613 0.005941748 -0.28132617 -0.5110564 0.7066771 -0.49053755
-0.04596046 1.3310479 -0.31626055 0.25759637 0.2932001 -0.35015061 -0.14147624 0.5564129
1.5537885 0.025564756 0.12014213 0.7711904 0.40611538 -0.73206437 -0.4971581 -0.0048998003
0.52254164 -0.7426017 0.8310288 -0.7766061 -0.002779311 1.3113979 0.4813046 0.8095062
0.5194447 0.94848895 0.103298835 -0.04282882 -0.12575233 -1.3052001 0.014996642 -0.24602649
0.23994823 -0.27134848 -0.0715826 -0.82718915 0.97058225 0.64404666 0.24184066 0.30560586
-0.95192915 -0.6851687 0.79689497 0.34240788 1.0623299 0.3174426 -0.5578892 0.4880475
0.22704142 -0.24002638 0.42866486 1.5405962 0.6756635 -0.48090768 0.14681225 -0.43588248
-0.6944514 -1.0346103 0.5412303 -0.35294303 -1.2670202 0.13073978 1.2018473 0.8447169
0.47019714 0.30688986 -0.56871706 0.15180854 0.7226171 0.24966688 0.46896747 0.32156786
1.178207 -1.1773005 -1.2726573 -0.5861226 0.42179593 -0.35314962 -0.04361862 -0.5663964
-0.48762453 0.17350957 0.40944234 -0.11564195 0.7078436 0.8427934 -0.5410011 0.60438836
0.37658617 -0.6256712 0.5661434 0.58035 0.61570907 -0.40292048 -0.5571047 -1.0338422
-0.029100569 -0.34855953 0.56856096 -0.38232943 -0.8014065 -0.043985464 0.7666577 0.62582576
-0.30875418 -0.11194039 -0.89992505 0.7694049 1.1175056 -0.039381552 0.8296603 0.49335504
1.3266832 -1.1193321 -1.3337661 -0.60737205 -0.16448219 -0.3143084 1.0282085 -0.4562434
-0.10268447 -0.817216 0.43077177 0.81472075 0.77599543 -0.18063675 -0.7721804 0.22052185
0.27657497 0.28696567 0.58277285 1.1440489 1.8828679 -1.2083563 -0.26861662 -0.74096054
-0.50618094 -0.5618213 0.4169347 -0.34092003 -1.2858088 -1.2558256 1.266062 0.4579153
0.22173044 0.04334836 -0.59969276 0.53005433 0.9417492 -0.008178861 0.42415538 0.751287
1.0527877 -1.2663505 -0.89698136 -0.55494523 0.54036003 -0.66537356 0.5472599 -0.76200056
-0.15714067 0.64252317 0.6045522 0.5233605 -0.12667722 -0.3922758 0.25718415 0.475304
0.8974969 -0.35841632 0.20471133 0.4931076 0.47381362 -0.8242534 -0.4158962 0.062471572
0.46919808 -0.34340382 1.073053 -0.22123939 0.057178337 1.0764549 0.7401523 1.0078743
1.3505557 1.3593733 -0.35381177 0.61213493 0.15175065 -1.1062323 0.6422825 0.65949196
-0.17277576 0.08394331 0.18394426 -0.26879042 -0.06853815 -0.8749034 0.48107475 -0.31854382

embed_item.weight f4 [1682, 20]
00000000: 8696 adbd d8ff 75be 7f0e 433c 1c9b 2dbe
00000010: ec92 833d fa62 b5be 9b06 8dbd de37 94be
00000020: c25c 383f 494f 11bf 4702 98be d297 7cbe
00000030: 0428 703f a0f1 dc3e ffd4 e63d 91f3 9b3e
00000040: 9c82 bdbe 6efc babf 32df fe3e bb6f 0d3b
00000050: 3579 98be f59c 263f 3ffa 9cbe 94bc 7a3e
00000060: d43d 813e ce9c 83bf 7205 513e bf9f 65be
00000070: 7f05 1b3f 6bf4 cbbe 60b2 2dbf 70e0 4abf
00000080: cb48 a63f bc44 723f 544b f23e 51d1 743e
00000090: d3d7 debe 7363 bebf fd39 d03e d5a1 f23e
000000a0: abe0 cabe 698e 363c 5e2b ce3e dbe3 4a3d
000000b0: 177c bbbe 3938 6cbd 0c25 d4bd 836e 87be
000000c0: 7f14 91bf d502 b13f a569 433f 4a9b 013f
000000d0: 20a6 efbe 54fc 00be b36b 44bd e50b 033e
000000e0: 9921 233f bf7f dd3e 3995 bfbe 59e9 80bd
000000f0: de5a bfbe 5b52 3a3e d800 c5be c4ed a03e
00000100: ae72 113f d567 90be c139 6f3c 00b0 843e
00000110: 8bd2 87be 6e20 7c3e feea cfbd f558 ddbe
00000120: 18aa f4bd 5c2b e1be b703 993e 6d2d bcbe
00000130: 8492 a1bd e157 d53e ee9f 9c3e 9d94 ec3e
00000140: 3ebd b2be 4d9c 133f 9cd7 89bd 7a02 50bc
00000150: fa6f 813d cfcc 5dbf b6cf 01bd 4ac4 92be
00000160: 395f ac3e 9c78 56be eb8f fdbe 3712 07bf
00000170: 8fbf 613f 09ae 833f 1c96 b33e 62fc be3e
00000180: 3a0a aebe 4169 83bf b0f1 a63d 879e 363e
00000190: 7cf6 293f a583 ba3e 59f3 1bbf b0da 053f
000001a0: 0773 fc3d 3dad 5d3e 76ba 1e3f e213 173f
000001b0: 8aa6 233f 625c 0bbf 25ac 31bf 10f7 c5be
000001c0: 775f b4bf 6102 10bf 7743 be3e 60ba 0dbf
000001d0: 9e8d 6abe 2598 1bbf 1290 453e a39b 643e
000001e0: 05fa eb3e 5070 4a3f 15b8 2bbf 2c3d 273f
000001f0: 7028 d13e cf9c c7be 9c02 223f 0120 de3e
00000200: 6d72 483e 546c 1dbe be1a 24bf c06f 17bf
00000210: 1c55 1abf 2425 30bf b9bc f13e d475 1dbf
00000220: 957a 86be dea9 353f 4992 d53d e2f6 033f
00000230: d4bb 973e 32ad 2b3e e0db 3abd fdd1 6e3e
00000240: 0ff9 873d 33a3 a2be dd75 703e 0bea d73e
00000250: 87da 90be 48ff cf3e bc4c e83e 967c 213e
00000260: b701 5bbf c907 16bf a9dd 623e 57d8 57bd
00000270: 4968 c0be a216 313f 8a87 d33e 13d8 fd3e
00000280: 7f0e 81bc 1552 0c3e e3ec dabe 6055 233f
00000290: 8b31 2b3f 8ffc 91be 2bcd d13e 9659 fe3e
000002a0: 4910 05bd a146 023c e3ec 4abe d535 70bd
000002b0: 5104 28bf 6841 5abf 7a59 383f f536 1fbf
000002c0: 9666 c93d 34c8 743f 70e7 ce3d fdb3 3b3f
000002d0: 7c6b dbbe ea22 bebe ce68 e9be c378 ad3e
000002e0: d41e 2a3f 78ee 3f3e d879 2c3e 7d09 f53e
000002f0: 45af 063f 4f02 85be 7955 7ebe c8f9 d3be
00000300: d750 c1be d0ef c9be a141 0a3f 1ea8 b8be
00000310: 6fba cbbc bb0c 35bf 551a 293f 23cb 213f
00000320: 4a7b 113f 2058 8f3e 866c 58be 6385 3e3e
00000330: 7651 613e 2bb8 2fbf 7050 e83e e5c2 af3e
00000340: af10 293f 2991 4dbf a26d 0fbe aec7 48be
00000350: 3e04 9e3f 6d8c a6bd 6517 fd3e 875a d9bb
00000360: 870c 53bf b692 0f3f 83e2 bb3e 9ca5 fb3e
00000370: 7b03 583e 43f1 11bc 07fe 59bc 9585 2dbe
00000380: 9fdc d63e c10b 9dbe 9a17 3b3d 17fc bb3d
00000390: 6d53 9a3e 34a9 1cbf a7cf a3bd d2ee 81bd
000003a0: 38ad a03f 7478 f73d eddf 293e 8e4b 03bb
000003b0: c048 cebe b4b9 023f 1c31 3f3e cbcb 613e
000003c0: 04fa 7b3f d055 443f bb68 c3be 294c c73e
000003d0: 52d4 083e 364a 33bf 0551 173f 4bf6 dd3e
000003e0: 5755 223f 7c61 32bf dd9a 01bf 0dd9 efbe
000003f0: 73f6 4d3f 4fe6 e9be 073c d33e b579 abbe
-0.08475976 -0.24023378 0.011905312 -0.16953701 0.064245075 -0.35427076 -0.068860255 -0.28948873
0.7201654 -0.56761605 -0.29689237 -0.2466729 0.9381106 0.43153095 0.112710945 0.30459264
-0.3701371 -1.4608285 0.4977966 0.002158149 -0.29779974 0.6508325 -0.30659673 0.24486
0.25242484 -1.0282228 0.20412233 -0.2242422 0.6055526 -0.39834914 -0.67850304 -0.79248714
1.2990965 0.9463613 0.47323096 0.23907973 -0.43524036 -1.48741 0.40669242 0.47389093
-0.39624533 0.011142352 0.40267462 0.049533706 -0.3661811 -0.057670806 -0.10358629 -0.264515
-1.133438 1.3828989 0.76333076 0.5062758 -0.4680643 -0.12596256 -0.047954272 0.12797506
0.6372314 0.43261525 -0.37418535 -0.062945075 -0.37374014 0.18195479 -0.38477206 0.314314
0.5681561 -0.28204218 0.014601172 0.25915527 -0.2652782 0.24621746 -0.10152243 -0.4323193
-0.11946505 -0.43978393 0.29885647 -0.36753407 -0.07889274 0.4166861 0.30590767 0.46207133
-0.34910005 0.5766037 -0.06730577 -0.012695903 0.06320186 -0.8664064 -0.03169223 -0.28665382
0.336664 -0.20944446 -0.49523863 -0.5276217 0.8818292 1.0287486 0.35075462 0.37301928
-0.33992177 -1.0266496 0.08151567 0.17833911 0.6639173 0.36428562 -0.60918194 0.52286816
0.12326627 0.21648116 0.62003267 0.59014714 0.63925993 -0.5443784 -0.69403297 -0.38665056
-1.4091634 -0.5625363 0.37160847 -0.5536251 -0.22905585 -0.6077903 0.1929324 0.22324996
0.46089187 0.79077625 -0.6707776 0.65327716 0.40851164 -0.38986823 0.6328523 0.43383792
0.195749 -0.15373355 -0.64103305 -0.5915489 -0.60286117 -0.6880667 0.47214296 -0.61507916
-0.26265398 0.7096232 0.10428292 0.5154859 0.2963549 0.16765288 -0.045619845 0.23322292
0.06639301 -0.31765136 0.23482461 0.42170748 -0.28291723 0.40624452 0.45371044 0.15770182
-0.8554949 -0.5860563 0.22154869 -0.052696552 -0.37579563 0.6917516 0.41314346 0.49578914
-0.015753983 0.13703187 -0.42758855 0.63802147 0.6687247 -0.28513 0.40976843 0.49677724
-0.032486234 0.00795141 -0.19816928 -0.05864509 -0.65631586 -0.8525605 0.7201153 -0.6219323
0.0983402 0.95617986 0.10102737 0.73321515 -0.42855442 -0.37136012 -0.45587772 0.33881196
0.6645329 0.18743312 0.16843355 0.478588 0.5261119 -0.25978324 -0.24837293 -0.41401505
-0.37756988 -0.39440775 0.5400639 -0.36065763 -0.024869172 -0.7072255 0.66055804 0.6320059
0.5682875 0.27996922 -0.21135148 0.1860557 0.22003731 -0.68640393 0.4537387 0.3432838
0.6604108 -0.8029962 -0.14006665 -0.19607422 1.2345045 -0.08132253 0.4943191 -0.006633106
-0.8244099 0.5608324 0.36696252 0.49149787 0.21095078 -0.008907619 -0.013305194 -0.16945489
0.41965196 -0.3067303 0.045676805 0.09178942 0.30141774 -0.61195683 -0.07998591 -0.063443795
1.2552862 0.120835215 0.16589327 -0.0020034048 -0.4028988 0.5106461 0.18671077 0.22050397
0.9842837 0.7669344 -0.3816584 0.38925293 0.13362244 -0.7003511 0.59108 0.4335197
0.6341147 -0.6968 -0.5062693 -0.46845284 0.80454177 -0.45683524 0.41256735 -0.33491293
