models/EBPR_ml-100k_batchsize_50_opt_adam_lr_0.001_latent_20_l2reg_0.001_Epoch46_NDCG@10_0.4058_HR@10_0.6819_MEP@10_0.9234_WMEP@10_0.3559_Avg_Pop@10_0.4736_EFD@10_1.1930_Avg_Pair_Sim@10_0.2691.model (torch, 211111 bytes, 2 tensors)

embed_user.weight f4 [943, 20]
0.9503611 -0.5702426 0.05031487 0.27369958 0.26957315 -0.48559773 -0.51897764 0.14372747
0.39817134 0.058034476 -0.17558432 -0.9705196 -0.27706712 0.18482688 -0.3665768 -0.43612328
-1.0605714 2.0838208 -0.32645208 0.49239537 0.44214267 0.92584884 -0.47477522 -0.23120625
0.8409551 0.96380484 -0.14373435 -0.59786934 0.084884144 1.7442355 1.6013849 -0.12544887
-0.79197115 1.0250517 -1.1832218 0.45879522 0.9353919 -0.5012497 0.05948838 -0.44968075
1.9394798 0.6797038 -1.0254798 1.0044252 -0.7567601 -1.496728 -0.12809266 0.32875013
-0.5038832 0.4359938 -0.69737685 -0.28155077 -0.82574093 -0.53328586 -1.4096406 -1.1082648
-0.77094704 -0.087772846 0.0974956 -1.5880928 1.2099141 0.1596542 0.96104497 -0.40204677
-0.54973394 0.27176672 0.13009878 1.0844778 0.751583 0.89658743 -0.5681735 -0.19121619
-0.5724782 0.8653111 -0.47612944 0.6659977 -1.0337673 1.8272883 -0.10725513 -1.3756999
0.83201593 0.88169265 -0.58756256 0.29985142 0.33141327 -0.11852678 -0.19346055 -0.8795194
0.12943561 -0.20304327 0.6240745 0.116402835 -0.76165193 0.69380546 -0.34026974 0.0764326
-0.24707489 -0.36083907 -0.4138641 0.18302013 0.35433608 0.41452518 -1.6567914 1.6413695
0.6998924 -1.9897316 0.8279578 1.5974302 0.0008923579 0.32695633 1.144254 0.50339496
0.2153461 0.5049985 -0.121624954 1.5182508 -0.63181627 0.75715667 -0.21947737 -0.28130516
-0.8598896 -0.2015652 -0.72241443 0.56316364 0.63950104 0.09712504 0.5749962 0.30915534
0.91539365 0.49293107 1.130669 -1.6609395 -1.0542599 0.576121 -0.3147722 -0.11433405
0.38273448 0.42494324 -1.0620705 -1.6142931 0.4225743 0.7993296 -0.2709094 0.37057456
0.31060007 -1.3298182 0.8788131 0.19844949 0.8348764 0.07312288 1.30984 0.07855233
-0.6353796 0.39581308 -0.46033895 0.8571028 -0.8287724 0.027832765 -0.9193688 -0.63193333
-0.17254062 0.8134227 0.64840496 0.63715637 0.38194525 -0.9508458 0.8265705 0.34997374
2.0526464 -0.60149395 0.40710038 -1.7760102 -0.6511692 0.24731264 -0.23727939 0.7330704
-1.289099 0.7121726 -0.8729426 0.07461914 -0.40680936 -0.13480946 -0.802539 1.0488226
1.316319 -2.1832087 0.56172425 1.060933 0.41462585 -0.9321883 1.5524033 -0.93520564
-0.54824466 0.9360829 0.6220899 0.23142698 -1.4829698 0.915644 -1.8547838 -0.30341962
-0.12308344 0.7479439 0.10942272 -0.2693278 0.29101568 0.07446647 0.314174 0.91617656
0.67001253 1.3318903 -0.666102 -1.4216255 -0.86403257 0.89442027 -0.24343908 1.7259527
-0.7170296 1.2833419 -0.5028914 -0.64908874 2.6109204 -0.6244601 1.1929053 -0.17858486
-0.1736066 -0.3938058 0.34772986 0.6453369 1.142642 1.9273483 -1.1463081 -1.0930098
-0.19185324 -0.03250063 0.24894784 0.77162504 -1.6301385 0.41869366 -1.4305931 1.1889884
1.1964911 1.6378878 -0.804739 1.6593566 -0.56384945 -0.61057556 0.8374873 0.9154991
-0.15265733 2.2319067 0.5538412 -0.04016505 0.29066926 0.4310628 -0.111531764 1.3429384
00000000: dd4a 733f 6bfb 11bf f716 4e3d 5a22 8c3e
00000010: 7e05 8a3e 44a0 f8be b8db 04bf 4b2d 133e
00000020: 1ddd cb3e 8fb5 6d3d 60cc 33be f973 78bf
00000030: bedb 8dbe 4243 3d3e f4af bbbe 8d4b dfbe
00000040: cec0 87bf 525d 0540 ba24 a7be 3f1b fc3e
00000050: 8660 e23e 6e04 6d3f bd15 f3be 55c1 6cbe
00000060: d548 573f eabb 763f 192f 13be f70d 19bf
00000070: bdd7 ad3d 1c43 df3f 2efa cc3f ab75 00be
00000080: 9fbe 4abf e534 833f d073 97bf 35e7 ea3e
00000090: d875 6f3f e651 00bf 16aa 733d 8e3c e6be
000000a0: e040 f83f 1101 2e3f ec42 83bf 0191 803f
000000b0: 08bb 41bf c894 bfbf b92a 03be f051 a83e
000000c0: 7dfe 00bf 943a df3e 4a87 32bf 6c27 90be
000000d0: c263 53bf 6c85 08bf 1a6f b4bf 9fdb 8dbf
000000e0: c95c 45bf 40c2 b3bd c6ab c73d a046 cbbf
000000f0: 77de 9a3f 647c 233e 0b07 763f 13d9 cdbe
00000100: 5dbb 0cbf 0225 8b3e 9d38 053e 2bd0 8a3f
00000110: be67 403f c186 653f d273 11bf 2dce 43be
00000120: ee8d 12bf 0785 5d3f 3dc7 f3be d37e 2a3f
00000130: 7d52 84bf 95e4 e93f 94a8 dbbd ef16 b0bf
00000140: fffe 543f 9cb6 613f 806a 16bf 2086 993e
00000150: 00af a93e 2bbe f2bd 861a 46be 2f28 61bf
00000160: c58a 043e 93ea 4fbe 59c3 1f3f 9c64 ee3d
00000170: 9ffb 42bf 3c9d 313f d637 aebe b288 9c3d
00000180: 3301 7dbe e6bf b8be ffe5 d3be a169 3b3e
00000190: 8a6b b53e a53c d43e be11 d4bf 6518 d23f
000001a0: 262c 333f 86af febf 0bf5 533f 9878 cc3f
000001b0: 20ed 693a d266 a73e ea76 923f 7ede 003f
000001c0: b083 5c3e 9547 013f 8116 f9bd 0b56 c23f
000001d0: b6be 21bf 05d5 413f adbe 60be 3b07 90be
000001e0: ba21 5cbf 1c67 4ebe 27f0 38bf 7e2b 103f
000001f0: 57b6 233f 7ee9 c63d f332 133f 9c49 9e3e
00000200: 3d57 6a3f 7661 fc3e c3b9 903f aa99 d4bf
00000210: fdf1 86bf aa7c 133f d229 a1be f827 eabd
00000220: c6f5 c33e 2992 d93e edf1 87bf 28a1 cebf
00000230: a95b d83e dda0 4c3f a3b4 8abe f3bb bd3e
00000240: f906 9f3e 7c37 aabf e5f9 603f 5836 4b3e
00000250: 76ba 553f 73c1 953d d6a8 a73f 0be0 a03d
00000260: 3da8 22bf 03a8 ca3e 8cb1 ebbe 176b 5b3f
00000270: 6e2a 54bf 8a01 e43c c15b 6bbf 62c6 21bf
00000280: 7dae 30be 783c 503f defd 253f ae1c 233f
00000290: 548e c33e a16a 73bf 209a 533f c22f b33e
000002a0: 8f5e 0340 82fb 19bf 766f d03e 4d54 e3bf
000002b0: 06b3 26bf 863f 7d3e 5ef9 72be 80aa 3b3f
000002c0: 3201 a5bf f250 363f 2b79 5fbf ebd1 983d
000002d0: 5149 d0be 7e0b 0abe 3273 4dbf d23f 863f
000002e0: 247d a83f b1b9 0bc0 29cd 0f3f a7cc 873f
000002f0: d749 d43e e4a3 6ebf 27b5 c63f a369 6fbf
00000300: c359 0cbf 21a3 6f3f 4941 1f3f 32fb 6c3e
00000310: f4d1 bdbf a567 6a3f 8e69 edbf d159 9bbe
00000320: 2c13 fcbd 4079 3f3f 0519 e03d 55e5 89be
00000330: 0200 953e e081 983d 6adb a03e 8c8a 6a3f
00000340: f185 2b3f 627b aa3f a985 2abf d3f7 b5bf
00000350: 3d31 5dbf baf8 643f 1848 79be 05ec dc3f
00000360: 408f 37bf 8c44 a43f 7ebd 00bf ae2a 26bf
00000370: 5219 2740 9edc 1fbf 1fb1 983f f3de 36be
00000380: eec5 31be eaa0 c9be a609 b23e cd34 253f
00000390: 1842 923f 59b3 f63f 39ba 92bf bfe7 8bbf
000003a0: 2d75 44be 611f 05bd 2fec 7e3e 3889 453f
000003b0: 61a8 d0bf 045f d63e ad1d b7bf c630 983f
000003c0: 9f26 993f 4fa6 d13f 6003 4ebf cc65 d43f
000003d0: 7058 10bf ae4e 1cbf 9165 563f 265e 6a3f
000003e0: 3452 1cbe 8fd7 0e40 89c8 0d3f 1c84 24bd
000003f0: 9ad2 943e 43b4 dc3e c46a e4bd 68e5 ab3f

embed_item.weight f4 [1682, 20]
0.047131646 -0.32274023 -0.33927 0.49746755 0.3328277 -0.0938389 -1.4635571 -1.1823915
-0.13803166 -0.18032244 0.008219772 -0.9569752 -0.8964695 0.5618227 -0.07963576 0.0654308
-0.6440625 0.10490562 -0.7507422 1.0610116 0.5133546 0.8618728 -0.37994644 0.14122626
1.4354194 0.027603697 -0.34731007 -1.8446462 0.18890654 -0.39640135 0.91709197 -1.0813429
-1.126539 0.81710595 -0.604218 0.013820996 -0.1771327 0.3616796 -0.9624098 0.06768779
0.39361033 0.24109428 0.37854517 0.25369272 -1.3678085 0.55163413 -0.027073883 -0.24903342
-0.4319137 0.01630659 -0.7755679 1.6135274 1.4880558 -0.928287 -0.46884516 -0.2677662
0.39326236 -0.2310629 1.3876503 0.52316684 -0.17510793 0.77093965 0.7525887 0.27591074
0.55386156 0.38950473 0.27260217 0.2748303 0.18296601 0.5973395 0.022705473 0.028821485
0.24460152 0.39495835 -0.80764174 0.6603496 -0.40483367 0.41298968 0.82017183 -0.27758282
0.56626487 0.7696864 0.13689986 -1.0267268 0.5597196 0.23028836 -0.05253103 -1.4071655
0.19496694 -0.85202795 0.28718683 -0.5971105 -1.0081027 0.89342284 -0.42501658 -0.6800595
-0.062441688 -0.078268304 -0.68204165 0.35424426 -0.36625046 0.14692113 -1.0214299 0.7331837
0.5142595 -1.0119212 0.85290277 0.87579656 0.20340991 -0.7336238 -0.3114166 -0.7057779
-0.31989983 -0.3742452 -0.4687266 0.38172808 -0.41799337 -0.057586506 -0.49649736 -0.9400399
0.3357039 1.109762 -0.2923149 0.9740778 0.2991056 -0.67038214 0.832081 0.50567466
0.57709664 0.57273954 0.2028991 -0.74559754 -0.13955416 0.21522266 -0.8167075 0.6772702
-0.56163 -0.16787446 0.23806283 -1.010082 0.738184 0.401696 -0.1402276 0.35834512
0.02338917 -0.58592385 0.35604575 0.7231582 -0.17871885 0.7260486 0.48680925 0.5985036
1.5431776 -0.58910286 0.67501426 1.2631657 -0.13146394 0.10190434 0.34779683 0.0050131157
0.8651546 0.48022303 0.70613194 1.1610101 0.547503 -0.3661765 0.7144376 1.0338898
0.14374515 0.6554624 -0.65454096 0.070197955 0.6786088 -0.21078546 -1.0089897 0.2968202
-0.41507703 1.0553485 0.5907779 -0.34083614 -0.29963493 0.17746054 0.8289131 0.99638325
0.12960817 0.088798665 0.12645015 0.4603703 0.4385547 -0.2567846 0.61860377 -0.9112026
-0.29248187 0.301938 -0.38854763 1.2154952 -0.7056408 0.63794416 0.023434028 0.49118453
1.0056429 0.9736722 -1.4117734 -0.67753917 1.1198791 -1.0075927 -0.25134814 0.54871935
0.9191157 1.0034726 0.13998999 -0.67824805 -0.6055637 0.88421685 0.38751101 0.04193336
0.09963475 0.39831498 -0.14193223 0.66461223 0.7785164 0.24805553 -0.43523604 -1.4660027
1.0304881 -0.54110533 -0.3438373 0.3578357 0.81931245 0.5931323 0.17986242 0.21293812
-0.13249229 0.69105977 0.34313673 -0.19157301 0.17211834 0.7853706 -0.22698203 0.36810973
1.0582086 0.59211206 -1.4847665 0.5524077 0.15095283 -0.79186964 0.1803562 0.5268131
0.2469865 1.2402197 0.3042121 -1.1053559 -0.82719904 0.9130496 -0.5116431 0.68380225
00000000: 1d0d 413d 353e a5be ccb4 adbe 11b4 fe3e
00000010: 6468 aa3e 9c2e c0bd d755 bbbf 9b58 97bf
00000020: 2c58 0dbe 72a6 38be 39ac 063c 54fc 74bf
00000030: 067f 65bf 9dd3 0f3f 1318 a3bd 9500 863d
00000040: 48e1 24bf c2d8 d63d a430 40bf 3acf 873f
00000050: 356b 033f b2a3 5c3f 5788 c2be 9e9d 103e
00000060: d3bb b73f 2621 e23c a0d2 b1be 5e1d ecbf
00000070: b770 413e 1ef5 cabe 8ac6 6a3f 7269 8abf
00000080: 6e32 90bf db2d 513f 08ae 1abf 7571 623c
00000090: 4662 35be 122e b93e 7d60 76bf e59f 8a3d
000000a0: 4b87 c93e 6be1 763e acd0 c13e 03e4 813e
000000b0: 5914 afbf e537 0d3f 0cca ddbc 9e02 7fbe
000000c0: cb23 ddbe 6695 853c 9e8b 46bf 1188 ce3f
000000d0: 9d78 be3f 38a4 6dbf 790c f0be a718 89be
000000e0: af59 c93e c19b 6cbe 869e b13f 43ee 053f
000000f0: 7e4f 33be 4d5c 453f a7a9 403f 2c44 8d3e
00000100: dfc9 0d3f 2a6d c73e 8392 8b3e 8fb6 8c3e
00000110: 715b 3b3e 3eeb 183f d400 ba3c 091b ec3c
00000120: d278 7a3e fb37 ca3e 9cc1 4ebf ac0c 293f
00000130: 5c46 cfbe 6273 d33e c8f6 513f 561f 8ebe
00000140: bcf6 103f 2b0a 453f 7a2f 0c3e c96b 83bf
00000150: c949 0f3f b6d0 6b3e c72a 57bd 001e b4bf
00000160: 6aa5 473e 811e 5abf 270a 933e 3cdc 18bf
00000170: 8209 81bf 5cb7 643f c69b d9be 6118 2ebf
00000180: dbc2 7fbd 224b a0bd 489a 2ebf 815f b53e
00000190: 2e85 bbbe 7e72 163e 37be 82bf edb1 3b3f
000001a0: 83a6 033f a286 81bf d657 5a3f 3434 603f
000001b0: b04a 503e c5ce 3bbf ff71 9fbe dcad 34bf
000001c0: e9c9 a3be 119d bfbe effc efbe dd71 c33e
000001d0: 3a03 d6be d4df 6bbd e734 febe 74a6 70bf
000001e0: 62e1 ab3e ae0c 8e3f 4caa 95be 2a5d 793f
000001f0: 5f24 993e 2a9e 2bbf 4303 553f e573 013f
00000200: 9bbc 133f 0f9f 123f c8c4 4f3e 7bdf 3ebf
00000210: 49e7 0ebe 5463 5c3e be13 51bf 9461 2d3f
00000220: fcc6 0fbf 48e7 2bbe bec6 733e 5e4a 81bf
00000230: a0f9 3c3f 19ab cd3e d397 0fbe 0379 b73e
00000240: a59a bf3c 1bff 15bf a14b b63e e520 393f
00000250: 1302 37be 52de 393f 103f f93e 8837 193f
00000260: d886 c53f 72cf 16bf bccd 2c3f 6aaf a13f
00000270: 7c9e 06be 39b3 d03d 6d12 b23e 1045 a43b
00000280: c67a 5d3f cbdf f53e 10c5 343f fb9b 943f
00000290: 2829 0c3f 7c7b bbbe 62e5 363f 8056 843f
000002a0: ee31 133e 62cc 273f ff8f 27bf f2c3 8f3d
000002b0: 4eb9 2d3f 25d8 57be 9326 81bf d1f8 973e
000002c0: fa84 d4be a915 873f 383d 173f 1382 aebe
000002d0: c069 99be 37b8 353e a633 543f f912 7f3f
000002e0: 01b8 043e 13dc b53d 267c 013e a8b5 eb3e
000002f0: 3e8a e03e 4579 83be d15c 1e3f 9344 69bf
00000300: 2fc0 95be 9e97 9a3e b7ef c6be 5995 9b3f
00000310: e0a4 34bf 4f50 233f b8f8 bf3c 8a7c fb3e
00000320: e8b8 803f 9542 793f feb4 b4bf 3573 2dbf
00000330: 3358 8f3f ccf8 80bf b4b0 80be df78 0c3f
00000340: 2b4b 6b3f ca71 803f 8959 0f3e aaa1 2dbf
00000350: 3906 1bbf 095c 623f d867 c63e 51c2 2b3d
00000360: 4e0d cc3d f1ef cb3e af56 11be 0724 2a3f
00000370: da4c 473f 4502 7e3e 42d7 debe faa5 bbbf
00000380: 09e7 833f e185 0abf 710b b0be 3e36 b73e
00000390: 76be 513f 85d7 173f db2d 383e 730c 5a3e
000003a0: 0fac 07be 4be9 303f 9eaf af3e b72b 44be
000003b0: ca3f 303e 0c0e 493f fa6d 68be e178 bc3e
000003c0: 6173 873f a894 173f d40c bebf 976a 0d3f
000003d0: 6193 1a3e f8b7 4abf 4caf 383e 39dd 063f
000003e0: 07ea 7c3e 85bf 9e3f b0c1 9b3e 4d7c 8dbf
000003f0: 51c3 53bf 9ebd 693f 0bfb 02bf aa0d 2f3f
