models/EBPR_ml-100k_batchsize_500_opt_adam_lr_0.001_latent_10_l2reg_0_Epoch47_NDCG@10_0.3482_HR@10_0.5949_MEP@10_0.9060_WMEP@10_0.3486_Avg_Pop@10_0.4998_EFD@10_1.0814_Avg_Pair_Sim@10_0.2918.model (torch, 106151 bytes, 2 tensors)

embed_user.weight f4 [943, 10]
-0.20946738 -0.4708731 0.060479328 -0.33718526 0.3727536 -0.90855706 0.6028124 -0.09603085
-0.79216236 -0.54050523 0.67507267 -1.6286538 -0.2603601 -0.684335 0.7766551 -0.16714382
0.80887055 -0.28052813 -0.41944814 0.30782783 -0.34237692 -0.93132836 0.9300931 -0.847736
0.6024805 0.83451 0.62203306 -0.7361351 -0.3148818 -0.2468919 -0.45927176 -1.20969
1.2688301 -0.7770698 0.38884944 -0.03901554 1.258897 -0.2214522 -0.021466581 -0.74325013
0.98777485 -0.7704748 -0.7889897 -0.5436263 0.64539975 -1.1146384 0.5962021 -0.33995435
-1.140609 0.34655902 -1.1736025 -0.3641738 1.5538357 -0.7405409 0.70830864 -1.0679935
0.3524277 -1.5044812 -0.16153935 -1.0648046 -0.5845178 -0.7059193 0.43075612 -0.50563973
0.42558938 -0.9493275 0.69623315 -0.18753305 -1.0816538 -1.2024918 -0.79220873 -0.58818287
0.58792984 -0.8344006 0.91346985 -0.8594367 0.63984877 -1.1192489 -1.2163568 -0.7365427
-1.4455599 0.051261682 0.24233116 -0.48861223 0.38723114 -1.1388713 0.70624167 -0.14663531
-1.7973846 -1.354108 -1.3217683 0.19652 0.5389451 -0.35096866 0.31943098 -2.3092601
0.11819193 -0.6593324 -1.0150567 -1.4142705 -0.7726319 -0.83205265 0.9358247 -0.7417622
0.62642574 -0.6524009 1.1849183 -0.18194419 -0.8327965 -1.2434325 -0.31193322 -1.0542533
0.95092875 -0.40004215 0.40818423 -0.045469787 1.0485425 -0.12542507 -0.41302583 -0.573183
-0.18073003 -1.3323507 1.4609537 -0.9618763 1.1407268 0.5642754 0.8148628 -1.8124505
0.032187253 -0.054256972 -1.3736712 -0.5153807 1.2681344 -0.95865047 0.7960174 -0.27594948
0.68574494 -1.3743488 -0.71196723 -1.1460807 -0.19009866 -0.38575912 -0.16412643 -0.47604862
0.64575106 -0.29572028 0.7753013 -0.621297 -0.6940158 0.009920516 -0.17090486 -1.8917444
0.97600806 -1.0988168 0.9432619 0.612556 1.3635346 -0.18917638 -0.5748267 -0.72090656
-1.5884529 0.48949146 0.36366138 -0.10779573 -0.028819323 -0.22530873 0.32706007 -0.06425401
-0.5799775 -0.98784965 -1.9458437 -0.31937984 2.0859132 -0.92427874 0.7012591 0.088810034
0.6657711 -1.3987317 -0.39736816 -1.5264666 0.15068498 -1.8361602 0.9148072 -0.9163661
0.69626033 1.0077261 1.1326369 0.0050448454 0.08961368 -0.2928064 -1.9011338 0.72956765
1.0903523 -0.2748423 -0.002859952 -1.6557571 -0.52616423 -1.4805338 -0.41433865 -0.96617466
0.42222747 -1.455124 0.2108741 -0.7043207 0.76090187 -1.0790901 1.0483088 -0.4611801
-0.5077636 -0.29226992 -0.68655676 0.4726318 0.6371653 0.13511866 -0.082309805 0.1054837
-0.31148338 -0.35134566 0.2503843 -0.37048155 -1.1724511 0.28072092 0.39427298 -0.20860791
0.3003499 -1.488362 0.61086285 -0.013509408 -0.940353 -1.2962751 -2.000036 0.016159693
1.4451178 -0.6059029 0.49058312 -0.87796026 0.28029683 -1.0502509 -0.75468767 -2.1005392
-1.6104963 -0.3211257 1.8967232 -0.84630746 0.84306467 0.7483906 0.6398142 -1.5121126
-0.38108358 -1.1353402 -0.116304934 -0.81006956 0.8050001 -0.59969354 0.84307474 0.9462158
00000000: 9e7e 56be 4716 f1be 2cb9 773d 8ca3 acbe
00000010: 8fd9 be3e 3297 68bf ea51 1a3f d3ab c4bd
00000020: 27cb 4abf 8d5e 0abf 90d1 2c3f ba77 d0bf
00000030: eb4d 85be 9430 2fbf ded2 463f c027 2bbe
00000040: 2412 4f3f 62a1 8fbe e8c1 d6be 9c9b 9d3e
00000050: 074c afbe 896b 6ebf 951a 6e3f 3a05 59bf
00000060: 293c 1a3f 73a2 553f 8f3d 1f3f 5a73 3cbf
00000070: 3038 a1be 3bd1 7cbe ab25 ebbe 1fd7 9abf
00000080: 0669 a23f 0cee 46bf 4617 c73e c2ce 1fbd
00000090: 8923 a13f 5ec4 62be afda afbc a445 3ebf
000000a0: d0de 7c3f d63d 45bf 3bfb 49bf 182b 0bbf
000000b0: eb38 253f 79ac 8ebf b3a0 183f 7f0e aebe
000000c0: 7aff 91bf 2f70 b13e 9b38 96bf fd74 babe
000000d0: 17e4 c63f 1794 3dbf b753 353f 03b4 88bf
000000e0: 6771 b43e d792 c0bf 926a 25be 844b 88bf
000000f0: f5a2 15bf 21b7 34bf 118c dc3e 9b71 01bf
00000100: dae6 d93e 2107 73bf 563c 323f aa08 40be
00000110: a273 8abf 40eb 99bf 31ce 4abf 2793 16bf
00000120: 9282 163f 479b 55bf 29d9 693f 0b04 5cbf
00000130: 21cd 233f 8c43 8fbf 94b1 9bbf 108e 3cbf
00000140: 1b08 b9bf c5f7 513d a925 783e 622b fabe
00000150: 2943 c63e 89c6 91bf 41cc 343f 9127 16be
00000160: b310 e6bf 6953 adbf b42f a9bf 8a3c 493e
00000170: 4ef8 093f 2ab2 b3be 758c a33e ebca 13c0
00000180: 9c0e f23d 02ca 28bf 61ed 81bf d106 b5bf
00000190: 34cb 45bf 6701 55bf 3592 6f3f 21e4 3dbf
000001a0: 705d 203f bf03 27bf 67ab 973f 944f 3abe
000001b0: 2732 55bf cc28 9fbf b6b5 9fbe c6f1 86bf
000001c0: 1170 733f 53d2 ccbe 86fd d03e 873e 3abd
000001d0: a436 863f 6e6f 00be 1f78 d3be 1fbc 12bf
000001e0: 4b11 39be 788a aabf 8800 bb3f 863d 76bf
000001f0: 5603 923f 5a74 103f d99a 503f 61fe e7bf
00000200: c8d6 033d 8f3c 5ebd 75d4 afbf fdef 03bf
00000210: 3a52 a23f 1e6a 75bf ccc7 4b3f 4049 8dbe
00000220: fb8c 2f3f a9ea afbf 7c43 36bf c6b2 92bf
00000230: 39a9 42be 3882 c5be c210 28be a5bc f3be
00000240: f14f 253f a668 97be 257a 463f 520d 1fbf
00000250: 05ab 31bf a989 223c af01 2fbe ae24 f2bf
00000260: aadb 793f 07a6 8cbf 9d79 713f 78d0 1c3f
00000270: 4d88 ae3f 74b7 41be d827 13bf 558d 38bf
00000280: 6d52 cbbf a09e fa3e d331 ba3e 02c4 dcbd
00000290: 8016 ecbc 55b7 66be 6b74 a73e 9b97 83bd
000002a0: 6879 14bf b7e3 7cbf 6811 f9bf c185 a3be
000002b0: 9a7f 0540 889d 6cbf b785 333f 09e2 b53d
000002c0: fa6f 2a3f a409 b3bf d773 cbbe 4263 c3bf
000002d0: 2a4d 1a3e 4c07 ebbf ce30 6a3f f896 6abf
000002e0: 1e3e 323f 2bfd 803f 3ffa 903f 3b4f a53b
000002f0: 6187 b73d b8ea 95be 5a58 f3bf f2c4 3a3f
00000300: aa90 8b3f 21b8 8cbe 086e 3bbb d9ef d3bf
00000310: b3b2 06bf 2282 bdbf 3224 d4be 3957 77bf
00000320: 332e d83e 8141 babf 61ef 573e 5d4e 34bf
00000330: 77ca 423f a01f 8abf fc2e 863f cc1f ecbe
00000340: ccfc 01bf 67a4 95be 2fc2 2fbf ccfc f13e
00000350: 441d 233f 8c5c 0a3e 0b92 a8bd d707 d83d
00000360: c07a 9fbe 94e3 b3be 5f32 803e c2af bdbe
00000370: e112 96bf a7ba 8f3e 26de c93e 509d 55be
00000380: 76c7 993e a582 bebf 8261 1c3f 9056 5dbc
00000390: f9ba 70bf 58ec a5bf 9700 00c0 5561 843c
000003a0: 9ff9 b83f 741c 1bbf b62d fb3e 01c2 60bf
000003b0: 1183 8f3e 9f6e 86bf 3633 41bf 3c6f 06c0
000003c0: be24 cebf 966a a4be d3c7 f23f 9ba7 58bf
000003d0: 16d3 573f 8796 3f3f ddca 233f e88c c1bf
000003e0: 631d c3be d452 91bf 4831 eebd b860 4fbf
000003f0: 7d14 4e3f 8485 19bf bfd3 573f 333b 723f

embed_item.weight f4 [1682, 10]
0.3747509 -0.07414915 -0.98842984 -0.04135439 0.04924491 -1.4279627 0.245391 0.32801387
-0.9149341 -0.032261603 0.4350992 -0.44077086 -1.3168292 -0.40832937 0.6565924 -1.1250607
0.52316105 -0.16752166 -1.6405884 0.041910168 0.19147211 0.31876144 0.15097411 0.28703362
-0.21095422 1.4262049 -0.43072936 0.016825944 0.81211185 0.72986573 -0.6183055 -0.33127642
0.35212332 -0.3833164 0.37586227 0.5406628 0.46109948 -0.3501552 -0.32730666 -0.24398626
0.62828535 -0.44304988 -1.2504865 -0.10131894 0.43905482 -0.69825846 0.4737111 0.22235404
-1.075649 0.2692751 -1.3342061 0.16095504 0.6352938 -0.3147061 0.19673643 -0.58537394
0.06688008 -0.50254005 -0.7169412 -0.9742725 -0.9709089 -0.5942228 0.8368436 -0.67129654
0.6436681 0.5375109 0.5995388 -0.75866026 -0.68953127 -0.6507289 -0.51443267 -0.012269307
0.99807847 -0.2509263 0.22583932 0.7618567 0.013991881 -0.7000522 0.41965267 -0.25233147
-1.0263331 -0.38606948 1.0326054 -0.49126428 0.45974457 0.96016985 0.61053216 -0.5949973
-0.10627636 -0.55532396 -1.0214659 0.3287913 0.25613046 -0.22924796 0.115165755 -0.8187299
0.34172767 -0.17604291 -0.5741902 -0.709708 0.506093 -1.2320254 0.43035614 -0.6973512
0.75022846 -1.0820721 0.91899234 -0.43191722 -0.30880898 -0.3790034 0.62302697 -0.872049
0.006198647 -0.3289415 0.5057739 -0.7146509 0.6204087 -0.050985787 -0.053291615 -0.1810252
-0.07022958 -1.2669384 0.7326076 -0.85445046 0.8666811 -0.6120224 0.9172023 -0.7803413
-0.5957736 -0.5547816 -0.3410666 -0.25976017 0.5830779 -0.20555118 0.13582863 0.8040965
0.28827873 -0.25616646 0.31746396 -0.12472675 -0.29480088 -0.6285844 0.42934373 -0.48571354
0.5685521 1.7114844 0.48694804 -0.435024 -0.36994234 -0.05325437 -0.27554026 -0.2041849
0.38674977 -0.10197979 0.12271938 0.5283471 0.26468945 -0.09434299 0.40567693 0.096970014
-0.74439615 0.24214073 0.11263015 -0.044665735 0.06646018 -0.21286753 0.27355477 -0.019078547
-0.3769557 -0.40436083 0.33337003 -0.9917455 0.60546464 -0.50915635 0.5556821 -1.1013471
0.65116495 -0.47876358 0.21687476 -0.3517888 -0.089707 -0.35212976 0.020848345 -0.19625852
0.16824661 0.83289087 0.21469171 0.04172112 0.0034165676 0.18645713 -0.099114716 1.0234698
0.040456768 0.61991036 -0.5961997 0.6527033 -0.9189215 0.2205155 0.8843344 0.36058304
-0.56344575 -0.15495479 0.67936546 -0.3282633 0.41892064 0.77273136 0.22371607 -0.5837346
0.016203402 -0.17779519 -0.5557819 0.81221056 0.5173846 0.17754515 -0.2768778 -0.80033267
-0.64252853 -0.40973255 0.25294212 -0.2897188 -0.8702251 -0.7266473 0.79767513 -0.6996161
0.68678325 0.22871183 0.6788133 -0.61545426 -0.8209901 -0.76170325 0.38543323 -1.492719
0.68179697 -0.8162453 0.88360584 -0.7437216 0.9600973 -0.68823814 -0.1091891 -0.30373466
0.09739706 -1.4810262 0.9640574 -0.876702 0.8629932 -1.1537846 1.008611 -0.8194722
-0.40041837 -0.5816728 0.4346973 -1.4670687 0.6417465 -0.8044006 0.7674911 -0.48789108
00000000: 5adf bf3e 82db 97bd bd09 7dbf 3963 29bd
00000010: 08b5 493d 7bc7 b6bf c747 7b3e 6ff1 a73e
00000020: 1f39 6abf be24 04bd 53c5 de3e b8ac e1be
00000030: dc8d a8bf 8c10 d1be 7116 283f fd01 90bf
00000040: e2ed 053f cc8a 2bbe cdfe d1bf ffa9 2b3d
00000050: 4411 443e b334 a33e f598 1a3e 12f6 923e
00000060: 6204 58be e28d b63f 8f88 dcbe 90d6 893c
00000070: 90e6 4f3f 7bd8 3a3f 4549 1ebf 109d a9be
00000080: 8249 b43e 0c42 c4be 0571 c03e e168 0a3f
00000090: 3b15 ec3e 8b47 b3be bd94 a7be 89d7 79be
000000a0: 4fd7 203f 6fd7 e2be f10f a0bf 4e80 cfbd
000000b0: cbcb e03e 11c1 32bf 438a f23e c7b0 633e
000000c0: deae 89bf 6dde 893e 44c7 aabf 66d1 243e
000000d0: 9da2 223f 2821 a1be 4675 493e 11db 15bf
000000e0: 6cf8 883d 77a6 00bf 7589 37bf ec69 79bf
000000f0: 7c8d 78bf fc1e 18bf 623b 563f 17da 2bbf
00000100: 6fc7 243f 509a 093f 607b 193f 8f37 42bf
00000110: 1f85 30bf 2b96 26bf dcb1 03bf 3405 49bc
00000120: 1282 7f3f 6979 80be 6c42 673e 0a09 433f
00000130: 343e 653c 9f36 33bf b7dc d63e 9731 81be
00000140: e25e 83bf e6aa c5be 6a2c 843f fe86 fbbe
00000150: a463 eb3e b1cd 753f d64b 1c3f be51 18bf
00000160: 6ca7 d9bd b629 0ebf 65bf 82bf 5557 a83e
00000170: 8823 833e fabf 6abe 06dc eb3d 4898 51bf
00000180: eef6 ae3e 9844 34be 21fe 12bf 6caf 35bf
00000190: 508f 013f 02b3 9dbf a457 dc3e 9c85 32bf
000001a0: f90e 403f 5781 8abf 1543 6b3f 4124 ddbe
000001b0: 361c 9ebe bc0c c2be b27e 1f3f 9a3e 5fbf
000001c0: 051e cb3b 056b a8be 667a 013f 5df3 36bf
000001d0: 1bd3 1e3f 79d6 50bd 4f48 5abd ac5e 39be
000001e0: 87d4 8fbd 0a2b a2bf 2c8c 3b3f 44bd 5abf
000001f0: d0de 5d3f 80ad 1cbf c5cd 6a3f 73c4 47bf
00000200: 9e84 18bf 2b06 0ebf 48a0 aebe 49ff 84be
00000210: 9844 153f 027c 52be a916 0b3e 45d9 4d3f
00000220: 4599 933e 4028 83be a38a a23e bd70 ffbd
00000230: 24f0 96be e8ea 20bf f1d2 db3e 72af f8be
00000240: a18c 113f ec11 db3f 4151 f93e 77bb debe
00000250: 1569 bdbe 4121 5abd 9d13 8dbe d915 51be
00000260: 1104 c63e c8da d0bd 4c54 fb3d c141 073f
00000270: 6085 873e e636 c1bd e3b4 cf3e 3798 c63d
00000280: bf90 3ebf bdf3 773e a3aa e63d 6bf3 36bd
00000290: 461c 883d f2f9 59be 5f0f 8c3e 9d4a 9cbc
000002a0: 5600 c1be 6208 cfbe 7aaf aa3e 08e3 7dbf
000002b0: bbff 1a3f 1258 02bf 2f41 0e3f f1f8 8cbf
000002c0: bfb2 263f 8020 f5be 6b14 5e3e a91d b4be
000002d0: 4eb8 b7bd 5a4a b4be 26ca aa3c fef7 48be
000002e0: d748 2c3e 5638 553f 25d8 5b3e c4e3 2a3d
000002f0: 7ee8 5f3b 9eee 3e3e a8fc cabd 0f01 833f
00000300: ffb5 253d 72b2 1e3f 8ba0 18bf 9017 273f
00000310: 703e 6bbf d1ce 613e bd63 623f 579e b83e
00000320: fb3d 10bf 78ac 1ebe e5ea 2d3f 2112 a8be
00000330: c47c d63e b9d1 453f d315 653e a16f 15bf
00000340: ffbc 843c f10f 36be b947 0ebf 08ed 4f3f
00000350: 5173 043f 65ce 353e edc2 8dbe 9ae2 4cbf
00000360: c07c 24bf 77c8 d1be a181 813e 0656 94be
00000370: 12c7 5ebf 8f05 3abf 7034 4c3f 0a1a 33bf
00000380: 07d1 2f3f 6f33 6a3e b5c6 2d3f 698e 1dbf
00000390: 682c 52bf fcfe 42bf 8157 c53e 6b11 bfbf
000003a0: 3f8a 2e3f 74f5 50bf fe33 623f 8a64 3ebf
000003b0: f0c8 753f 6030 30bf 899e dfbd 1c83 9bbe
000003c0: 1c78 c73d 4492 bdbf 77cc 763f 8b6f 60bf
000003d0: 1fed 5c3f 37af 93bf 2a1a 813f eec8 51bf
000003e0: a303 cdbe 82e8 14bf a590 de3e e8c8 bbbf
000003f0: 8049 243f 33ed 4dbf 4c7a 443f dccc f9be
