models/EBPR_ml-100k_batchsize_50_opt_adam_lr_0.001_latent_20_l2reg_0.001_Epoch48_NDCG@10_0.4040_HR@10_0.6776_MEP@10_0.9285_WMEP@10_0.3585_Avg_Pop@10_0.4702_EFD@10_1.2034_Avg_Pair_Sim@10_0.2659.model (torch, 211111 bytes, 2 tensors)

embed_user.weight f4 [943, 20]
-0.41187814 0.75409234 0.16675945 -0.6140411 0.95890486 -0.10766114 0.61152124 -0.19046693
-0.1011135 0.72011244 -0.33883095 0.1569613 0.5275046 0.3018015 0.10788987 -0.009362653
-1.822142 -0.63834494 -1.8287644 -0.033819094 0.39213225 0.078752875 1.9021386 -0.3108932
1.0334659 1.7101958 -1.3402401 0.97243327 -0.86088276 -0.3678636 -0.84371716 0.07237193
-0.13564113 0.1599391 -0.32558197 -0.17846383 0.82184535 -0.99192095 0.78614426 0.15873228
0.8945342 0.488435 -0.12326511 0.8959198 0.24611142 0.75685924 -1.0625951 0.21814342
1.0434031 -0.13025941 -0.43864828 1.0348734 1.0350622 -1.4810356 0.8436191 1.6514813
-0.43844515 -0.07585335 -1.6277441 -0.03171071 -1.5065901 1.1840309 0.701019 -1.205567
0.92342466 0.7192691 -0.5776389 -0.3748441 -0.32784003 -0.5051107 0.29575655 0.41911048
0.97131664 -0.7181405 -0.629242 0.2109093 -2.4036777 0.52818614 -0.06327493 -1.120994
0.52687955 0.39461762 0.7148652 0.28652677 0.29558763 0.3118671 -0.74613684 0.21418837
-0.55666906 0.3093482 -0.6845676 -0.2240104 0.41118574 0.77564055 0.031704348 0.45862964
0.64721715 -0.054562435 -0.5322329 0.97469944 -0.9052559 -0.5498703 0.3782734 -0.7665941
0.970872 0.021525439 -0.8135418 0.6366151 1.3955749 0.22134608 0.5023413 1.4364659
0.15455261 -0.67179984 -1.1544209 0.70465565 -0.04264538 -0.5387506 -1.5713536 2.2124655
-0.6626969 -0.43557492 0.9576748 0.09249063 0.13057032 0.46335018 0.05223907 2.2254457
1.0369394 1.2079871 -1.047349 1.1981026 0.42637378 0.24065377 -1.2815284 -0.12213114
-1.3242888 -0.5427873 0.296106 -0.35215166 -0.56412745 0.08058795 0.81264013 -0.90336376
0.05288775 0.12080891 -1.1488656 1.0332496 0.20174162 0.9912413 -0.59002775 -0.10116006
1.2003706 -0.3818388 -0.772623 0.5960582 -0.20750006 -0.40736085 -0.18407623 1.465633
-0.5962926 1.0488707 -0.27631453 -1.6849585 -0.32003275 -0.12871751 0.24664819 0.7513593
0.6254956 1.308946 -1.1616318 -0.11233889 2.184502 0.48262656 -0.69822514 0.55136955
-1.3013247 -0.29463238 0.49046633 1.0095253 -0.097509004 -0.71361834 0.5671723 -0.63484687
0.45401862 -0.55203617 0.50150514 0.47912696 1.0246717 1.8386936 -0.11248345 1.038019
0.88834476 0.49363306 -2.308772 0.70949304 -1.1157855 -0.4976643 -1.4573553 1.818354
-0.9490421 1.9544903 -0.25938278 -1.0587064 0.45474532 0.5892241 -0.8728739 0.07005545
0.12111607 0.46831226 -0.08270085 1.2391577 0.66139615 0.23842268 -0.978567 0.26611307
-1.4044061 -0.76224846 0.7521631 -0.031544942 -0.09868084 3.2793672 0.061942503 -0.8750559
0.9521101 0.46640244 0.6141048 1.8214912 0.39099506 0.55126727 0.61144483 -1.2784743
0.47977757 -1.2888099 -0.9400464 -0.033472728 -1.0881798 1.223161 -1.5750067 -0.5654297
-0.077419035 1.0092068 0.6003987 -0.19547041 1.0235811 1.2078279 -1.519738 0.92525476
0.6453527 0.112366736 0.9465698 1.3703514 0.6071224 -1.8056813 -0.4066633 0.9783612
00000000: b1e1 d2be 320c 413f fdc2 2a3e cc31 1dbf
00000010: ca7a 753f 727d dcbd a88c 1c3f c309 43be
00000020: 9814 cfbd 4a59 383f 407b adbe 77ba 203e
00000030: 8b0a 073f ba85 9a3e 5df5 dc3d d065 19bc
00000040: f33b e9bf 936a 23bf f414 eabf e485 0abd
00000050: 8fc5 c83e 3049 a13d 4779 f33f 652d 9fbe
00000060: 9c48 843f b2e7 da3f fd8c abbf 63f1 783f
00000070: d062 5cbf 9e58 bcbe d9fd 57bf bc37 943d
00000080: 82e5 0abe 13c7 233e aeb2 a6be 39bf 36be
00000090: 7564 523f 88ee 7dbf c040 493f b78a 223e
000000a0: 3100 653f 2714 fa3e 6b72 fcbd 005b 653f
000000b0: a204 7c3e 87c1 413f 1e03 88bf fd60 5f3e
000000c0: 3c8e 853f b962 05be 8296 e0be bb76 843f
000000d0: eb7c 843f 9392 bdbf 6cf7 573f bd63 d33f
000000e0: e27b e0be 0059 9bbd eb59 d0bf 17e3 01bd
000000f0: f2d7 c0bf 538e 973f fb75 333f 0550 9abf
00000100: 8f65 6c3f 0522 383f 25e0 13bf 91eb bfbe
00000110: a6da a7be ef4e 01bf 676d 973e a695 d63e
00000120: 35a8 783f 0ed8 37bf 0116 21bf 9cf8 573e
00000130: dbd5 19c0 3537 073f 4996 81bd bb7c 8fbf
00000140: 94e1 063f 520b ca3e 6801 373f a3b3 923e
00000150: 4357 973e 0bad 9f3e d302 3fbf 3254 5b3e
00000160: dd81 0ebf e362 9e3e d23f 2fbf fb62 65be
00000170: f086 d23e 6190 463f 6bdc 013d 81d1 ea3e
00000180: 06b0 253f dc7c 5fbd 6a40 08bf e785 793f
00000190: dabe 67bf 4dc4 0cbf 0dad c13e 833f 44bf
000001a0: 118b 783f 1e56 b03c 4744 50bf 35f9 223f
000001b0: 33a2 b23f 8ca8 623e 7099 003f 1dde b73f
000001c0: 0a43 1e3e 13fb 2bbf 10c4 93bf 5064 343f
000001d0: ecac 2ebd 8feb 09bf 1d22 c9bf 0999 0d40
000001e0: 81a6 29bf ad03 dfbe 2d2a 753f ba6b bd3d
000001f0: 3ab4 053e 3c3c ed3e a3f8 553d b46d 0e40
00000200: 6eba 843f 529f 9a3f 880f 86bf 6d5b 993f
00000210: aa4d da3e f16d 763e 1f09 a4bf e41f fabd
00000220: 4c82 a9bf 1cf4 0abf 359b 973e 394d b4be
00000230: a86a 10bf 4c0b a53d 2f09 503f d942 67bf
00000240: d3a0 583d a96a f73d 070e 93bf 8641 843f
00000250: 5b95 4e3e fdc1 7d3f 0f0c 17bf 012d cfbd
00000260: bea5 993f 6080 c3be 9fca 45bf 4597 183f
00000270: e57a 54be 9a91 d0be 7b7e 3cbe dd99 bb3f
00000280: a2a6 18bf 6541 863f 1979 8dbe b8ac d7bf
00000290: 55db a3be 86ce 03be 5891 7c3e 1559 403f
000002a0: 7b20 203f 8b8b a73f 5ab0 94bf ef11 e6bd
000002b0: e1ce 0b40 d41a f73e e2be 32bf 8e26 0d3f
000002c0: cf91 a6bf 0eda 96be 671e fb3e 2038 813f
000002d0: cdb2 c7bd b1af 36bf 3432 113f 5385 22bf
000002e0: 2175 e83e 3e52 0dbf a462 003f 2150 f53e
000002f0: 7128 833f 505a eb3f b95d e6bd cedd 843f
00000300: 906a 633f 79bd fc3e ecc2 13c0 56a1 353f
00000310: 0fd2 8ebf dbcd febe 9e8a babf d3bf e83f
00000320: 6cf4 72bf bd2c fa3f d2cd 84be b183 87bf
00000330: 61d4 e83e 64d7 163f aa74 5fbf 3b79 8f3d
00000340: b40b f83d a0c6 ef3e 105f a9bd b89c 9e3f
00000350: 4251 293f 1325 743e 5e83 7abf f93f 883e
00000360: 94c3 b3bf b722 43bf c38d 403f 4535 01bd
00000370: 2e19 cabd 27e1 5140 6cb7 7d3d aa03 60bf
00000380: 7dbd 733f 4dcc ee3e f935 1d3f a026 e93f
00000390: 8130 c83e da1f 0d3f a687 1c3f 0ca5 a3bf
000003a0: 68a5 f53e b9f7 a4bf e2a6 70bf b31a 09bd
000003b0: 7a49 8bbf 8a90 9c3f d299 c9bf 00c0 10bf
000003c0: df8d 9ebd b02d 813f bbb3 193f 6529 48be
000003d0: b504 833f 1b9a 9a3f c686 c2bf 7fdd 6c3f
000003e0: d635 253f 8820 e63d 6652 723f ad67 af3f
000003f0: 606c 1b3f 9120 e7bf 2c36 d0be e175 7a3f

embed_item.weight f4 [1682, 20]
0.7321046 0.45488816 0.05604726 0.0071718157 0.90912884 -0.2667446 0.7189036 -0.18773104
-0.4861978 1.1849942 -0.107016385 0.36425793 0.6647619 1.9505678 0.37949446 0.04293279
-0.09937912 0.26851958 -0.58963025 0.25656545 0.38404456 0.37983438 1.2065631 -0.49759674
0.04113465 0.5771564 -0.20501384 0.35567027 -0.6017635 0.7368603 -1.6507162 -0.69631046
0.66426873 1.8264452 -0.030685907 -0.21644731 -0.20325781 0.07764809 -0.8047914 0.46487463
0.08739851 -0.15315391 -0.13153058 0.28972805 -0.3995668 -0.288375 -0.3463582 -0.66744065
-0.001635537 -1.0634358 0.932178 -0.06810201 -1.0215127 -0.83454925 1.9564981 -0.16862346
1.0965657 0.88590974 -0.049680084 -0.061276916 -0.45580474 0.35992646 0.7372361 -0.96467507
0.9055018 0.09387619 -0.32768467 0.04457837 0.19809312 -0.13355376 -0.10822338 0.13306238
0.35625255 -0.75668555 0.5713373 -0.74434835 -0.34656796 -0.17258212 0.8721914 0.22328164
0.70806366 0.4889042 1.0959024 -0.010153337 -0.07372686 -0.19836581 -0.21844444 0.12687968
-0.5909171 0.4385932 -1.3826461 -0.7744234 0.33433926 1.0801597 0.24072441 -0.19964227
-0.03566634 -0.47309786 -0.31057152 0.40025932 -0.124315254 -0.4519629 -0.6265339 -0.272934
-0.59467167 -0.22339797 0.23164834 0.25109828 1.5394396 0.5201535 -0.9608853 1.372301
0.7965536 -0.3513996 -0.6528182 0.95990497 -0.47837794 0.0013962587 -0.22793789 0.83377534
-0.23213327 0.6523398 0.47107944 -0.19773257 0.29706484 0.5378395 -0.48764575 0.69856495
0.9613564 0.4602198 -0.43102235 0.5922157 0.9658854 -1.2805363 -0.017795071 0.16985391
-0.16223913 -0.06721846 -0.05732775 0.36247873 -0.6787659 0.29000595 -0.34609953 0.14290148
0.300604 0.1617987 -0.3024818 0.38845676 0.11375274 -0.40939897 0.86422306 0.18566996
0.09998357 -1.7121464 -0.53993875 -0.045693815 0.2911738 0.044356767 -0.4658453 1.0415187
-0.61501473 0.57372034 0.22066891 -0.93662995 0.7275286 0.36899507 -0.34102502 -0.4340652
0.9568831 -0.054077897 -0.23720387 0.46505895 0.119813055 -1.8075399 0.99089855 -0.112023205
-0.6648139 -0.13809747 -0.56891733 0.10919609 -1.1451039 0.535142 0.019278139 -1.0510964
0.055963278 -0.39707473 -0.37407044 -0.20527159 0.45339492 0.974471 0.40120792 0.11679708
0.4071254 0.36997908 0.019321602 -0.17959772 -0.7508587 0.013046815 0.6132347 0.7037032
0.22218588 1.2442026 0.09564253 -1.0125571 0.43847203 0.9377268 -0.21067572 -0.41850227
-0.17618844 -0.27748603 -0.32962757 0.18225689 0.2923628 0.33492646 -1.3645126 1.0136399
-0.013604009 -1.4209852 -1.1147592 0.18717419 0.026917998 0.7962788 0.1726285 -0.62455374
0.4884925 0.41436866 -0.29387507 -0.6799821 -0.736029 -0.51857823 -0.3304023 -0.24165599
-0.35336617 0.24541445 -1.2879547 0.45279565 -0.5654773 -0.89800787 -0.6790237 -0.20033857
-0.06085514 1.1542841 -0.34672737 -0.24485691 0.76712364 1.1327832 -0.9061374 0.7489171
0.24938567 0.29679188 -0.43855387 0.8142997 0.7604762 -0.10602587 -0.86322266 1.2074306
00000000: 356b 3b3f 1ae7 e83e d091 653d 8d01 eb3b
00000010: abbc 683f c092 88be 110a 383f 913c 40be
00000020: ebee f8be e4ad 973f 682b dbbd 0480 ba3e
00000030: d62d 2a3f 35ac f93f 194d c23e 4bda 2f3d
00000040: 4887 cbbd 667b 893e 02f2 16bf 8c5c 833e
00000050: 7da1 c43e a779 c23e a970 9a3f 00c5 febe
00000060: cf7c 283d 86c0 133f 26ef 51be 6a1a b63e
00000070: 2c0d 1abf e0a2 3c3f ab4a d3bf 6741 32bf
00000080: 840d 2a3f f5c8 e93f 0361 fbbc 5da4 5dbe
00000090: d122 50be f605 9f3d cf06 4ebf 0c04 ee3e
000000a0: fdfd b23d 61d4 1cbe f4af 06be 3c57 943e
000000b0: 0594 ccbe e3a5 93be dd55 b1be 64dd 2abf
000000c0: 845f d6ba aa1e 88bf 38a3 6e3f 1179 8bbd
000000d0: eec0 82bf 05a5 55bf 886e fa3f a1ab 2cbe
000000e0: 445c 8c3f fbca 623f 587d 4bbd 81fd 7abd
000000f0: 3d5f e9be 4848 b83e 81bb 3c3f f2f4 76bf
00000100: f7ce 673f 2942 c03d 49c6 a7be cf97 363d
00000110: ecd8 4a3e 51c2 08be 38a4 ddbd 8141 083e
00000120: bc66 b63e 25b6 41bf 2943 123f 9d8d 3ebf
00000130: 5b71 b1be 5eb9 30be f047 5f3f f1a3 643e
00000140: a943 353f a751 fa3e 8846 8c3f 2f5a 26bc
00000150: 1cfe 96bd 6820 4bbe e6af 5fbe bfec 013e
00000160: 5846 17bf 4a8f e03e 8cfa b0bf 9d40 46bf
00000170: 842e ab3e ac42 8a3f 7680 763e 066f 4cbe
00000180: de16 12bd e239 f2be 3b03 9fbe caee cc3e
00000190: ff98 febd ae67 e7be 8764 20bf 01be 8bbe
000001a0: 673c 18bf 70c2 64be 3935 6d3e f48f 803e
000001b0: 5b0c c53f c828 053f 94fc 75bf 8fa7 af3f
000001c0: f0ea 4b3f a6ea b3be 181f 27bf 55bc 753f
000001d0: f4ed f4be ab02 b73a 8d68 69be 4d72 553f
000001e0: 58b4 6dbe beff 263f 5331 f13e 687a 4abe
000001f0: e218 983e d9af 093f b4ac f9be 27d5 323f
00000200: 741b 763f eea1 eb3e f6ae dcbe 739b 173f
00000210: 4444 773f 9de8 a3bf f8c6 91bc 2fee 2d3e
00000220: 0422 26be d5a9 89bd 81d0 6abd d096 b93e
00000230: 9ac3 2dbf a97b 943e f533 b1be c454 123e
00000240: c4e8 993e 8fae 253e e5de 9abe cee3 c63e
00000250: 32f7 e83d be9c d1be b93d 5d3f 4420 3e3e
00000260: 30c4 cc3d 9d27 dbbf 6d39 0abf 7029 3bbd
00000270: bb14 953e 71af 353d 4683 eebe 7c50 853f
00000280: 9b71 1dbf 56df 123f 08f7 613e fbc6 6fbf
00000290: 503f 3a3f ecec bc3e d59a aebe cb3d debe
000002a0: 4af6 743f c980 5dbd 92e5 72be 351c ee3e
000002b0: 8c60 f53d 785d e7bf 87ab 7d3f 6c6c e5bd
000002c0: 3e31 2abf 6c69 0dbe 91a4 11bf 33a2 df3d
000002d0: c492 92bf 11ff 083f 30ed 9d3c 548a 86bf
000002e0: c039 653d 614d cbbe 2986 bfbe b732 52be
000002f0: 6123 e83e ee76 793f 206b cd3e 4f33 ef3d
00000300: be72 d03e e66d bd3e 5648 9e3c 77e8 37be
00000310: 4738 40bf 4fc2 553c f3fc 1c3f e525 343f
00000320: b284 633e 0842 9f3f 3be0 c33d 799b 81bf
00000330: 687f e03e dd0e 703f 60bb 57be ee45 d6be
00000340: be6a 34be a612 8ebe f2c4 a8be 8da1 3a3e
00000350: 94b0 953e 7b7b ab3e 59a8 aebf f4be 813f
00000360: 59e3 5ebc d8e2 b5bf 6eb0 8ebf 97aa 3f3e
00000370: 2283 dc3c edd8 4b3f 87c5 303e c1e2 1fbf
00000380: b01b fa3e 2128 d43e cb76 96be 4f13 2ebf
00000390: 666c 3cbf 8bc1 04bf 7e2a a9be ab74 77be
000003a0: 69ec b4be ed4d 7b3e b3db a4bf d5d4 e73e
000003b0: 1fc3 10bf d8e3 65bf 7fd4 2dbf 8e25 4dbe
000003c0: 3d43 79bd 95bf 933f 4086 b1be c5bb 7abe
000003d0: 3762 443f 0aff 903f 9ff8 67bf 08b9 3f3f
000003e0: f55e 7f3e 1bf5 973e 228a e0be f275 503f
000003f0: 91ae 423f 1724 d9bd 29fc 5cbf 168d 9a3f
